ModelWeights/LunarLander-v2/actor.weights.pt (torch, 57292 bytes, 10 tensors)

network.0.weight f4 [64, 8]
0	0xbebaaaaf	-0.36458346
1	0x3e056da7	0.1303011
2	0xbe3949ef	-0.1809461
3	0x3e886690	0.2664075
4	0xbd687d47	-0.0567601
5	0x3e9d74e6	0.3075325
6	0x3e67fdf8	0.22655475
7	0xbe71bb09	-0.23606504
8	0xbe72aa93	-0.23697881
9	0xbcb7a92a	-0.02241953
10	0xbe8c636a	-0.27419597
11	0xbefefc4e	-0.49801868
12	0x3e0dfe6f	0.1386659
13	0x3df7858a	0.120860174
14	0xbdfe3084	-0.12411597
15	0x3e3ebc33	0.1862648
16	0x3e729520	0.23689699
17	0xbecccc32	-0.3999954
18	0xbe9f32df	-0.310935
19	0x3d383639	0.044973586
20	0x3e178a12	0.14798763
21	0xbd017e48	-0.03161457
22	0xbe2fceb0	-0.17168689
23	0xbe928064	-0.2861358
24	0xbe2e4591	-0.17018725
25	0x3e46e02a	0.1942145
26	0x3ebd6c2c	0.3699659
27	0x3d7ef489	0.062244926
28	0xbe6b79a5	-0.22995622
29	0xbf0493b6	-0.5178789
30	0xbe7df571	-0.2480066
31	0x3ea97e0a	0.33103973
32	0xbe9ed5ba	-0.31022435
33	0xbead2ea8	-0.33824658
34	0x3e87abe3	0.26498327
35	0xbeffd70a	-0.4996875
36	0xbde7cc3a	-0.1131825
37	0xbe161d30	-0.14659572
38	0x3e25af4d	0.16180153
39	0xbe275e3e	-0.16344544
40	0xbd555711	-0.052084986
41	0xbe4cd84b	-0.20004384
42	0xbd80c97e	-0.062884316
43	0xbf0050d4	-0.50123334
44	0x3e14f956	0.14548239
45	0xbe5785e6	-0.21047172
46	0xbdf961e5	-0.12176875
47	0x3e37d623	0.1795278
48	0xbeb78511	-0.3584371
49	0x3e298a54	0.16556674
50	0xbcbcdfdd	-0.023055965
51	0x3e5076e0	0.20357847
52	0x3ed5c324	0.41750443
53	0x3e9ae471	0.30252412
54	0xbe65b083	-0.22430615
55	0x3e9ba83c	0.3040179
56	0x3e6968f5	0.22793944
57	0x3db00eca	0.08596571
58	0x3e3f8481	0.1870289
59	0xbe81d9fb	-0.25361618
60	0x3e4808c7	0.19534598
61	0x3e98ec24	0.2986766
62	0x3cf7e3bd	0.030259961
63	0x3dee2887	0.11628824
64	0x3da616f6	0.08109848
65	0x3e3b5e9a	0.18297806
66	0xbd2e1bff	-0.042507168
67	0xbd3cc502	-0.04608632
68	0x3da4984a	0.08036859
69	0xbe93e3fb	-0.28884873
70	0x3e286b86	0.16447267
71	0xbecc6337	-0.39919445
72	0xbe8c1aec	-0.2736429
73	0xbea7435b	-0.32668576
74	0xbe786203	-0.24256139
75	0xbd423177	-0.047410455
76	0xbe8bfd85	-0.27341858
77	0x3e3f0bf1	0.18656899
78	0xbe439452	-0.19099548
79	0x3e3e9bca	0.18614116
80	0xbe574235	-0.2102135
81	0x3e8155d4	0.25260794
82	0x3eba972e	0.36443466
83	0x3d976d5a	0.07393904
84	0xbf0b522e	-0.5442227
85	0xbeb8acf9	-0.36069468
86	0x3e8b26a2	0.27177912
87	0xbe29e8e0	-0.16592741
88	0xbe5437d6	-0.20724425
89	0xbe37bfe7	-0.17944299
90	0xbe57ab8c	-0.21061534
91	0xbde97e36	-0.11401026
92	0x3ee7d027	0.45275995
93	0x3d5b8de7	0.053602125
94	0x3dbdc8af	0.09266793
95	0x3e021f50	0.12707257
96	0xbdf5b561	-0.11997486
97	0x3ecb93f9	0.39761332
98	0x3e8df8d9	0.27728918
99	0x3ea79c74	0.32736552
100	0xbe285944	-0.16440302
101	0x3e601216	0.21881899
102	0x3e61855c	0.22023529
103	0x3eb3471f	0.350152
104	0xbd0e1b28	-0.034693867
105	0x3dc161a5	0.09442452
106	0x3dfd341e	0.12363456
107	0x3e996741	0.2996159
108	0xbe5ca762	-0.21548226
109	0x3e4b7ec0	0.1987257
110	0xbeb3dc33	-0.35128936
111	0xbd971bec	-0.073783726
112	0x3ea406d4	0.3203646
113	0x3e777731	0.24166562
114	0x3e128511	0.14308573
115	0x3d165a47	0.03670719
116	0xbf02fc64	-0.5116637
117	0xbead0d02	-0.33798987
118	0x3ca18211	0.01971534
119	0xbd9f166c	-0.077679485
120	0x3e8a0d95	0.26963487
121	0xbcb9590d	-0.02262547
122	0xbd83c1c5	-0.06433443
123	0xbe7c067f	-0.24611853
124	0x3d5244d2	0.051335163
125	0x3ebf3c3d	0.37350646
126	0x3e34a8d4	0.17642528
127	0xbe1f0630	-0.15529704
128	0x3d6d3c09	0.057918582
129	0xbe1d672a	-0.15371385
130	0xbe445da1	-0.19176342
131	0xbf047309	-0.5173803
132	0xbe673083	-0.225771
133	0x3eae9537	0.34098217
134	0x3e86f2fe	0.26357263
135	0x3e5f3067	0.21795808
136	0x3e75bc05	0.23997505
137	0x3c4a427d	0.012344954
138	0xbec29f03	-0.3801194
139	0x3e165602	0.14681247
140	0xbe7ac7e0	-0.24490309
141	0x3d8a3f95	0.067504086
142	0xbe2153d0	-0.15754628
143	0xbe83f15a	-0.25770074
144	0xbe686d89	-0.22698034
145	0xbeba059c	-0.36332405
146	0x3e2ecbab	0.1706988
147	0x3e656652	0.22402313
148	0x3d5aa047	0.05337551
149	0xbe5bc5d8	-0.2146219
150	0x3bc89b01	0.0061219935
151	0x3e861ab4	0.26192248
152	0x3ebca8d9	0.3684757
153	0x3e9eeda6	0.31040686
154	0x3ecf0a0d	0.40437356
155	0x3e4b4c5e	0.1985335
156	0x3dc4bed0	0.09606707
157	0xbd2791a2	-0.04091037
158	0x3e8d1b37	0.27559826
159	0x3daa40d4	0.08313146
160	0x3d921330	0.07132566
161	0x3eaad008	0.3336184
162	0xbee6ade3	-0.4505454
163	0xbd9322e9	-0.07184393
164	0x3f025eb6	0.5092577
165	0x3d80cea0	0.062894106
166	0x3e63be64	0.22240597
167	0xbe349fbb	-0.17639057
168	0xbe68e09d	-0.22741933
169	0x3e5c5436	0.21516499
170	0x3eb28ac9	0.3487151
171	0xbdd410bd	-0.10354755
172	0xbcb55db8	-0.022139415
173	0xbf03f28c	-0.5154197
174	0xbc01929b	-0.007908489
175	0xbee26bfd	-0.44223014
176	0xbe9063be	-0.28201097
177	0x3e085d24	0.1331678
178	0xbe85c2ad	-0.26125088
179	0x3e84f9d5	0.25971857
180	0xbeaf2e94	-0.34215224
181	0xbdb4ab4d	-0.088217355
182	0x3d49ef50	0.04930049
183	0xbe2a02ad	-0.16602583
184	0xbc44bf99	-0.012008571
185	0x3e998d74	0.29990733
186	0xbe87198d	-0.2638668
187	0x3d079ce7	0.033108618
188	0x3c905865	0.017620275
189	0xbe2dd207	-0.1697465
190	0x3e8efd69	0.27927712
191	0xbec06914	-0.37580168
192	0xbe6e889c	-0.232943
193	0x3e3d76f3	0.18502407
194	0xbec055a2	-0.37565333
195	0x3e81d4b5	0.25357595
196	0x3e1ccb6c	0.15311974
197	0x3ebce938	0.36896682
198	0x3c405439	0.01173883
199	0x3c888462	0.016664688
200	0xbd340240	-0.04394746
201	0xbdeb0f9f	-0.11477589
202	0x3e648c4b	0.22319143
203	0x3e2cafca	0.16863933
204	0xbe801dfa	-0.2502287
205	0xbec8ace1	-0.39194396
206	0xbdc0db08	-0.09416777
207	0x3ea319d5	0.31855646
208	0x3eb5f1e2	0.35536104
209	0xbe7638f7	-0.24045168
210	0x3e47b47a	0.1950244
211	0xbec48584	-0.38383114
212	0xbe018edc	-0.12652153
213	0xbed21c35	-0.41037145
214	0x3c1e7fb1	0.009673999
215	0xbdbd66c0	-0.09248114
216	0xbea6abed	-0.32553044
217	0xbd42dada	-0.047571994
218	0xbe8b8c4f	-0.27255484
219	0x3e50ab6e	0.20377895
220	0xbd34995f	-0.04409158
221	0x3e78cc56	0.24296698
222	0x3d583e60	0.05279386
223	0xbebc072f	-0.3672423
224	0x3c96898f	0.01837614
225	0xbe0432d9	-0.12910022
226	0x3e307a57	0.17234169
227	0x3e626c36	0.22111592
228	0x3e9e532c	0.3092283
229	0x3e798ef4	0.24370939
230	0xbe9307a1	-0.28716758
231	0xbe5bcffe	-0.21466061
232	0xbec1ec6e	-0.37875694
233	0xbddd6397	-0.10810011
234	0x3edee683	0.4353524
235	0xbeadfe40	-0.3398304
236	0x3d9a5709	0.07536132
237	0x3ec8ca53	0.3921686
238	0xbeb5e12a	-0.3552335
239	0xbe794637	-0.24343191
240	0xbdaad754	-0.08341852
241	0xbe9d32be	-0.30702776
242	0xbd96fe0e	-0.07372676
243	0xbe936099	-0.28784636
244	0xbeb381df	-0.3506002
245	0xbe9751e2	-0.2955466
246	0xbe468fad	-0.19390745
247	0x3e3d2961	0.18472816
248	0x3d3fe183	0.046845924
249	0x3eb6eaea	0.357261
250	0x3c458e67	0.012057877
251	0xbe06c30d	-0.13160343
252	0x3ee55a7d	0.447956
253	0x3ef0f89a	0.47064668
254	0xbe91f8f3	-0.28510246
255	0xbeaa74e3	-0.33292302

network.0.bias f4 [64]
0	0x3e919175	0.28431287
1	0xbb8e7ff9	-0.0043487516
2	0xbe23c946	-0.15994748
3	0xbb966975	-0.004590208
4	0x3cb6f25d	0.022332365
5	0x3cfa4422	0.030550066
6	0x3dea6694	0.114453465
7	0xbe06bc8e	-0.13157865
8	0xbd957cdd	-0.072992064
9	0xbeabcdf0	-0.33555555
10	0x3eb604d0	0.35550547
11	0x3e8133d3	0.2523485
12	0xbe323f72	-0.17407015
13	0xbe160729	-0.14651169
14	0x3eb1e132	0.34742123
15	0xbcebae7b	-0.028769722
16	0x3e1e35dc	0.15450233
17	0xbdcec527	-0.100961976
18	0xbcfcf51e	-0.0308786
19	0xbda078f9	-0.07835574
20	0x3de0a6eb	0.10969337
21	0x3e1a2803	0.15054326
22	0xbe6d9796	-0.23202357
23	0xbe5bdf4f	-0.21471904
24	0x3eace76f	0.3377032
25	0xbe82ffed	-0.2558588
26	0x3dad7141	0.08468867
27	0xbe594b2f	-0.21220087
28	0xbe81950b	-0.25309023
29	0xbe2b2988	-0.16715062
30	0x3e88160f	0.2657933
31	0xbe1860dc	-0.14880699
32	0x3dd24b18	0.10268229
33	0x3d851f30	0.06500089
34	0x3db01f5b	0.085997306
35	0xbe59446c	-0.21217507
36	0xbe9928ec	-0.29914033
37	0x3e9b37c2	0.30315977
38	0x3dedc1ed	0.11609254
39	0x3e080bda	0.13285771
40	0x3d1ae452	0.0378154
41	0xbdc13516	-0.094339535
42	0xbe884ae2	-0.2661963
43	0x3dfaf8b1	0.12254465
44	0xbc9a30bd	-0.018822068
45	0x3e74a905	0.23892601
46	0x3e660eb8	0.22466552
47	0xbd6d1060	-0.057876945
48	0x3df0855a	0.11744185
49	0x3ec55d46	0.38547724
50	0xbccb033a	-0.024781812
51	0xbcadd5c9	-0.021220105
52	0xbb5c5c1c	-0.0033624237
53	0xbe4b92f1	-0.19880272
54	0xbe70d238	-0.23517692
55	0x3ceae4cd	0.028673554
56	0xbd950630	-0.07276571
57	0x3da04dda	0.07827349
58	0xbe6f37d9	-0.23361148
59	0x3e85dbf9	0.26144388
60	0xbd3f9e15	-0.04678162
61	0xbe981503	-0.2970353
62	0xbdb6793f	-0.089098446
63	0x3e3c869e	0.18410727

network.2.weight f4 [64, 64]
0	0x3e0f9b14	0.14024001
1	0x3e0b0b2c	0.1357848
2	0x3cc7b414	0.02437786
3	0xbe2ffa86	-0.17185411
4	0x3d5eab75	0.054362733
5	0xbda1c371	-0.078986056
6	0x3d98cff0	0.07461536
7	0x3d444cad	0.047924686
8	0x3c677884	0.014127854
9	0xbd9db629	-0.0770076
10	0xbdf59beb	-0.119926296
11	0x3e09ea33	0.13468246
12	0x3d1fc429	0.039005432
13	0xbd787d9c	-0.060666665
14	0x3db2df42	0.08733989
15	0x3d9c6bb8	0.07637733
16	0xbd80d3f4	-0.06290427
17	0x3dbfbb64	0.09361914
18	0x3d53b8c3	0.051689874
19	0xbdcf9dd8	-0.10137528
20	0x3d5a634c	0.053317353
21	0xbd4484ae	-0.047978096
22	0x3d996ce0	0.074914694
23	0x3cfe203b	0.031021228
24	0x3d077a6c	0.033075735
25	0xbd8cdb76	-0.06877796
26	0xbdf5f572	-0.120097056
27	0xbc7a9ff9	-0.0152969295
28	0x3deb0e2d	0.11477313
29	0xbdb67334	-0.08908692
30	0x3d03b40c	0.032154128
31	0x3db9cedc	0.090726584
32	0x3c886e45	0.016654143
33	0x3d4f96ab	0.050680798
34	0x3e2c7a11	0.1684344
35	0xbd98101d	-0.07424948
36	0x3ca73cca	0.020414729
37	0xbd918f3a	-0.071073964
38	0xbe294c93	-0.16533117
39	0x3d4ba847	0.04972103
40	0x3d5962ff	0.053072926
41	0xbd847206	-0.06467061
42	0x3d26a2ee	0.040682726
43	0x3ce2a516	0.02766661
44	0xbdc16b5b	-0.094443046
45	0x3e0d34fd	0.13789745
46	0xbcbfdaa9	-0.023419695
47	0xbd454c57	-0.048168506
48	0xbe0023cd	-0.12513657
49	0x3e3ca1ff	0.18421172
50	0x3bd85595	0.006601999
51	0x3d80727c	0.06271836
52	0x3dbb0194	0.091311604
53	0xbdb66dfd	-0.08907697
54	0xbd970013	-0.07373061
55	0x3dc7d5ae	0.09757553
56	0xbdbc9fd3	-0.092101716
57	0x3bce699e	0.0062992116
58	0xbde4ed00	-0.11178017
59	0x3d9f002a	0.07763703
60	0xbc8ffa28	-0.017575338
61	0x3d7b7a58	0.061395973
62	0x3deed820	0.11662316
63	0xbdef1101	-0.11673165
64	0xbd4af08a	-0.049545802
65	0x3da86c25	0.08223752
66	0x3d89bd9a	0.06725617
67	0xbd8baa7c	-0.06819627
68	0x3e815e7a	0.25267392
69	0xbc446e6c	-0.011989217
70	0xbd9fa4ec	-0.07795128
71	0x3e4e9a69	0.2017609
72	0xbd7b45a0	-0.061345696
73	0xbd424686	-0.047430538
74	0xbd2ef678	-0.04271552
75	0x3dcd07ca	0.10011251
76	0xbd83e6fe	-0.06440543
77	0xbde208db	-0.11036845
78	0x3cb9569c	0.022624306
79	0x3e21e7f6	0.15811142
80	0x3e009f0e	0.12560675
81	0xbda94225	-0.08264569
82	0x3d057273	0.03257985
83	0xbdd2ace7	-0.10286885
84	0x3c398565	0.011323308
85	0xbd7eac8a	-0.062176265
86	0x3e0dcfe1	0.13848831
87	0xbd539ae4	-0.051661387
88	0xbc6bfefa	-0.014404053
89	0x3e2c3af6	0.16819367
90	0x3e417841	0.1889353
91	0x3dd78116	0.10522668
92	0xbde2b942	-0.110704914
93	0xbb826b7d	-0.0039800988
94	0x3c8f7374	0.017511107
95	0x3d7f4e48	0.062330514
96	0xbad21d60	-0.0016030483
97	0xbc5debce	-0.01354499
98	0x3d84db05	0.06487087
99	0xbe570a5d	-0.21000047
100	0xbdd07412	-0.10178389
101	0xbe058df2	-0.13042429
102	0xbe266e31	-0.16252972
103	0xbd8b5edb	-0.068052016
104	0x3c731793	0.0148371635
105	0x3d79ad45	0.06095626
106	0x3d5dad5d	0.05412041
107	0x3dbc60d7	0.09198158
108	0x3d912436	0.07086985
109	0xbe259408	-0.1616975
110	0x3d194e00	0.037427902
111	0x3d3eda9f	0.046595212
112	0xbdfd826a	-0.1237839
113	0x3d33cac4	0.043894544
114	0xbdcdf819	-0.100570865
115	0x3dc9973f	0.09843301
116	0x3dfe593e	0.12419365
117	0xbc841f3b	-0.016128173
118	0x3db4bba7	0.08824854
119	0xbce1c74d	-0.027560854
120	0x3df659dd	0.12028859
121	0x3dbe32c3	0.09287026
122	0x3a0ba540	0.00053270534
123	0x3db25216	0.08707063
124	0xbd53d45e	-0.0517162
125	0x3da12e17	0.07870119
126	0x3dc892f9	0.09793658
127	0x3dae980b	0.08525094
128	0xbde952e1	-0.11392761
129	0xbe039d98	-0.12853086
130	0x3d822691	0.06355012
131	0x3d362abe	0.044474356
132	0xbe3923e7	-0.18080102
133	0x3d2013f0	0.039081514
134	0xbd974429	-0.073860474
135	0xbdf1305b	-0.11776801
136	0x3b819808	0.003954891
137	0xbd81230c	-0.06305513
138	0xba2c1dac	-0.0006565701
139	0x3d1f6335	0.03891297
140	0x3e3293d5	0.17439206
141	0xbc6cf0b0	-0.014461681
142	0xbd99ff94	-0.07519451
143	0xbe764a82	-0.2405186
144	0x3d75c46d	0.06000178
145	0x3d27514f	0.040849026
146	0x3dbe059a	0.09278412
147	0xbc88de20	-0.01670748
148	0xbe171c31	-0.14756848
149	0xbc1cfe65	-0.009582137
150	0x3cfea998	0.031086728
151	0xbc866f1e	-0.016410407
152	0x3d5ed5fd	0.054403294
153	0xbe6be35b	-0.23035948
154	0xbe72d03d	-0.23712249
155	0x3d6d5b9d	0.057948697
156	0xbda4b131	-0.08041609
157	0xbceaf44b	-0.028680941
158	0xbd952fe6	-0.072845265
159	0xbc8b2d3e	-0.016989347
160	0xbdc75530	-0.09733045
161	0x3cebafe1	0.028770389
162	0x3d436a0a	0.04770855
163	0x3e76db53	0.24107103
164	0xbdc46f70	-0.095915675
165	0xbe4cc7d1	-0.19998099
166	0x3d22b561	0.039723758
167	0xbd5e594a	-0.05428437
168	0x3e090409	0.13380446
169	0xbd891b08	-0.06694609
170	0x3d75ddfc	0.060026154
171	0x3d8ee254	0.069767624
172	0xbc6aa42e	-0.01432137
173	0x3c0782c9	0.008270928
174	0xbd577e96	-0.052610956
175	0x3dd97405	0.10617832
176	0x3d09075d	0.033454288
177	0x3e2297c5	0.15878208
178	0xbe6890d7	-0.22711502
179	0xbdc1144f	-0.09427702
180	0x3c8fa341	0.0175339
181	0xbde949f2	-0.11391057
182	0x3daea0e9	0.08526785
183	0x3b69d883	0.003568203
184	0x3d472c62	0.04862631
185	0x3d93f0a4	0.07223633
186	0x3e2dc7cf	0.16970752
187	0xbc62b669	-0.013837435
188	0xbcd45aa0	-0.02592212
189	0x3d97e447	0.07416587
190	0xbc432ed0	-0.011913016
191	0xbe3ae547	-0.18251525
192	0x3e26f615	0.1630481
193	0x3e0f213f	0.13977526
194	0xbdce4f7f	-0.100737564
195	0xbd8daa14	-0.069172055
196	0xbe12796b	-0.1430413
197	0x3d86c0f0	0.06579769
198	0x3e4c6ccf	0.19963382
199	0xbd25de29	-0.04049507
200	0x3e0617c4	0.13095003
201	0x3db15147	0.086580805
202	0xbbafe4d1	-0.005367853
203	0x3cc2d430	0.02378282
204	0xbdb756ec	-0.08952126
205	0x3dad1187	0.08450609
206	0xbc5db0b9	-0.0135309035
207	0xbdd41d66	-0.1035717
208	0x3db6ab70	0.08919418
209	0x3dfceb35	0.1234955
210	0x3e054773	0.13015537
211	0xbdbaaa0e	-0.091144666
212	0x3db701de	0.08935903
213	0xbcb4f941	-0.02209151
214	0xbd292caa	-0.04130236
215	0x3cdadf62	0.026717845
216	0x3e378f6b	0.17925803
217	0x3dc129fa	0.094318345
218	0xbde7c2ee	-0.11316477
219	0x3dfcf691	0.12351716
220	0xbd7a2615	-0.061071474
221	0xbd241d80	-0.040067196
222	0x3ce16361	0.027513208
223	0x3d9e9862	0.077439085
224	0x3e261991	0.1622069
225	0x3e551e05	0.20812233
226	0x3da1e9a8	0.079058945
227	0x3c5f7313	0.013638276
228	0x3d9e4eea	0.077298954
229	0x3d5c229b	0.05374394
230	0xbe554e57	-0.20830666
231	0xbc1703e1	-0.009217233
232	0x3cdbeada	0.026845384
233	0x3d6b6ca6	0.057476662
234	0xbba9aac1	-0.005177826
235	0x3d10036a	0.035159506
236	0x3cf7dc4c	0.030256413
237	0x3d9c36bc	0.07627627
238	0xbd10fd27	-0.035397675
239	0xbc24dfe4	-0.010063145
240	0x3ccaaf7f	0.024741886
241	0x3d983b34	0.07433167
242	0xbc4e5330	-0.012593076
243	0x3d630b04	0.055430427
244	0xbd80d9dc	-0.062915534
245	0xbde57d5b	-0.1120555
246	0xbb30146e	-0.0026867646
247	0xbda57ff8	-0.08081049
248	0xbb3a6791	-0.0028443078
249	0xbc05b4a6	-0.008160746
250	0xbdcb9183	-0.099398635
251	0x3dcadb6e	0.09905134
252	0xbe270824	-0.16311699
253	0xbd8e485e	-0.06947397
254	0xbcd38b90	-0.025823385
255	0x3dca3e04	0.0987511

network.2.bias f4 [64]
0	0x3e014c3a	0.12626734
1	0xbd87af4f	-0.06625234
2	0x3d2a145a	0.041523315
3	0xbde4ef93	-0.11178508
4	0x3de56f3f	0.11202859
5	0x3d36afcf	0.044601258
6	0xbd49bfb6	-0.049255095
7	0x3d168c46	0.03675487
8	0xbda06791	-0.07832254
9	0x3ccf6edd	0.025321418
10	0x3d04340c	0.0322762
11	0xbdbcd831	-0.09220923
12	0xbc508c2c	-0.012728732
13	0x3d4d3049	0.050094876
14	0x3da6651e	0.08124755
15	0x3c080312	0.008301513
16	0x3dc93fe7	0.098266415
17	0xbdcd2619	-0.10017032
18	0xbc8bd111	-0.017067464
19	0x3c56176f	0.01306711
20	0x3df102bd	0.117681004
21	0xbd5bca76	-0.05365988
22	0xbd60c6fe	-0.054877274
23	0x3c8968d1	0.016773613
24	0xbd808193	-0.06274714
25	0x3d194239	0.03741667
26	0xbcaf195e	-0.0213744
27	0xbd843680	-0.064557076
28	0x3cbc9ec1	0.023024919
29	0xbd8926a6	-0.06696825
30	0xbd19fb67	-0.03759327
31	0xbd9382b5	-0.07202665
32	0xbd1d3ebe	-0.038389914
33	0x3d4b3b7b	0.049617272
34	0xbd02baad	-0.03191631
35	0xbdba6b79	-0.0910253
36	0x3d8241dc	0.06360218
37	0xbcf7250d	-0.030169034
38	0xbc8ad40f	-0.01694682
39	0x3d9ff389	0.078101225
40	0xbc50076e	-0.012697084
41	0x3df4a6ef	0.119459026
42	0xbcfb5016	-0.030677836
43	0xbd1eb13d	-0.038743246
44	0x3d998afa	0.07497211
45	0x3e0ad376	0.13557228
46	0x3c8e0dd0	0.01734057
47	0xbda7334f	-0.08164083
48	0x3e0e4d5b	0.13896696
49	0xbca0cae8	-0.019628003
50	0x3dd52484	0.104073554
51	0xbd9ee8ad	-0.07759223
52	0x3dadac24	0.08480099
53	0xbc9c7ece	-0.019103434
54	0x3d937649	0.072002955
55	0x3d2651df	0.040605422
56	0xbc0d73a2	-0.008633526
57	0xbda7644d	-0.08173428
58	0x3cb29ec4	0.021804221
59	0x3d020429	0.03174225
60	0x3d32a42e	0.043613605
61	0xbbaf6c7e	-0.0053535094
62	0xbdc98ded	-0.09841523
63	0xbd811743	-0.06303265

network.4.weight f4 [64, 64]
0	0xbe19a9ba	-0.15006152
1	0xbdc90414	-0.09815231
2	0xbc7f14c8	-0.0155689195
3	0x3d802500	0.06257057
4	0xbde99872	-0.1140603
5	0x3e6a5f8b	0.22888009
6	0xbc7408f0	-0.014894709
7	0x3e1d2370	0.1534555
8	0xbd0e5890	-0.03475243
9	0x3c206f5e	0.009792177
10	0x3e2ded3a	0.16985026
11	0x3e257aed	0.16160174
12	0x3e83fae4	0.25777352
13	0xbdf5effc	-0.12008664
14	0xbd4cda84	-0.05001308
15	0x39b8b0f2	0.0003522705
16	0x3e037104	0.12836081
17	0xbdc11093	-0.094269894
18	0x3df54024	0.119751245
19	0x3e066127	0.13122998
20	0x3db87c42	0.09008075
21	0x3d411dc9	0.047147546
22	0x3de7e70b	0.11323365
23	0xbd3a647b	-0.045505982
24	0xbd08ed10	-0.033429205
25	0xbd9cf65d	-0.076641776
26	0x3bfe8a5d	0.007767959
27	0x3c96e130	0.018417925
28	0x3e0e8006	0.13916025
29	0x3e004f8a	0.12530342
30	0x3d42955d	0.047505725
31	0x3d111945	0.03542449
32	0x3e61d578	0.22054088
33	0x3d47d437	0.04878637
34	0xbd0e37a6	-0.03472104
35	0x3cb5817e	0.022156473
36	0x3e315416	0.17317232
37	0x3dc7c0d5	0.09753577
38	0x3c986c9b	0.018606475
39	0x3e27d5f3	0.16390209
40	0x3dc31cc1	0.09526969
41	0x3dc8a8d2	0.09797825
42	0x3d566509	0.05234245
43	0xbcaa3f4a	-0.020782132
44	0x3e56d2fa	0.20978919
45	0x3dab7440	0.08371782
46	0xbd862f73	-0.06552019
47	0xbd5262eb	-0.051363867
48	0x3d424822	0.047432072
49	0xbe352baa	-0.17692438
50	0xbc963161	-0.018334093
51	0x3d68d536	0.05684396
52	0x3dd4c660	0.103893995
53	0x3cd606c3	0.026126271
54	0xbd5ab712	-0.053397246
55	0xbe33c087	-0.17553912
56	0x3d7af75f	0.061271068
57	0x3dd21e41	0.10259677
58	0xbe426a35	-0.18985827
59	0x3e00ae22	0.12566426
60	0x3dc34315	0.09534279
61	0xbdfd86f7	-0.12379258
62	0xbdc73817	-0.09727495
63	0x3e3bbffb	0.18334953
64	0x3d406102	0.046967514
65	0x3d50d264	0.050981894
66	0x3cf820a9	0.030289011
67	0x3e3629ad	0.17789336
68	0xbd4c12ad	-0.049822498
69	0xbe043195	-0.12909539
70	0xbd9e7fbe	-0.07739209
71	0xbd866616	-0.0656244
72	0xbd93d7cb	-0.072188936
73	0x3e23c2e0	0.15992308
74	0xbe0cfed9	-0.13769092
75	0xbe2608b2	-0.16214254
76	0x3d320f3d	0.043471564
77	0x3dc30006	0.09521489
78	0x3de01c2f	0.109428756
79	0x3e207986	0.15671358
80	0x3d9a8834	0.0754551
81	0x3d550156	0.052003227
82	0xbdb03e95	-0.086056866
83	0xbd256916	-0.04038342
84	0x3d8b81d3	0.068118714
85	0xbdb51dd8	-0.08843583
86	0x3d7b8a56	0.061411224
87	0xbd046fce	-0.032333188
88	0x3d77b152	0.06047184
89	0xbd771922	-0.060326703
90	0xbe5ba414	-0.2144931
91	0x3dab3b00	0.08360863
92	0xbe4c110f	-0.19928382
93	0x3e08c82d	0.13357611
94	0xbdf471df	-0.11935782
95	0x3de8b435	0.11362497
96	0xbe11e0e2	-0.14245942
97	0x3e22906b	0.15875404
98	0x3c0dcd5e	0.00865492
99	0x3d22d392	0.03975255
100	0x3d0cbaec	0.03435795
101	0x3da88dc9	0.08230168
102	0xbe1f7332	-0.15571287
103	0xbcfa12ce	-0.030526545
104	0xbd54df8f	-0.051971015
105	0xbdddd80a	-0.10832222
106	0x3db6ab10	0.08919346
107	0x3c9b482c	0.018955313
108	0xbdc94e41	-0.09829379
109	0xbe2c1aa6	-0.1680704
110	0x3db125f8	0.0864982
111	0xbd3fa7ba	-0.046790816
112	0xbe0891cf	-0.13336872
113	0x3e3c8dbf	0.18413447
114	0xbc588516	-0.013215324
115	0xbc73dfa0	-0.014884859
116	0xbbd7a0aa	-0.006580432
117	0x3c83d6a1	0.016093554
118	0xbd0b086b	-0.033943575
119	0x3da11bd7	0.07866638
120	0xbc676286	-0.014122611
121	0xbd96b753	-0.07359185
122	0xbd718300	-0.058962822
123	0xbe5166b8	-0.2044934
124	0x3e0398a7	0.12851201
125	0xbd510c8b	-0.051037353
126	0xbd199c6c	-0.03750269
127	0xbe2f803b	-0.1713876
128	0xbd9b0dcb	-0.0757099
129	0x3dccb58a	0.09995563
130	0xbd948a9b	-0.072529994
131	0xbc43910e	-0.011936439
132	0xbe0847ef	-0.1330869
133	0xbc1b9a61	-0.009497256
134	0xbd86ed72	-0.06588258
135	0x3d8b5da3	0.06804969
136	0xbde39f24	-0.11114338
137	0x3d897e5c	0.06713554
138	0xbd5fd695	-0.054648
139	0xbcb19745	-0.021678576
140	0xbd0d5dbc	-0.03451322
141	0xbd61c07c	-0.055115208
142	0x3d077862	0.03307379
143	0xbca4ec8a	-0.020132322
144	0xbdf36381	-0.11884213
145	0x3c253d90	0.010085478
146	0xbd7c7858	-0.061638206
147	0xbe1ca0ac	-0.15295666
148	0xbd804a01	-0.06264115
149	0xbb061c80	-0.0020463765
150	0x3c89d371	0.016824456
151	0x3d4d80b9	0.050171588
152	0x3da8ff1c	0.08251783
153	0xbd856aa9	-0.065144844
154	0x3d37d90c	0.044884726
155	0x3de798ca	0.11308439
156	0x3d2a679a	0.04160271
157	0xbe14083a	-0.14456263
158	0x3db20f30	0.08694303
159	0x3adec9c1	0.0016997383
160	0xbe06cc6d	-0.1316392
161	0xbdbd0698	-0.09229773
162	0xbde9dd92	-0.11419214
163	0x3d6c4cac	0.057690307
164	0xbde13683	-0.109967254
165	0x3d4fad18	0.050702184
166	0x3dc5e41a	0.096626475
167	0xbd7daedc	-0.061934337
168	0x3b5b4956	0.003346046
169	0xbc4e4f70	-0.012592182
170	0xbde655a3	-0.11246803
171	0xbdc0333e	-0.09384774
172	0x3d255fbb	0.0403745
173	0x3c9ec731	0.019382091
174	0xbd5b56e0	-0.053549647
175	0xbdd6a90e	-0.104814634
176	0x3d217355	0.03941663
177	0x3d70da50	0.05880195
178	0xbe0b78a6	-0.13620242
179	0xbdd7161c	-0.10502264
180	0x3b8bfaab	0.0042718253
181	0xbda224f6	-0.07917206
182	0x3d015c24	0.031582013
183	0x3d6ed4b8	0.058308333
184	0x3bd086a3	0.006363706
185	0x3d653924	0.055962697
186	0xbbd766f9	-0.0065735546
187	0xbc3c59ca	-0.011496017
188	0x3cc6c722	0.024264876
189	0x3db29db8	0.08721489
190	0x3c32e780	0.010919452
191	0xbceafacf	-0.028684048
192	0xbd24f800	-0.040275574
193	0x3d3ed736	0.04659196
194	0x3dd51c03	0.104057334
195	0x3d967bd0	0.07347834
196	0x3df9029a	0.12158699
197	0xbd822bc0	-0.06356001
198	0xbd5cd670	-0.05391544
199	0xbccf1acf	-0.025281338
200	0x3d5881da	0.05285821
201	0xbcf582dd	-0.029969627
202	0x3d9d4756	0.07679622
203	0x3dd0f8b9	0.1020369
204	0x3d12ac18	0.035808653
205	0xbd136c37	-0.035991874
206	0x3dabdb98	0.083914936
207	0xbe3baf04	-0.18328482
208	0xbc650a42	-0.013979496
209	0x3d2cce4d	0.04218893
210	0x3d8a89f9	0.067645974
211	0xbdb67c38	-0.089104116
212	0x3d15d253	0.036577534
213	0x3ce00dc9	0.027350323
214	0xbd45fa92	-0.048334666
215	0x3d8ed4fc	0.06974217
216	0xbcdf8f8c	-0.027290128
217	0xbd6af7c7	-0.057365205
218	0xbdc93561	-0.09824634
219	0xbd4794e2	-0.04872597
220	0xbd910a9d	-0.070821024
221	0x3dcf465e	0.10120843
222	0x3d8cf6bb	0.068829976
223	0x3cfdc045	0.03097547
224	0x3d41e752	0.047339745
225	0x3dffeb24	0.124960214
226	0xbd5d94a8	-0.054096848
227	0xbdb708b9	-0.089372106
228	0x3debc44d	0.11512051
229	0xbd8eb75d	-0.069685675
230	0xbd41a8b0	-0.047280014
231	0x3d26152b	0.04054753
232	0x3d7d1f79	0.061797593
233	0x3ce4b05f	0.027916132
234	0x3dd573aa	0.10422452
235	0xbdf712a2	-0.12064101
236	0x3d851da0	0.06499791
237	0x3d809788	0.06278902
238	0x3e2f4f3c	0.1712007
239	0xbdb46462	-0.08808209
240	0xbe834e3b	-0.25645623
241	0x3e1bbbb7	0.15208326
242	0xbcac9f9d	-0.021072203
243	0x3d83803b	0.064209424
244	0x3de6438c	0.11243352
245	0x3d986f3e	0.07443093
246	0x3c9ec98a	0.01938321
247	0xbe6a123b	-0.22858517
248	0x3d6210b5	0.055191714
249	0xbdec99a1	-0.1155274
250	0xbdca7adc	-0.09886715
251	0xbdc016f2	-0.093793765
252	0xbda04cac	-0.07827124
253	0xbd8e1378	-0.06937307
254	0xbd362f01	-0.04447842
255	0xbd9f73cc	-0.077857584

network.4.bias f4 [64]
0	0xbd634b58	-0.055491775
1	0x3e04f44e	0.1298382
2	0xbdae1fad	-0.085021354
3	0x3ca13251	0.019677313
4	0xbbe53a4c	-0.006995475
5	0xbd73ee38	-0.059553355
6	0x3dec8f31	0.11550749
7	0x3de794d0	0.113076806
8	0x3e03bd86	0.12865266
9	0x3dfc26f9	0.12312121
10	0x3d93d7cd	0.07218895
11	0xbdcffb44	-0.10155347
12	0xbdc19273	-0.09451761
13	0x3d5fd52c	0.054646656
14	0xbcb96b14	-0.022634067
15	0xbdbcd659	-0.09220571
16	0x3dd6f1fe	0.10495375
17	0xbda542b0	-0.0806936
18	0x3dafb8a7	0.085801415
19	0xbd9c2b86	-0.07625489
20	0xbc5b276a	-0.013376096
21	0x3d1145bc	0.035466895
22	0xbcf0afd4	-0.029380716
23	0x3bec7adf	0.007216796
24	0x3e368f24	0.17828041
25	0x3c45c2ab	0.012070338
26	0x3e0a29af	0.13492464
27	0x3dbc4a09	0.091938086
28	0x3dedba41	0.11607791
29	0x3d21c614	0.039495543
30	0x39e4cd37	0.00043640446
31	0x3d3e2a19	0.046426866
32	0x3c3168c4	0.010828201
33	0xbdb5c82f	-0.088760726
34	0x3d24a3f7	0.04019543
35	0x3ded7704	0.11594966
36	0x3ce3f8cb	0.027828595
37	0xbe0153e3	-0.12629656
38	0xbdbab284	-0.091160804
39	0x3dc1a313	0.09454932
40	0x3d632c71	0.055462305
41	0x3c8f8f3b	0.017524352
42	0xbc953c50	-0.018217236
43	0x3cc058b0	0.02347979
44	0x3dc49b66	0.095999524
45	0x3e051140	0.12994862
46	0xbd80f315	-0.06296364
47	0x3cc89c9b	0.024488738
48	0xbd40c824	-0.04706587
49	0x3d3113b9	0.0432317
50	0xbcfde6c0	-0.03099382
51	0x38f37283	0.000116084724
52	0x3c86ceb2	0.016455982
53	0xbd98edc9	-0.07467229
54	0xbcdf67d5	-0.02727119
55	0x3b26bbf5	0.002544162
56	0x3dd5a82e	0.10432468
57	0x3d7509ca	0.05982379
58	0xbd6e7ff2	-0.058227487
59	0xbcaeab05	-0.021321783
60	0xbddc1034	-0.10745278
61	0xbd58341e	-0.052784078
62	0x3c245760	0.010030597
63	0xbda26ee7	-0.07931309

network.6.weight f4 [64, 64]
0	0xbd09c925	-0.033639092
1	0x3d0c17fb	0.034202557
2	0xbc83b42a	-0.01607712
3	0xbe091d6d	-0.13390131
4	0x3d8b2fa2	0.067961946
5	0xbda8cf10	-0.08242619
6	0xbdd9a18f	-0.10626518
7	0xbe26ffa5	-0.16308458
8	0x3de28aa6	0.11061601
9	0x3d602793	0.05472524
10	0x3d8327e2	0.064040914
11	0xbd062c40	-0.032757044
12	0x3dcb5d4f	0.099299066
13	0x3c2637a5	0.010145103
14	0x3b98d85e	0.004664465
15	0x3dba3b81	0.09093381
16	0xbd3c46d2	-0.045965977
17	0xbd185026	-0.03718581
18	0xbc5eb7cb	-0.013593624
19	0x3b39a400	0.0028326511
20	0xbdbd8b5a	-0.09255095
21	0x3d9e1fef	0.077209346
22	0x3d8a6425	0.06757382
23	0x3e191744	0.14950281
24	0x3d2fdbb3	0.04293413
25	0x3e01d9fa	0.12680808
26	0x3e0010a3	0.12506346
27	0x3c4b9c0f	0.012427344
28	0x3df33cbd	0.11876819
29	0xbddcb464	-0.10776594
30	0xbce8ec95	-0.028433124
31	0x3e149762	0.14510873
32	0xbd060ebe	-0.032728903
33	0xbcfe1fcb	-0.03102102
34	0xbc822041	-0.01588452
35	0x3e0be1d8	0.13660371
36	0xbda7bb2b	-0.08189996
37	0x3dcb0227	0.0991252
38	0xbdabbdb7	-0.083857946
39	0xbd82401b	-0.063598834
40	0x3c3d6ab8	0.011561088
41	0xbdd04a4f	-0.10170423
42	0x3da01722	0.07816912
43	0xbd62ee22	-0.055402882
44	0x3e941f3f	0.2893009
45	0x3c201b66	0.009772157
46	0x3de15487	0.110024504
47	0x3e19a1b6	0.15003094
48	0x3c260e69	0.010135272
49	0x3ea8eed9	0.32994726
50	0xbd804a76	-0.06264202
51	0x3d71c83c	0.05902885
52	0x3e48c194	0.19605094
53	0xbdcadd22	-0.09905459
54	0xbdebf888	-0.11522013
55	0x3cd32799	0.025775718
56	0x3d2f4a37	0.042795386
57	0xbe193c9e	-0.1496453
58	0xbe263fd0	-0.1623528
59	0xbd18eab0	-0.03733319
60	0xbdcc61a2	-0.099795595
61	0xbd82fe1e	-0.06396125
62	0x3c910b6d	0.017705644
63	0x3c99f8ac	0.018795334
64	0xbd7a6af8	-0.06113717
65	0x3dd62a8c	0.10457334
66	0xbcce5618	-0.025187537
67	0x3d376b78	0.044780225
68	0x3d7ca088	0.061676532
69	0xbd20ec7c	-0.03928803
70	0x3d4a973c	0.049460635
71	0xbc0d6340	-0.00862962
72	0xbdcb3dbe	-0.09923886
73	0xbde11816	-0.10990922
74	0x3ce08058	0.02740495
75	0x3d91f55a	0.07126875
76	0x3dccf004	0.10006717
77	0x3d01d6c4	0.031698957
78	0xbdbba96c	-0.09163174
79	0x3db4ed4e	0.08834325
80	0xbd1c4b20	-0.038157582
81	0x3d338e14	0.043836668
82	0xbd9e00b0	-0.07714975
83	0x3d18221c	0.037141904
84	0x3ba47920	0.005019322
85	0xbd37544c	-0.044758126
86	0x3d81dcd2	0.06340946
87	0xbdbb1d80	-0.09136486
88	0xbdd57532	-0.10422744
89	0xbd9c4b0c	-0.076315016
90	0x3df23cc0	0.118279934
91	0x3df8c512	0.12146963
92	0xbdcb82f2	-0.09937085
93	0xbda4cd94	-0.080470234
94	0xbd4a22d8	-0.049349636
95	0x3d910e6a	0.070828274
96	0xbda8b596	-0.0823776
97	0xbd1893fc	-0.037250504
98	0xb76c4000	-1.4081597e-05
99	0xbd5ad354	-0.053424194
100	0xbcf27aa0	-0.029599488
101	0x3cdae100	0.026718616
102	0x3c223050	0.009899214
103	0xbd997c82	-0.07494451
104	0xbd364b80	-0.044505596
105	0x3deb35ec	0.11484894
106	0xbdcb5874	-0.099289805
107	0x3d651b60	0.05593431
108	0x3d91a644	0.07111791
109	0x3d479194	0.04872282
110	0x3d9e594c	0.07731876
111	0x3d7d5a80	0.061853886
112	0xbd837a42	-0.06419803
113	0x3d9ce562	0.07660939
114	0x3d89d54e	0.06730138
115	0x3dfd26fc	0.12360951
116	0x3d7c7d54	0.06164296
117	0x3d946234	0.07245293
118	0x3c927518	0.0178781
119	0xbdc139d8	-0.09434861
120	0xbc3cc310	-0.011521116
121	0x3cd66348	0.026170388
122	0xbdfc4ede	-0.1231973
123	0xbd9bee04	-0.07613757
124	0xbdcf3388	-0.10117251
125	0xbcabe780	-0.020984411
126	0x3d5a26b4	0.053259566
127	0x3d1d2ecc	0.038374707
128	0x3e0c55ad	0.13704558
129	0x3db07c66	0.08617477
130	0xbd8912a1	-0.06693006
131	0xbd63039b	-0.05542336
132	0x3d55dd67	0.0522131
133	0xbcb0711a	-0.021538306
134	0xbe14bfd6	-0.14526305
135	0xbe2a6cb2	-0.16643026
136	0x3de80bf1	0.11330403
137	0xbc7b069e	-0.015321402
138	0xbe128937	-0.14310156
139	0xbc836468	-0.016039088
140	0xbd07f32c	-0.03319089
141	0xbe180a14	-0.14847594
142	0x3dae788c	0.08519086
143	0xbd317648	-0.043325692
144	0x3dcef7b0	0.101058364
145	0x3da7621e	0.08173011
146	0x3dd7b571	0.10532654
147	0xbdde4776	-0.10853474
148	0xbdff77df	-0.124740355
149	0x3d8969c4	0.06709626
150	0xbe0239c4	-0.12717348
151	0x3e0cd6ca	0.1375381
152	0x3e524419	0.2053379
153	0x3d1cf931	0.038323585
154	0xbe074b43	-0.13212304
155	0xbe293761	-0.16525032
156	0x3d482eee	0.04887288
157	0x3dbc2cda	0.09188242
158	0xbe0a024d	-0.1347744
159	0xbd6e9dbb	-0.058255892
160	0xbd147bac	-0.036250755
161	0x3dad68a6	0.08467226
162	0x3d43dcf8	0.047818154
163	0x3cdf6679	0.027270542
164	0xbb5a04f3	-0.003326711
165	0x3d869770	0.06571853
166	0x3dcca90e	0.09993182
167	0x3d975e52	0.07391037
168	0xbe09d53a	-0.13460246
169	0xbca684b3	-0.020326948
170	0xbd4c33e4	-0.049854174
171	0x3db294a3	0.087197565
172	0x3e5d7a25	0.21628626
173	0x3da3e84b	0.08003291
174	0x3dbdc20c	0.09265527
175	0x3e4289a4	0.18997818
176	0xbdbab3dc	-0.09116337
177	0x3ddbbc75	0.10729305
178	0x3d4655e8	0.04842177
179	0x3ddfd82e	0.10929905
180	0x3d943ff5	0.07238761
181	0xbcb45efa	-0.022017945
182	0xbdd00698	-0.10157508
183	0xbe13f6b8	-0.14449584
184	0x3df00a4a	0.117207125
185	0xbd494213	-0.04913528
186	0x3b4f05d5	0.003158917
187	0x3e19cd19	0.15019645
188	0x3d301ff0	0.042999208
189	0x3cf31e5b	0.02967756
190	0x3d4ce656	0.050024353
191	0xbd08ea8b	-0.033426803
192	0xbe065134	-0.13116914
193	0xbccdf13d	-0.025139445
194	0x3c2752d3	0.010212618
195	0xbc582148	-0.013191529
196	0xbd8d328f	-0.06894409
197	0xbc7f0c28	-0.015566863
198	0xbd2d7fe4	-0.042358294
199	0xbd255bb1	-0.040370647
200	0xbc430400	-0.011902809
201	0xbdc5a3cd	-0.09650383
202	0x3e05cfe6	0.13067588
203	0xbcfb2ba6	-0.030660462
204	0xbdf7e9e4	-0.12105158
205	0x3e19570a	0.14974609
206	0x3c9e3540	0.019312501
207	0x3d935a4d	0.07194958
208	0x3dc442a9	0.09583027
209	0xbc919950	-0.0177733
210	0xbda9c86a	-0.08290179
211	0x3d85d7f4	0.065353304
212	0xbd4efdf0	-0.050535142
213	0x3de17c15	0.11009995
214	0xbd130064	-0.035889044
215	0x3d4a3003	0.049362194
216	0xbceee602	-0.02916241
217	0x3da06b0c	0.078329176
218	0xbd23331c	-0.039843664
219	0xbdd8e820	-0.10591149
220	0x3e12a7e3	0.14321856
221	0xbd2aeb1c	-0.041728124
222	0xbd286254	-0.041109398
223	0xbe1b3f9b	-0.15160982
224	0x3dfa9dbb	0.12237116
225	0xbd48b076	-0.04899641
226	0x3c0be186	0.008537656
227	0xbd8ba36b	-0.06818279
228	0x3e2eec9a	0.17082444
229	0x3d16db8f	0.03683048
230	0x3db1454b	0.08655795
231	0x3dda22fb	0.10651203
232	0x3db5b445	0.08872274
233	0xbc9a00ea	-0.018799264
234	0x3ccc30cf	0.024925618
235	0x3de9b670	0.1141175
236	0x3d7ca863	0.061684024
237	0xbd13ce0d	-0.036085177
238	0x3e051b21	0.1299863
239	0xbdf6919f	-0.12039494
240	0xbe0b91a2	-0.13629773
241	0x3e098cda	0.13432637
242	0xbd801db4	-0.062556654
243	0xbd4c16ae	-0.049826317
244	0x3d983ed0	0.074338555
245	0xbdfe6a14	-0.124225765
246	0x3d846fab	0.064666115
247	0x3e0ea233	0.13929062
248	0xbcda3ff1	-0.026641818
249	0xbd5da66c	-0.05411379
250	0x3de68242	0.112553135
251	0xbdd7626a	-0.10516818
252	0x3c989660	0.018626392
253	0xba08deeb	-0.00052212056
254	0xbe2593c3	-0.16169648
255	0x3cf8dc18	0.030378386

network.6.bias f4 [64]
0	0x3e09c384	0.1345349
1	0xbdf8633a	-0.12128301
2	0x3e08a7a6	0.13345203
3	0x3df5d227	0.12002974
4	0xbd990978	-0.07472509
5	0xbb1c1ec0	-0.002382204
6	0x3d81235f	0.063055746
7	0xbd71dc95	-0.059048254
8	0x3c1be758	0.009515606
9	0x3d96921f	0.07352089
10	0x3cffe263	0.03123588
11	0x3db1c4c3	0.086801074
12	0x3e09d855	0.1346143
13	0xbd987949	-0.07445008
14	0xbd905c8b	-0.07048901
15	0x3dce53d7	0.10074585
16	0xbe0e68db	-0.13907187
17	0xbda4432d	-0.08020625
18	0x3e12fd22	0.14354375
19	0xbe016349	-0.1263553
20	0x3d232c14	0.039836958
21	0xbc2c2d44	-0.010508839
22	0xbd7f1c52	-0.062282868
23	0x3d2eac68	0.04264489
24	0xbd9b3c06	-0.07579808
25	0xbdc69cc5	-0.0969787
26	0x3e43845b	0.19093458
27	0xbdffc606	-0.12488942
28	0xbca70408	-0.020387664
29	0x3e00faa1	0.12595607
30	0xbc9cf438	-0.019159421
31	0x3d3848a4	0.04499115
32	0xbc3afbe0	-0.011412591
33	0x3c55c770	0.013048038
34	0x3d1605de	0.03662669
35	0x3d9f0e77	0.07766431
36	0xbd0d88a3	-0.034554135
37	0x3d803661	0.06260372
38	0xbd261f3c	-0.04055713
39	0xbd1c3999	-0.038140867
40	0x3dee3985	0.11632065
41	0x3dedbd90	0.11608422
42	0x3d734f45	0.05940177
43	0x3d2123ba	0.039340712
44	0x3c899943	0.016796714
45	0x3a8f42bc	0.0010929923
46	0x3d3d4203	0.04620553
47	0x3df32540	0.11872339
48	0x3c1e1a84	0.0096498765
49	0xbdbf9455	-0.09354464
50	0x3b8ef8f0	0.0043631718
51	0x3da071f5	0.078342356
52	0xbc656400	-0.014000893
53	0xbe1978c6	-0.14987478
54	0xbd827859	-0.06370611
55	0xbd33a204	-0.043855682
56	0x3dde2066	0.10846023
57	0x3d8e0a82	0.06935598
58	0x3db25833	0.08708229
59	0x3e032ed2	0.1281083
60	0x3e1ee6a4	0.1551767
61	0xbd9dbf2b	-0.07702478
62	0x3d927131	0.07150496
63	0xbd0194bc	-0.031635985

network.8.weight f4 [4, 64]
0	0x3cde1266	0.027108382
1	0x3d7a854c	0.061162278
2	0xbdb16033	-0.08660927
3	0x3d140ebb	0.03614686
4	0xbe1f1e74	-0.1553896
5	0x3ce751c8	0.028237239
6	0xbe0537c0	-0.13009548
7	0xbd911329	-0.07083733
8	0xbcdd17a9	-0.026988821
9	0x3e589566	0.21150741
10	0xbd8bc448	-0.06824547
11	0xbdd1136d	-0.10208783
12	0x3e34304c	0.17596549
13	0x3dd1475a	0.10218687
14	0xbd1315a7	-0.03590932
15	0x3d808e66	0.0627716
16	0xbd207ba6	-0.03918042
17	0xbcbc34a2	-0.022974316
18	0x3ddb4d57	0.10708111
19	0xbcb79202	-0.02240849
20	0x3d1b3ac3	0.037897836
21	0x3ccb0dcf	0.024786858
22	0x3de785a3	0.11304786
23	0x3df681d6	0.12036483
24	0xbdebbe8c	-0.11510953
25	0x3a45f4e7	0.0007551447
26	0x3e307bf4	0.17234784
27	0xbd9cd908	-0.07658583
28	0x3dc48102	0.09594919
29	0x3d9974f0	0.07493007
30	0xbd453d14	-0.04815395
31	0x3c3edd7d	0.011649487
32	0xbdd72003	-0.105041526
33	0x3c8c0388	0.017091528
34	0xbd879443	-0.066200756
35	0xbdc0af91	-0.09408487
36	0x3db1e74d	0.08686695
37	0xbd135547	-0.03597
38	0x3c35ffe0	0.011108369
39	0xbdfad480	-0.122475624
40	0x3d9cb3e8	0.07651502
41	0xbe0e9714	-0.13924819
42	0xbdfc5677	-0.12321179
43	0x3bfed65a	0.0077770175
44	0xbcd6d33f	-0.026223777
45	0x3c947157	0.01812045
46	0xbe207c22	-0.15672353
47	0xbdf0307d	-0.117279984
48	0xbdab4528	-0.083628
49	0xbd8b181b	-0.06791707
50	0xbd874ec1	-0.06606818
51	0xbe24f0f5	-0.16107543
52	0x3d7a5b78	0.061122388
53	0xbc5335a6	-0.012891209
54	0x3d8ef64f	0.069805734
55	0x3de3ce93	0.11123385
56	0x3c8c6121	0.017136158
57	0xbd91a306	-0.071111724
58	0xbe11651c	-0.14198726
59	0xbc56b18b	-0.013103853
60	0x3db2df76	0.08734028
61	0x3cd5c9d3	0.026097214
62	0xbdfa9ccc	-0.12236938
63	0x3da630f0	0.08114803
64	0x3e336ecc	0.17522734
65	0x3c1d15a0	0.009587675
66	0x3e3ad03b	0.18243496
67	0xbe0d7696	-0.13814768
68	0xbdf86f02	-0.12130548
69	0x3c9a5ce8	0.01884313
70	0x3cfd2e52	0.030905876
71	0xbcbfb5d0	-0.023402125
72	0xbc35ec04	-0.011103634
73	0x3e5bb159	0.21454372
74	0x3d64db17	0.055873003
75	0xbe38ac16	-0.18034396
76	0x3e283355	0.16425832
77	0xbd0c32ac	-0.034228012
78	0x3cbafa85	0.022824535
79	0x3e0519be	0.12998101
80	0xbc313d83	-0.010817888
81	0x3db2ab0a	0.08724029
82	0xbb5597d8	-0.0032591727
83	0xbe1fe72d	-0.1561553
84	0x3dfa4af8	0.122213304
85	0xbd91c213	-0.07117095
86	0x3da8aa5f	0.08235621
87	0xbd8ed9fe	-0.069751725
88	0xbdb77ffe	-0.089599594
89	0x390e4f20	0.00013571652
90	0x3e1a4e9c	0.1506905
91	0x3d281a50	0.04104072
92	0xbcd604d8	-0.026125357
93	0x3e3602ea	0.17774549
94	0xbd8e972e	-0.06962429
95	0xbe4d543c	-0.20051664
96	0x3e0e1dfc	0.13878626
97	0xbd8be960	-0.06831622
98	0xbe5a7a4f	-0.2133572
99	0xbe8b9ace	-0.27266544
100	0xbca3d3c2	-0.019998435
101	0xbd6450b3	-0.055741023
102	0x3d719904	0.058983818
103	0x3cd2f1c9	0.025750058
104	0xbe3aca7b	-0.18241303
105	0xbe413d94	-0.18871146
106	0x3d8d246b	0.06891712
107	0xbda7cb35	-0.081930555
108	0xbdfb75c4	-0.122783214
109	0xbe2d4cfd	-0.169239
110	0xbe5c8d35	-0.21538241
111	0xbe26fd8f	-0.16307662
112	0xbe9285f7	-0.28617832
113	0xbbb91f12	-0.005649456
114	0x3e25a047	0.16174422
115	0xbe2a4662	-0.16628411
116	0x3dc063c6	0.0939403
117	0xbd3f481e	-0.046699636
118	0x3cee6f81	0.029105904
119	0xbd70548f	-0.05867439
120	0x3e246ff9	0.16058339
121	0x3d585315	0.05281361
122	0x3e2ea03d	0.17053314
123	0xbd1703eb	-0.03686897
124	0x3e38c1fa	0.18042746
125	0x3dc7f4ff	0.09763526
126	0x3dd50dc1	0.10403014
127	0xbdd20d72	-0.10256471
128	0xbe899803	-0.26873788
129	0x3ad50b80	0.0016254038
130	0xbe0f0fc5	-0.1397086
131	0xbda17196	-0.07882993
132	0x3e0e6d3e	0.1390886
133	0x3dae9b36	0.08525698
134	0x3e1edac1	0.15513135
135	0x3d6be5a3	0.057592046
136	0x3d4480b4	0.047974303
137	0xbe652075	-0.22375663
138	0x3d5c38e6	0.0537652
139	0x3e166eb6	0.1469067
140	0xbe5dd597	-0.2166351
141	0x3c8bde55	0.01707379
142	0x3dc02ea0	0.09383893
143	0xbe222a6d	-0.15836497
144	0x3d59d976	0.053185903
145	0x3d1d8d7a	0.038465
146	0xbe340885	-0.17581375
147	0x3dc3d01d	0.09561179
148	0x3d831050	0.06399596
149	0x3cc56c01	0.024099352
150	0xbca88982	-0.020573381
151	0xbe06070f	-0.1308863
152	0xbb98d1b6	-0.0046636714
153	0x3a8ae89b	0.0010597886
154	0xbe148992	-0.14505604
155	0x3d65ade4	0.05607404
156	0x3da39198	0.07986754
157	0x3dc28ec8	0.094998896
158	0xbde86396	-0.113471195
159	0x3cbf18a2	0.023327176
160	0x3e41d29a	0.18927994
161	0xbd0925bc	-0.033483252
162	0x3c843588	0.016138807
163	0xbcad0b10	-0.02112344
164	0x3c0fc474	0.008774865
165	0x3d678053	0.056518864
166	0xbdcbeba6	-0.09957056
167	0xbc99588b	-0.018718978
168	0x3d658165	0.056031603
169	0x3dd65e41	0.10467196
170	0x3e364806	0.17800912
171	0xbd8c5a0d	-0.06853113
172	0x3d3ff100	0.046860695
173	0x3de6065e	0.11231683
174	0x3e0faa39	0.14029779
175	0x3dcd34fb	0.10019871
176	0xbd40838e	-0.04700046
177	0xbb4a6479	-0.003088264
178	0x3e23a7e6	0.15982017
179	0x3d1d105e	0.038345687
180	0x3dc0a434	0.09406319
181	0xbd300af3	-0.042979192
182	0xbd4517d7	-0.04811844
183	0xbdf7d029	-0.1210025
184	0x3d458c29	0.04822937
185	0x3d9e6ac6	0.07735209
186	0x3dc361f4	0.095401675
187	0xbd123bfb	-0.035701733
188	0xbdcc48c1	-0.09974814
189	0xbc0d3e85	-0.008620863
190	0x3e632f97	0.22186123
191	0xbd7580c4	-0.059937254
192	0x3dfb0be5	0.12258128
193	0x3dbe70d2	0.092988625
194	0xbcb7c7e9	-0.022434192
195	0x3d5b871f	0.05359566
196	0xbe560a99	-0.2090248
197	0xbccf2de0	-0.02529043
198	0xbe547210	-0.20746636
199	0xbdaea932	-0.08528365
200	0xbd827174	-0.06369296
201	0x3d9c0553	0.07618203
202	0xbe833112	-0.25623375
203	0x3e0ab469	0.13545384
204	0x3c18c2be	0.009323774
205	0x3d09f823	0.033683907
206	0x3d0f33dd	0.03496157
207	0xbd44ede9	-0.04807845
208	0xbd1656ac	-0.03670375
209	0xbda41c63	-0.08013227
210	0x3cfd02e1	0.030885162
211	0xbd323f31	-0.043517295
212	0xbe4fb843	-0.20285134
213	0xbdd303b1	-0.103034385
214	0x3cdfea08	0.027333274
215	0x3e278070	0.16357589
216	0x3bd72117	0.006565224
217	0x3bdccf2e	0.006738565
218	0x3d633afb	0.05547617
219	0x3c8983a0	0.016786397
220	0xbd04338c	-0.03227572
221	0xbe15a7d0	-0.14614797
222	0xbc44fe00	-0.012023449
223	0x3d160795	0.036628325
224	0xbe022abb	-0.12711613
225	0x3bf728a0	0.0075426847
226	0xbb46df26	-0.003034541
227	0x3d6d83e1	0.057987098
228	0x3d059100	0.032608986
229	0xbd4a9028	-0.049453884
230	0x3de49b82	0.11162473
231	0x3c4b97f7	0.012426368
232	0x3da6f8d9	0.08152933
233	0x3ced4406	0.0289631
234	0xbdfdf2d1	-0.12399829
235	0xbdd2a80c	-0.10285959
236	0xbcc2c984	-0.02377773
237	0x3e0e2b02	0.13883594
238	0x3cc7483c	0.024326436
239	0x3ddf31ce	0.10898171
240	0x3e315762	0.1731849
241	0xbd5d1349	-0.05397347
242	0xbe099b34	-0.13438112
243	0xbd118258	-0.035524696
244	0xbd3ed05c	-0.046585426
245	0xbd293494	-0.041309908
246	0xbd6b7b8a	-0.057490863
247	0x3cc8caf9	0.024510847
248	0xbd66f7d5	-0.056388695
249	0x3ca63b0a	0.020291824
250	0xbe2cd90b	-0.1687967
251	0x3dc12a99	0.09431953
252	0x3db8b751	0.0901934
253	0x3c1329c9	0.00898213
254	0xbe4ae050	-0.19812131
255	0x3c1dd190	0.009632483

network.8.bias f4 [4]
0	0xbca5e486	-0.02025057
1	0x3da4ea8c	0.08052549
2	0x3d82eae8	0.06392461
3	0x3dc735b0	0.09727037
