ModelWeights/CartPole-v1-69420-/actor.weights.pt (torch, 4032 bytes, 4 tensors)

network.0.weight f4 [64, 4]
000000 a5 e4 dd 3e b1 56 2e bf 48 71 3a bf 0f 6f 6c bf
       0.43338504 -0.6810103 -0.72829103 -0.9235696
000010 af a8 10 3d 3f f3 f6 3c e2 ac a1 3e 45 cd 80 3f
       0.03531712 0.030145286 0.31577212 1.0062643
000020 b7 99 f0 3d df 2f ec be 48 e9 8f bf 9a f1 69 bf
       0.11748069 -0.46130273 -1.1243067 -0.9138428
000030 c4 02 6d bf 0b c9 8a bd 59 3c 9d 3d 2d 3c 9b be
       -0.92582345 -0.06776627 0.07677526 -0.30319348
000040 e8 04 c1 3d 92 96 bc 3e 62 1e 5f 3f bc 86 8e 3f
       0.09424764 0.36833626 0.87155735 1.1134868
000050 68 fc 06 bf 8e 24 2b 3b 9e 1f 42 3d f9 80 82 3e
       -0.5272889 0.0026114318 0.047393434 0.25489023
000060 46 4d c1 bd 43 09 a0 3e a2 b9 35 3f 56 62 ad 3e
       -0.09438567 0.31257066 0.7098638 0.33864087
000070 b9 bf 81 3e ad 2b b4 bd db bc 24 bf 34 a9 09 3e
       0.25341585 -0.08797393 -0.6435067 0.13443452
000080 62 f7 84 be 51 75 08 be 60 f6 da 3e 9e 6c 33 3f
       -0.25969988 -0.13326003 0.42766094 0.7008761
000090 27 63 d5 3e b3 f2 04 3f fe 2c 2a 3f c6 da ec 3e
       0.4167721 0.5193283 0.664749 0.4626066
0000a0 ab 1e 86 be 6f b1 60 3e 05 c1 27 bf 5d 11 6d be
       -0.26195273 0.21942686 -0.655289 -0.23151155
0000b0 75 c8 59 3e de da 75 bd 47 bc 0a bf 27 21 ae bd
       0.21267875 -0.06002318 -0.5419354 -0.08502417
0000c0 0c 3e c1 be b0 3f 9b be 91 1d f5 3e bb 7d fa 3e
       -0.3774265 -0.30322027 0.4787412 0.4892405
0000d0 24 13 e3 3d a8 f4 1c 3e d3 e6 12 3f 32 36 25 3f
       0.11087635 0.15327704 0.5738346 0.6453582
0000e0 e5 18 c6 3e b0 45 14 bf 2a 9a 30 be f0 50 2d be
       0.38690868 -0.57918835 -0.17246309 -0.16925406
0000f0 c3 73 0d 3e ad 7c 3b 3e 0c ea 79 3f e9 d5 67 3f
       0.13813691 0.18309279 0.9762275 0.90560776
000100 62 5a b1 be 43 ec ca 3c 54 00 55 bf 0a 1f 83 bf
       -0.3463927 0.024770861 -0.83203626 -1.0243847
000110 35 47 09 be 21 64 f5 be 2f 9c e0 be d1 3e 7c bf
       -0.1340607 -0.47927955 -0.4386916 -0.9853335
000120 74 4a a6 3e e9 ce 72 be 1d aa 94 be 2f 6c 6f bf
       0.32478678 -0.23711742 -0.29036036 -0.9352445
000130 87 86 37 be 19 0d d6 be e0 10 b1 be 74 a3 86 bf
       -0.17922412 -0.41806868 -0.34583187 -1.0518632
000140 60 a1 8c bd f8 39 a5 3d c4 79 5d 3e 00 a5 08 3e
       -0.06866717 0.08067697 0.21628481 0.13344193
000150 29 cf 2a 3d aa 3d 90 be e1 29 b1 ba be 7e d6 be
       0.04170147 -0.28172046 -0.0013516509 -0.41893572
000160 5d db 17 bf 92 db 5c 3e f2 f4 f4 3d 12 a5 95 3e
       -0.59319097 0.21568134 0.11960782 0.292275
000170 90 13 a1 be 76 4b 51 bc d8 9b b9 be d0 d0 03 3e
       -0.31460238 -0.012774339 -0.36251712 0.12872624
000180 cb fb 4b 3e 52 e3 04 3f a9 13 92 3e 02 a0 58 3e
       0.1992027 0.51909363 0.28530625 0.21154788
000190 ae da 76 be 1f 71 7d be f4 5b a7 be df 45 5b be
       -0.24106857 -0.24750184 -0.32687342 -0.21413372
0001a0 c4 79 78 be ff 45 0d be af b8 74 3e 20 a1 f2 3e
       -0.242652 -0.13796233 0.23898576 0.47388554
0001b0 0f 7d 82 bc 24 c0 31 3f a8 a1 54 3f 40 6c 6c 3e
       -0.015928773 0.6943381 0.8305917 0.23088169
0001c0 e2 2f fb bc ad 6b 58 3e 49 fa 9d 3e 27 49 48 3d
       -0.03066248 0.21134825 0.30855015 0.04889789
0001d0 99 16 66 be 6d 16 15 be c4 36 15 3f 10 c3 46 3d
       -0.22469558 -0.14559336 0.5828669 0.04852587
0001e0 96 23 5c be fb 42 e7 be d4 24 22 be 12 49 25 bf
       -0.2149795 -0.4516829 -0.15834361 -0.6456462
0001f0 ce 6d 64 3d 8e a2 eb bd 4c cd 97 3e e8 dc 93 bd
       0.05576878 -0.11505614 0.29648817 -0.07219869
000200 55 25 70 bc 12 86 e0 3e 3d be 67 3e ea 50 42 3f
       -0.014657338 0.43852288 0.22631164 0.75904715
000210 34 b7 8c be 94 70 b9 3d 79 7c 14 bf 3d 43 ba bd
       -0.27483523 0.09054676 -0.5800243 -0.09094856
000220 32 ac dd be b6 ff 8c be 61 3c 03 bf 13 b4 15 bf
       -0.43295437 -0.27538842 -0.51264006 -0.58477896
000230 1b 5c de 3d b0 60 8e be dd 08 7b bf cc 4b 76 bf
       0.108574115 -0.27808142 -0.980604 -0.96209407
000240 f4 56 8a 3e cc 7b 4c be 2f 09 49 3f 28 6d 0e 3f
       0.27019465 -0.199691 0.7852964 0.5563531
000250 93 e0 cf 3e dc cc 00 bf f5 36 81 bf e4 52 83 bf
       0.40601024 -0.5031259 -1.0094897 -1.0259671
000260 9d 3c 84 be 66 31 08 3f 98 61 c8 3e d6 9b 4b 3f
       -0.25827494 0.53200376 0.39136958 0.7953466
000270 7b e7 f5 3d b5 88 34 be 17 18 85 3f 55 94 12 3f
       0.12007042 -0.17630275 1.0397977 0.57257587
000280 98 96 1b 3e 62 ad 26 be b7 ef 80 3f 94 75 5c 3f
       0.15194166 -0.16277078 1.0073155 0.8611691
000290 80 14 e7 be d8 fc 3d 3f c5 ee 57 3f 1a db 4b 3f
       -0.45132828 0.74213934 0.8434871 0.796312
0002a0 d6 e8 3f be 91 35 3f 3f f7 55 9b be 41 7f 89 3e
       -0.18741164 0.7469111 -0.30339023 0.268549
0002b0 47 ea d6 be 3f a5 2e be 97 2d ae 3d ea 13 45 3e
       -0.41975614 -0.17055224 0.08504789 0.19245878
0002c0 eb 3b b0 3e ff c3 94 be 7a b9 34 3f 59 31 b7 3e
       0.34420714 -0.29055783 0.70595515 0.35779837
0002d0 d1 02 b6 be d8 93 b4 bc 60 82 1c 3e 48 3c b8 3d
       -0.35549024 -0.022043154 0.15284109 0.08995873
0002e0 3d 16 54 bd 97 90 19 3e 9f d5 3a 3f 79 a6 70 3f
       -0.05177902 0.14996563 0.7298221 0.9400402
0002f0 7b f4 09 be a7 6c ce bc 78 01 4c be 03 9a 81 3d
       -0.13472168 -0.025198294 -0.19922435 0.063282035
000300 3e 7a f5 3d 48 d9 f9 bd 86 f9 58 bf fd c6 67 bf
       0.119862065 -0.12199646 -0.8475574 -0.9053801
000310 c8 b0 92 3e 53 9c 4d 3d 27 3f 80 bd f8 fe 2e 3f
       0.28650498 0.05019791 -0.06262045 0.683578
000320 9b 6c 08 be 1b ce 2f 3d c1 8f 47 be 74 b7 4f bf
       -0.1332268 0.042921167 -0.19488432 -0.811393
000330 95 ca 97 be 0a 6c 21 3e 58 71 04 bf b5 5b 6a bf
       -0.29646745 0.1576387 -0.5173545 -0.91546184
000340 13 ad 04 3f c2 78 87 3e 45 9c 15 3f 07 72 37 3f
       0.5182659 0.26459318 0.58441573 0.71658367
000350 a5 12 34 3f 1b 07 46 3e 28 e9 31 be 7e 52 93 bf
       0.7034095 0.19338648 -0.17374098 -1.150955
000360 84 66 fc 3d 20 11 24 3d 99 51 85 3e 61 17 5c 3f
       0.12324241 0.040055394 0.26038817 0.85973173
000370 e8 ec e2 3c 09 f0 43 3d fd c8 1e 3e f9 f8 4c be
       0.027700856 0.047836337 0.15506358 -0.2001685
000380 24 6c 29 3e ae ca 61 3e e9 f8 84 3f 66 cd 63 3f
       0.16545159 0.22049972 1.0388461 0.8898529
000390 0d a9 8c be 45 d2 44 bc 9c 91 39 3f 06 e0 ac 3e
       -0.27472726 -0.012013023 0.7248781 0.33764666
0003a0 f7 d2 99 bd ef b2 0a 3e cf a7 b5 3e dd f4 69 3f
       -0.075109415 0.1354482 0.3547959 0.91389257
0003b0 dd 01 80 be 4b 8a 04 3f 97 85 7f 3f 9d 7f 70 3f
       -0.25001422 0.5177352 0.99813217 0.9394472
0003c0 5f b6 c6 3e bc f8 21 bf f4 75 89 be a5 f6 73 bf
       0.38811013 -0.63270164 -0.26847804 -0.95298225
0003d0 46 99 65 3e b1 f0 9b bd aa 99 a9 3e 35 fb d9 3e
       0.2242175 -0.076142676 0.3312505 0.42574468
0003e0 df 95 6c bd c2 b7 9b 3d 6b 7f a1 bc 7c b8 bd be
       -0.057760116 0.076034084 -0.019714078 -0.37054813
0003f0 e5 c5 90 3e 2d b4 a3 3e 5c 5d 90 3f ba 9e 60 3f
       0.28275982 0.319734 1.1278491 0.877422

network.0.bias f4 [64]
000000 d9 1b f9 3e 72 c1 fc 3e 09 b5 04 3f 2d 48 56 bd
       0.4865406 0.49366337 0.5183874 -0.052314926
000010 ad 27 1f 3f 39 4f 1b bf 4e d9 64 3e e9 56 20 bf
       0.62169915 -0.6066776 0.2234852 -0.62632614
000020 73 03 43 3e f3 b9 88 3e 67 2c f4 be 10 1d a3 be
       0.19044285 0.26704368 -0.47690126 -0.3185811
000030 1b 4d 99 3e 72 95 9a 3e cf e5 5c 3e a0 fd 09 3f
       0.2994164 0.30192143 0.2157204 0.53902626
000040 01 0c 9e 3e e3 8a 71 3e 07 a6 22 3e 40 75 4b be
       0.30868533 0.23588137 0.15883647 -0.19868946
000050 8a ae c0 be 8b 77 22 bf f4 4b 09 bf 64 76 d4 3d
       -0.37633163 -0.6346366 -0.5363152 0.10374144
000060 aa 5d d7 3e 89 15 0b bf f1 4b 79 be f3 8d dc 3e
       0.42063648 -0.54329735 -0.24345376 0.4307705
000070 06 fc 29 bf 7c e9 d2 be 55 5e b4 3e fb ec 6f be
       -0.6640018 -0.4119376 0.3522822 -0.23430245
000080 ed b4 b8 3e 6e a8 03 bf 7b 5e 1e be 62 8d de 3e
       0.36075535 -0.5142888 -0.15465729 0.43467242
000090 7f 8e d9 be bb 09 f1 3e ae 83 00 3f 97 53 d4 be
       -0.42491528 0.47077736 0.5020093 -0.41470024
0000a0 88 33 94 bd a9 25 17 3f c3 df db 3e 14 3b 17 bf
       -0.07236391 0.5904184 0.42944154 -0.5907452
0000b0 76 7e 11 bf 27 0a 7d bd 0b 96 06 3f 06 9d d1 be
       -0.5683359 -0.06177726 0.525727 -0.40940112
0000c0 54 0d 84 3e d5 4b eb bb 1c 46 ea 3e da 15 e4 3e
       0.2579142 -0.0071806707 0.45756614 0.4454792
0000d0 ad 33 71 3e 34 8c 29 bd 00 e0 69 3e e5 8d 3c 3c
       0.23554869 -0.041393474 0.22839355 0.01150844
0000e0 2e 98 9f 3e c7 fb fa 3c 83 40 35 3d 1b d2 1d 3f
       0.3117079 0.030637635 0.044250976 0.6164872
0000f0 24 86 d4 3e 7b b7 29 bf 12 cc 64 be 43 c1 0d 3f
       0.4150859 -0.66295594 -0.22343472 0.5537302

network.2.weight f4 [2, 64]
000000 f8 2f 25 3f dc 9f 38 be 15 42 fe 3e f2 ff c2 be
       0.6452632 -0.18029732 0.49659792 -0.38085896
000010 2b 19 ec be 8e a5 5a be 3f 15 6b be d9 b2 45 be
       -0.46112952 -0.21352217 -0.22957323 -0.19306506
000020 93 b0 c9 bd 6d 9c 4e be db 1a 75 3e 25 8f 1a 3d
       -0.09848132 -0.20176859 0.23936026 0.03773417
000030 02 04 7c bc 45 7f 77 be 40 ff 9b 3e 8d 05 b5 be
       -0.015381815 -0.24169643 0.30468178 -0.35355797
000040 0e 55 ac 3e 09 1e 13 3f 01 83 c1 3e e3 24 e1 3e
       0.33658642 0.57467705 0.3779526 0.43973455
000050 da 38 9f 3d 57 94 0c 3e 26 49 0e be 04 2c 4e bd
       0.077745155 0.13728462 -0.13895091 -0.050334945
000060 e2 a0 56 be 97 b0 48 3e cb 7a 19 3d e2 69 b6 be
       -0.2095981 0.19598614 0.03747062 -0.35627657
000070 ad 60 66 3d f2 c8 06 be 8a fb 5c 3e 38 cc f4 bd
       0.05624454 -0.13162592 0.2158033 -0.11953014
000080 ce 89 e8 be 0c 31 8a 3e 2a a4 0e 3e 98 43 b9 3e
       -0.45417637 0.26990545 0.13929811 0.36184382
000090 c3 d6 00 be 03 26 d6 3e e8 09 ce be dc aa ba bd
       -0.12581925 0.41825876 -0.40241933 -0.0911462
0000a0 3a a3 93 be eb 12 00 bf d5 4f a5 be b8 9a c5 bd
       -0.2883547 -0.50028867 -0.3228747 -0.09648651
0000b0 e4 87 f1 3c 32 07 6c bd 58 fc 8a be dd 21 8d 3a
       0.029483743 -0.05762405 -0.27145648 0.0010767538
0000c0 86 e4 c6 3e 76 48 88 bc a2 16 36 3e 51 03 a0 3e
       0.38846225 -0.016636115 0.17782071 0.3125253
0000d0 3a 70 9c be 67 92 0c 3f 4d 95 bd bd 61 90 c9 3d
       -0.30554372 0.5491089 -0.092569925 0.09841991
0000e0 ec 46 13 bf 06 f9 70 be 30 17 c4 be fc d2 fa be
       -0.57530093 -0.23532495 -0.3829894 -0.48989093
0000f0 b2 60 1f 3f e9 14 27 3d 73 e3 4f 3e d7 88 d2 be
       0.6225692 0.040791426 0.20301609 -0.41120026
000100 a6 1b 05 bf 20 a9 8c 3e af 55 0d bf 85 26 ce 3e
       -0.51995313 0.27472782 -0.5520887 0.40263763
000110 15 34 df 3e d5 ef c9 3d b4 35 84 3e b1 6c b5 3d
       0.43594423 0.098601975 0.25822222 0.08858622
000120 74 d0 40 3e 89 c7 bc 3e db 39 0a be bf f0 d1 bc
       0.18829519 0.36870983 -0.13498633 -0.025627492
000130 28 15 16 3d d6 dc 52 3e bc ad b2 be 39 46 e2 3e
       0.03664127 0.20592055 -0.34898174 0.441942
000140 76 7c bc be f6 d9 ac be 56 0d 7a be fe 55 8c be
       -0.36813706 -0.3376004 -0.2441915 -0.27409357
000150 f4 69 6f bd 75 0c 8a be ee b9 26 3e 9b 85 79 3e
       -0.058450654 -0.2696263 0.16281864 0.24367373
000160 26 09 b8 3e 6b 1e 0c be e1 9d 9d bd 35 76 8b 3e
       0.3594448 -0.13683479 -0.07696129 0.27238622
000170 5f ca d5 bd b4 a4 1c 3e 53 d3 b6 be 5d b8 aa 3d
       -0.1043899 0.15297204 -0.35708103 0.08335946
000180 18 3b 52 3e af 5c d9 bd ac d9 5b bd 8f e7 d9 be
       0.20530355 -0.10613381 -0.053674385 -0.42559478
000190 68 fb 3d bd cb 44 10 bf d9 c5 f8 3e b7 17 67 3c
       -0.046382338 -0.5635497 0.48588446 0.014104775
0001a0 00 98 77 3e 08 86 27 3f b1 a6 d5 3e fe ee ef 3d
       0.24179077 0.6543889 0.41728738 0.11715506
0001b0 0b bb d8 bc ab cf 17 3e 3b 16 a8 3e 11 6b d2 bc
       -0.026456377 0.14825313 0.3282946 -0.025685819
0001c0 de 1e ee be 11 c4 58 3e 82 b9 5d be af fc a6 be
       -0.46507925 0.21168543 -0.21652797 -0.32614657
0001d0 23 b1 90 3e b7 a9 b5 be b1 ec 81 3e 36 9f c6 bd
       0.28260145 -0.35481045 0.25375894 -0.09698336
0001e0 d7 b8 c3 3e 83 d2 a4 3d 56 4e e0 3e 05 be 24 3f
       0.3822696 0.080479644 0.43809766 0.64352447
0001f0 e6 a3 f6 be d5 e2 b9 3c 5d 2d 37 bd e9 19 01 3f
       -0.4817192 0.02269117 -0.044720996 0.5043016

network.2.bias f4 [2]
000000 c8 a7 fb 3d 66 40 bc 3d
       0.12287861 0.091919705
