ModelWeights/HalfCheetah-v4/critic.weights.pt (torch, 58842 bytes, 9 tensors)

network.0.weight f4 [64, 17]
000000 7c 67 cd 3d 4e 83 13 bf f2 f4 1e be 84 1c 3f be
       0.10029504 -0.5762223 -0.15523127 -0.18663222
000010 d6 69 39 3d 3f 88 55 3e 31 29 24 3e d7 53 7a bd
       0.04526695 0.20852755 0.16031338 -0.061115112
000020 fb b7 a4 3e 87 bd b7 be bb 64 98 be bf 89 a5 bd
       0.32171616 -0.35886785 -0.2976435 -0.080829136
000030 b8 98 20 bd 8c 0c f0 bd 1d 69 a7 bd 5b af 91 3b
       -0.039208144 -0.11721143 -0.08174346 0.004445953
000040 70 85 a2 3c d1 36 9d 3e ee fb 1d be 97 5e 22 be
       0.019839019 0.30705884 -0.15428135 -0.15856396
000050 26 9e 06 bd ae 00 da 3c 99 48 85 bc fb 63 17 3e
       -0.032865666 0.026611652 -0.016269969 0.14784233
000060 17 5b 31 3c b7 6e 34 bf c9 be b5 3d ad 4a 93 bd
       0.01082494 -0.7048144 0.0887428 -0.07191978
000070 d4 92 02 3e d6 ac 82 3d 28 9b 0f 3c ca 2c 3d bd
       0.12751323 0.06380622 0.0087650195 -0.046185292
000080 f5 52 d8 bd 74 b8 dc 3b 02 71 76 bf f5 76 ef 3e
       -0.10562698 0.0067358557 -0.96266186 0.46770445
000090 ee 85 4d 3f 64 f3 92 3e b5 15 96 bd c1 a1 2c 3e
       0.80282485 0.28701317 -0.07328359 0.16858579
0000a0 15 2b 97 be b9 9c b8 be 16 e3 53 be 80 66 c0 bd
       -0.29525056 -0.3605707 -0.20692095 -0.0939455
0000b0 d3 4c e8 bb 81 d8 f5 3d 4c 91 38 3d 81 64 2b 3d
       -0.0070892363 0.120041855 0.04506044 0.041843895
0000c0 70 83 14 3e 7a 76 95 3d 5d e0 3a 3d ed 3f 04 3f
       0.14503264 0.07297988 0.045624126 0.51660043
0000d0 79 4f b9 be 39 8a 8e bd 32 cd da be c0 7c 4e bc
       -0.36193445 -0.06959958 -0.42734677 -0.012602985
0000e0 01 c5 22 3e 95 80 5d be 9b 6e 0b 3d 67 6f cf be
       0.15895464 -0.21631081 0.03404103 -0.4051468
0000f0 03 b5 d9 3d d7 13 90 bd 35 c6 34 3c 93 12 1f 3e
       0.10630228 -0.07035034 0.011033584 0.15534429
000100 5b af 32 3e 72 5b fc 3d ad 6d 95 bb 69 a4 f0 3c
       0.17449705 0.12322129 -0.0045601935 0.029375272
000110 b3 c4 dd 3d 5c 4b a3 3e 27 07 98 3d 64 81 60 be
       0.10828533 0.31893432 0.07423239 -0.21924359
000120 e0 1a bf bd 3d df 2e 3d 82 3b 0e 3e 93 05 8e bd
       -0.09331298 0.042693365 0.13889888 -0.06934657
000130 89 47 18 bf b6 54 62 be 1f 9f df 3b 01 8b 33 3b
       -0.59484154 -0.22102627 0.0068243886 0.0027396085
000140 db 48 b9 3d 33 37 cb 3d 6c 74 26 bd f1 5f 96 3d
       0.09047099 0.09922638 -0.040638372 0.07342518
000150 da ad a1 3c 6d 51 aa be 53 65 83 bd 66 3d 9e 3e
       0.01973622 -0.33265248 -0.064158104 0.30906218
000160 2f ae 2d be cd 55 53 3e 2a 06 04 3e 12 05 68 be
       -0.16960977 0.20638199 0.12892976 -0.22658184
000170 03 ec 92 3d 43 80 f8 3d f9 45 b9 3e 46 01 5b be
       0.07173922 0.12133839 0.36186197 -0.21387205
000180 a5 24 23 be 28 17 ab bd 0a df f9 bd 26 48 35 3e
       -0.15931948 -0.08354026 -0.122007445 0.17703304
000190 4c 6c d3 bd 06 82 16 3e ec 40 bd be e3 a5 66 3e
       -0.1032339 0.14698038 -0.36963594 0.22524218
0001a0 2d 25 56 3d 80 f9 cc 3e de 86 9d bd bc 50 df bd
       0.052281547 0.40034103 -0.076917395 -0.10904071
0001b0 ae 69 16 3c f2 b9 ac bc 17 a8 06 3f a4 f2 92 3b
       0.009180469 -0.02108476 0.52600235 0.0044844914
0001c0 7c bf 46 3d 88 a3 47 bd d1 3b da bd 24 dd ec bb
       0.048522457 -0.04873994 -0.1065594 -0.0072285105
0001d0 13 7c 1a 3e 75 0d 8a 3a df 14 00 3c 17 a1 da 3e
       0.15086393 0.0010532575 0.007817476 0.42701027
0001e0 59 46 01 3e e0 bc 98 bc d6 22 f1 be 15 5a 8c 3c
       0.12624492 -0.01864475 -0.4709689 0.017132798
0001f0 94 ae fc 3c 15 e0 01 3e 7d aa d9 bd e8 c5 0c be
       0.030844964 0.12683137 -0.10628221 -0.1374737
000200 c1 ee e9 3e 91 6e 0e be 18 94 d9 3c 76 4b c9 bd
       0.45689967 -0.13909365 0.026559874 -0.09828846
000210 b3 70 03 bd 51 4f 20 be a0 0a 6c bd 61 ef 2a bc
       -0.0320899 -0.15655257 -0.05762732 -0.010433049
000220 5b 0d 66 be 79 e4 8a 3d 80 e5 1f 3d 14 b7 b4 3e
       -0.22466032 0.06781859 0.039037228 0.35295928
000230 4e ee 3f bd f9 ef dc 3e a3 d8 82 3e a9 47 09 3e
       -0.046858124 0.43151835 0.25555906 0.13406242
000240 ff 8f b4 be 81 d0 3b bd d9 95 cd bd 29 bd 0a 3e
       -0.3526611 -0.04585314 -0.10038347 0.13548721
000250 7b ac bd 3c 9c 8c 9b bd 52 03 61 be 53 3a 1a be
       0.023153534 -0.075951785 -0.21973923 -0.15061311
000260 47 99 fa bd 1a 8b 6b bc b2 44 30 bd 55 f8 a9 3e
       -0.122362666 -0.014376426 -0.043034263 0.33197275
000270 59 ca b0 bd a2 5f 10 3e 7e 87 bc 3d 8e 6e 3d 3e
       -0.08632345 0.14098981 0.092055306 0.18499205
000280 ba 8e 4f be 81 96 74 be 43 d2 3f 3f 96 40 2d bd
       -0.2026929 -0.23885538 0.7493021 -0.042297922
000290 00 cb 76 bc 8d 75 47 be 07 25 83 3d 69 fb 1d bd
       -0.015063047 -0.19478436 0.06403547 -0.03856984
0002a0 5c 66 40 be c4 2f 2c bd 03 b6 21 3d ed 3c cc 3e
       -0.18789047 -0.04203774 0.03948022 0.39890233
0002b0 ba 7f 0d be 07 76 f9 3d 76 d4 20 3c fe a1 ef 3d
       -0.13818255 0.12180715 0.00981628 0.117008194
0002c0 bd a3 84 3e a5 9d 3f be 1b 66 2f bf cb 57 57 bd
       0.25906172 -0.1871248 -0.68515176 -0.05257396
0002d0 7c 23 c5 bb 37 12 e3 3d bd b6 69 3c 94 ff 27 bb
       -0.006016193 0.110874586 0.01426476 -0.0025634514
0002e0 f9 da 19 be 9a fd a5 bd 87 fb c8 3c 83 05 5d 3f
       -0.15024938 -0.08105011 0.024534 0.86336535
0002f0 de d4 a1 be 31 cc 6a 3e 71 75 11 3e 51 60 9c bc
       -0.31607717 0.22929455 0.14204957 -0.019088896
000300 26 14 49 be e8 95 04 3e d6 ea b2 ba 6b c2 69 be
       -0.19636592 0.1294781 -0.0013650309 -0.22828071
000310 87 ed 89 3d 42 68 81 be 9d 00 99 bd 1c c2 f0 bd
       0.06734758 -0.25274855 -0.0747082 -0.117557734
000320 0c f6 48 3e 5c a4 6e bc 28 58 81 bc f5 9c 2e 3e
       0.1962511 -0.0145655535 -0.015789106 0.17052062
000330 32 61 00 3b f9 72 d5 bd 6a 29 de 3e 74 14 fe be
       0.0019589183 -0.1042232 0.4339097 -0.4962498
000340 cf 8f 15 be 37 f8 95 3e 06 8b 8b be 66 65 86 be
       -0.1460564 0.29290935 -0.27254504 -0.26249236
000350 5d 1c 62 3e 57 e5 6f 3e 78 97 1d 3b 03 db a5 3d
       0.22081132 0.2342733 0.0024046581 0.08098414
000360 98 29 90 3d 5c 33 12 3e a1 f0 12 be 53 87 b2 bd
       0.070391834 0.14277405 -0.14349605 -0.08717217
000370 fe 18 9a 3d 4f ab ad 3d 46 70 a8 3d 42 95 80 3e
       0.07524298 0.0847994 0.082245395 0.25113875
000380 04 c8 32 bd 33 4d 44 3d 92 1f b7 3e 98 e4 c1 3d
       -0.04364778 0.047925185 0.35766274 0.09467429
000390 1b 50 49 3e 91 69 a8 be c8 aa d8 3c e1 ee 81 be
       0.19659464 -0.3289304 0.026448622 -0.25377563
0003a0 f8 4d 0d 3e 89 6e 72 3e 4a 80 47 bd 85 c1 0d 3e
       0.13799274 0.23674978 -0.04870633 0.13843353
0003b0 81 e5 62 3c a2 14 2b 3d 74 01 8d 3d 19 39 73 bd
       0.013848663 0.041767724 0.06885043 -0.059380624
0003c0 32 28 8f 3e a8 b2 0e bf c2 b8 88 3e e0 3f 9b 3d
       0.27960354 -0.5574136 0.2670346 0.075805426
0003d0 d8 31 28 be 6d 9e b5 bd a1 25 9c 3e 02 b8 84 3e
       -0.16425264 -0.08868108 0.3049746 0.25921637
0003e0 ff 74 cd bd ab f2 d8 3d 5c 0f c3 3d c1 8c 7d 3c
       -0.10032081 0.1059316 0.09524414 0.015475453
0003f0 85 a3 46 bb 1f 5b 06 be f2 88 4b bd 00 7f 25 3f
       -0.0030309868 -0.13120697 -0.049691148 0.6464691

network.0.bias f4 [64]
000000 58 da 1b bd 3d 7d ee 3e d7 8b 41 be b3 c8 65 3d
       -0.038050026 0.46579924 -0.18901001 0.056099605
000010 a5 ff cd bd 0a e6 5d 3e 24 11 6d 3e 59 f6 a7 3e
       -0.10058526 0.21669784 0.2315107 0.32805136
000020 d6 10 97 bd c6 03 50 bd 26 b0 8b 3e 17 da 6f 3d
       -0.07376258 -0.05078485 0.27282828 0.058557596
000030 23 bf c7 bd d0 92 98 bc fa a8 72 3e 5c 3c 9e 3e
       -0.09753253 -0.018624693 0.23697272 0.30905426
000040 86 b1 bb 3c 61 d8 83 bd f1 67 d5 3d e0 33 a5 be
       0.022911798 -0.064377554 0.10420216 -0.3226614
000050 a3 dd 35 bd b0 f7 15 3e 0a d0 90 bc ac f4 56 3e
       -0.044400822 0.14645267 -0.017677326 0.20991772
000060 7e 26 02 ba 57 60 cf bc af 03 9b 3e a3 29 c2 3c
       -0.0004964842 -0.025314493 0.30276248 0.023701495
000070 29 ee 55 3e 8a 07 5e 3d 24 e9 97 3d 9b 9c aa bd
       0.20891632 0.05420641 0.07417515 -0.083306514
000080 d5 a4 44 3d 99 97 95 3d 12 dc a4 3d cb 45 0d bd
       0.04800876 0.073043056 0.080497876 -0.034490388
000090 e2 02 bf 3e f8 93 38 3e a0 c8 b1 3e 53 3f 38 3e
       0.37306887 0.18025196 0.34723377 0.17992906
0000a0 31 ef b5 3e 5b 5a 57 be b2 4e 29 3e 98 00 8f 3e
       0.3553405 -0.21030562 0.16533926 0.2793014
0000b0 8c 0b 92 3e e3 44 f7 3d b1 c9 fe 3d 1b 8a a6 bc
       0.28524435 0.12073686 0.12440813 -0.020329526
0000c0 38 71 66 3e 12 54 6e bd a2 92 95 bd 45 ae 8d 3e
       0.22504127 -0.058185644 -0.073033586 0.2767202
0000d0 e2 d4 8b be 8f 8e 9f be 42 1c 7e 3e e4 79 ec 3e
       -0.27310854 -0.3116345 0.24815467 0.46186745
0000e0 ba 65 3a bd 2e 58 44 bd 66 52 b3 bd 77 42 13 3e
       -0.04550717 -0.047935657 -0.08755951 0.14380823
0000f0 c3 bf e5 3e 1d 6b 30 3e dd 2d 9c bd 6a d7 84 3d
       0.44872865 0.1722836 -0.07625935 0.064863995

network.2.weight f4 [64, 64]
000000 47 67 fe bc 47 d8 d7 bb c6 53 40 bd 0e 7f ec 3d
       -0.031055106 -0.0065870616 -0.046954893 0.11547671
000010 8d ca c0 3d b7 5c c2 3d 70 6d 4b 3d b5 47 1b 3c
       0.094136335 0.0949034 0.049664915 0.0094775455
000020 14 02 52 3c e4 37 9f bd 6a 6c 48 bc a2 e0 96 bb
       0.012817878 -0.07774332 -0.012232879 -0.004604415
000030 97 a5 60 3d 8a 00 30 3d 1b 4f b3 3b fa 3f 9b 3d
       0.05484542 0.042969264 0.0054720766 0.07580562
000040 0a cc de 3a c1 af f9 bc a4 98 e9 3d d9 88 b0 bd
       0.0016998064 -0.030479314 0.11406067 -0.086198516
000050 c4 b0 a1 bd 9c df 3a 3d 08 d3 f8 bd 2b 3d 2e 3e
       -0.078950435 0.045623407 -0.12149626 0.17015521
000060 41 c2 d1 3d 03 e8 32 bd 2b c7 88 bd df 3d 93 bd
       0.10242129 -0.043678295 -0.06678613 -0.07189535
000070 02 b8 83 bc 84 63 02 be d5 5e e4 bd 8c 76 06 be
       -0.016078953 -0.12733275 -0.111509 -0.1313116
000080 f2 d0 ce bd 85 5f 97 3d f0 dc 0e 3e b0 77 58 bd
       -0.10098447 0.07391266 0.13951468 -0.052848518
000090 f7 c3 e6 bd 2c 23 a0 3d c7 1a c2 3c bb d2 06 be
       -0.11267846 0.078192085 0.023694409 -0.13166325
0000a0 c8 9c 7c bd 37 00 46 bd 13 27 a6 bd cd fc b2 3c
       -0.061672956 -0.04834005 -0.081129216 0.02184906
0000b0 76 cb 8b bd 9c c0 c0 3d 78 c8 f4 3a 26 c3 77 3d
       -0.068259165 0.09411737 0.0018675467 0.060488842
0000c0 8e f8 58 3b 09 c7 2f bc 9c d8 4f bd f2 f7 1e 3c
       0.0033107135 -0.010728606 -0.050743684 0.009702669
0000d0 f1 6b bd bc c5 44 8e 3d 8c 37 6e 3c 22 13 18 bd
       -0.02312276 0.069467105 0.014539611 -0.03712762
0000e0 33 4c d1 3d fa 63 62 3c df 46 0f be 27 7f 67 3c
       0.10219612 0.013817782 -0.13991879 0.014129437
0000f0 59 54 d2 3c da 51 ab bd db 84 35 3e 22 5a 74 3b
       0.025674986 -0.08365221 0.17726462 0.0037285169
000100 06 a0 0e 3e 35 2e 9d bd f8 b7 d6 bc a7 53 4c bd
       0.13928232 -0.07674829 -0.02621077 -0.049884465
000110 ac f7 0c 3e 7e f4 e8 bc 68 14 d2 bd 80 7f e5 3d
       0.13766354 -0.028436895 -0.102577984 0.11205959
000120 b7 1e b7 3d d7 ac 91 bd 55 ed c4 3d a2 6a f5 3c
       0.08941405 -0.07113045 0.0961558 0.029958073
000130 0d 13 b3 3d 9e 08 cd 3d 6a f5 c7 bd e1 76 6e bd
       0.08743868 0.10011409 -0.09763606 -0.05821884
000140 21 c8 3f 3d 34 1c b2 bd 1f 30 d9 3d 7b c2 83 bb
       0.046821717 -0.086967856 0.106048815 -0.0040209866
000150 b8 59 ab 3d 50 cf d8 3c 55 bb 9a bd 46 db c2 3c
       0.08366722 0.026466042 -0.07555262 0.023786198
000160 8b d7 21 3c 9d a0 94 3c bd ce f6 3c 81 5d fe 3c
       0.00987805 0.018142993 0.030127877 0.031050446
000170 1a 84 04 bc 35 c1 29 bd 1e 31 8c 3d 7c 16 93 3d
       -0.008088136 -0.041444022 0.06845306 0.07182023
000180 33 6c 83 bc b0 09 09 3d 4d 47 f2 3d 4d f6 b8 3d
       -0.016042804 0.033456504 0.11830006 0.09031353
000190 aa 02 80 3d 89 3c f1 3d 3c 19 e7 bb 51 1e ef bd
       0.06250508 0.11779124 -0.0070525687 -0.11675704
0001a0 b0 b0 a5 bd fd c6 e8 3d 1a cb 17 bb 61 8a 2a 3d
       -0.08090341 0.11366079 -0.002316183 0.041635875
0001b0 73 96 59 bd 52 a5 a3 bd 0c b1 da bc 93 32 4c 3d
       -0.053121995 -0.07990517 -0.02669575 0.04985292
0001c0 12 27 ac bd 36 2f b8 bd 9e 8b 65 3c ee 9d d1 bd
       -0.084058896 -0.0899338 0.014010338 -0.10235201
0001d0 54 d2 1b bd 55 5e 1d 3d 1c 34 c2 3d da 9c 2b 3b
       -0.03804238 0.03842004 0.09482595 0.002618602
0001e0 be 01 a1 bc 0c bf 9a 3d 7f 2e 43 bd 43 89 91 bd
       -0.019654151 0.075559705 -0.047651764 -0.07106259
0001f0 cb ce a4 bc 8f c1 95 be 57 f9 a3 3d cc 0a 02 bd
       -0.020118138 -0.29249236 0.08006542 -0.031748578
000200 5a ba bd 3c aa fe 07 bd a3 75 fb 3d 67 ed a6 bd
       0.023160148 -0.03320185 0.12278297 -0.0815075
000210 21 e9 7e 3d 7d 72 c2 3b 36 ea db 3d 17 20 96 3d
       0.062234048 0.005934058 0.107380316 0.073303394
000220 c1 d3 c7 3d 0e 2d b2 bd eb b4 f3 3b ac 71 9b bd
       0.09757186 -0.087 0.0074373386 -0.075900406
000230 89 de c1 3d 4b ec 89 3d bb a9 fc bc 54 94 d0 3d
       0.09466273 0.067345224 -0.030842653 0.10184541
000240 b3 f5 98 3d c7 20 ae 3d 5c 2d 80 3c 19 a2 fa bc
       0.074687384 0.085023455 0.015646629 -0.030594872
000250 37 20 81 3d 02 52 10 bc 19 cf 63 bd bc 30 67 bd
       0.063049726 -0.008808615 -0.055617426 -0.05644296
000260 80 9e 6a 3c e3 b2 0d 3e 8d fe c6 3c 49 69 c8 bc
       0.014320016 0.13837771 0.024291301 -0.024464266
000270 3d 15 bd 3c 35 c8 8e 3d 4b 20 c6 bd 55 c6 2f 3e
       0.023081416 0.0697178 -0.09674128 0.17165501
000280 bb 9e 46 3d a5 61 88 bd 0a 62 36 bd 26 ec 24 3c
       0.04849122 -0.06659249 -0.04452709 0.010066068
000290 a9 b0 6b bd fa 6f 82 bd 4e bd d7 3a 89 55 b1 3c
       -0.057541523 -0.06369014 0.0016459615 0.021647232
0002a0 7a bb 0d 3d 7c 2d e2 3d 04 85 d3 bc 4b 51 37 bb
       0.03460262 0.11043832 -0.025820263 -0.0027972038
0002b0 9d 92 9c 3b 87 52 12 3d 29 7f 91 3d 6a 9a c6 bd
       0.00477822 0.035723235 0.07104332 -0.09697421
0002c0 34 c1 ee bd f0 1d f4 bd 48 a7 89 3d 88 7d cf bd
       -0.11657944 -0.119197726 0.067213595 -0.10131365
0002d0 53 08 29 3c 8f 3d b8 3d 0d 46 36 bd e0 35 8b bd
       0.010316926 0.08996116 -0.0445004 -0.06797385
0002e0 7d 06 8a bd dc d5 62 3d de 28 f2 3d 78 3f d2 3d
       -0.06739519 0.055379733 0.11824201 0.10266012
0002f0 ee 61 fc 3c 40 e3 b9 bd 6f 8a ca 3c 07 67 ab bc
       0.030808415 -0.090765476 0.024724213 -0.02092315
000300 ab 7a 37 bd c8 e2 97 3c ad 55 f9 bd 5d 23 75 bd
       -0.04479472 0.018540755 -0.121745445 -0.05984818
000310 db d1 9f bd 2f f2 b0 3d 05 87 f9 3d c9 a3 bf bd
       -0.07803699 0.08639943 0.12183956 -0.093574114
000320 5b ce 66 3d 56 f6 81 3d a8 49 c0 bd 60 90 06 bd
       0.05634914 0.06345813 -0.09389049 -0.03285253
000330 d2 d3 70 bc 1a 1d a3 3d b7 68 a5 3d 9e 3e 75 bd
       -0.014698939 0.07964535 0.080766134 -0.05987417
000340 61 f6 f3 bc 4d 31 64 bd 27 ca 04 3e 14 e6 0a bd
       -0.029780569 -0.05571108 0.1296774 -0.033910826
000350 e6 9a c4 bc a1 cd f2 bd d6 3b 91 3d 85 9f 60 bb
       -0.023999643 -0.11855627 0.07091491 -0.0034274769
000360 ed d2 c9 bd 19 eb 57 3b d3 af 46 3d 28 5a 98 3c
       -0.09854684 0.0032946526 0.048507523 0.018597677
000370 34 f5 eb bc fe bd d0 bc d4 4a 28 3d e5 8c 43 be
       -0.028803445 -0.02548122 0.041086987 -0.19096716
000380 2a 72 33 3d b7 6b a7 bd aa 11 c9 bd 23 f8 3f bd
       0.043810047 -0.08174842 -0.09817822 -0.0468675
000390 4a 5e 2a 3d a4 d9 02 3e 34 5a a4 bc 86 28 9f 3d
       0.041593827 0.12778336 -0.020062543 0.07771401
0003a0 6c 89 8e 3d a8 49 e5 bd a6 79 b7 bb 62 95 00 be
       0.06959805 -0.111956894 -0.0055992184 -0.12556985
0003b0 57 25 84 bd 13 9e e1 3c cb f0 df bc 88 8e 9e bd
       -0.064524345 0.027541196 -0.027336499 -0.077420294
0003c0 29 65 28 3e 25 f0 81 bd b1 9f f5 3c 4f af 2d 3e
       0.1644484 -0.06344632 0.029983373 0.16961406
0003d0 0f 8f 9f bd bc 31 6a 3c b3 76 05 3c f0 1d fd 3c
       -0.07790958 0.014294084 0.008145976 0.030898064
0003e0 5d 33 ff 3c d4 5c ce bc ed dd fe 3c 1a c3 17 3c
       0.031152422 -0.025190748 0.031111682 0.009262824
0003f0 a3 5e 60 3c 10 66 b4 bd 0d 24 2b bd d0 49 c1 bc
       0.013694438 -0.088085294 -0.041782428 -0.023594767

network.2.bias f4 [64]
000000 f0 ac a0 bd 64 58 03 bd 00 3f 2e be a2 2a fb bb
       -0.07845485 -0.032066718 -0.1701622 -0.0076649943
000010 58 22 a9 3d 9d f0 49 3d bb fa 5d 3e 5a 68 ba 3e
       0.08258504 0.049301732 0.21677677 0.3640774
000020 1d 3e 23 3e 20 3f d7 3b 07 70 78 3e 64 ef 7b 3c
       0.15941663 0.0065688044 0.24261485 0.015376899
000030 54 3a 1d 3e d4 6b 8c 3b 63 25 c7 3d 73 7c 38 3e
       0.15354282 0.004285315 0.09723928 0.18016224
000040 c2 90 9d 3c aa 6c a0 3e 14 73 4f bd 3a e5 8e 3c
       0.019234065 0.31332904 -0.050646856 0.017443288
000050 8b e1 88 bd 09 fc 03 be bf 60 d0 3c 92 b8 91 3d
       -0.06683644 -0.12889113 0.025436757 0.07115282
000060 20 31 5c 3c 01 d8 dc 3c eb 30 b1 3e ab 8f 23 3e
       0.013439447 0.026958467 0.34607634 0.15972774
000070 6b d7 15 bc 47 7f a9 3d 3f a4 6e 3d 29 e4 2f be
       -0.009145598 0.08276229 0.058262106 -0.1717688
000080 f5 17 3f be d3 d7 76 3d e4 ee 07 3d e0 5c 09 3e
       -0.18661483 0.06026442 0.03318681 0.13414335
000090 e9 c1 61 3e 83 96 14 3d e1 e9 23 3d 5e 3f c9 bc
       0.22046627 0.03627635 0.040017966 -0.024566349
0000a0 40 4d 51 3e 40 1d 6e bd d1 c0 11 3e 04 bf ad 3e
       0.20439625 -0.058133364 0.1423371 0.33934796
0000b0 a5 eb 3f 3e 1c dd 84 be ff 96 8f 3d fb 95 83 3c
       0.18742235 -0.25949943 0.07011222 0.016062727
0000c0 d9 61 ca 3d 1d c7 87 bd 5d 8e 07 3e 7b 06 d1 bd
       0.09881944 -0.06629775 0.13237901 -0.10206314
0000d0 7c f5 67 3e 17 8c 39 3a 33 0e 11 bd 12 eb 7f 3e
       0.22652239 0.0007078065 -0.035413932 0.24992016
0000e0 00 d6 a6 bd f8 58 11 be bd a2 4d 3e 1a a0 e7 bd
       -0.08146286 -0.14194095 0.20081611 -0.11309834
0000f0 00 b1 70 bc 45 a6 d4 3d a3 80 2a be 34 21 25 3e
       -0.014690638 0.10383276 -0.16650634 0.16125947

network.4.weight f4 [64, 64]
000000 c6 c5 05 be f5 1a dc bd cb dd 67 be 6a c3 2f be
       -0.13063726 -0.10747329 -0.22643201 -0.17164388
000010 42 f0 f5 3b 9f dc 17 bd 26 ed 95 bd 34 c7 bf bd
       0.0075054476 -0.037075635 -0.07320623 -0.09364167
000020 74 26 a5 bd 68 39 21 bc 54 a3 8a be e0 44 09 be
       -0.08063975 -0.009840347 -0.27077734 -0.1340518
000030 0d c8 6b bd da e3 17 bd 6c a2 03 b9 24 6e ab 3c
       -0.05756383 -0.03708253 -0.0001255364 0.020926543
000040 22 72 8c 3d 79 59 a4 3d 96 ba 65 3c 1b 29 42 3c
       0.068577066 0.08024878 0.014021536 0.011850621
000050 02 07 ca bd 6f 30 bb bd 50 b9 4f bc ab 0b 40 be
       -0.09864618 -0.09140097 -0.012678459 -0.18754451
000060 c9 c5 b1 bd 9f cd ed 3d 68 cc 83 bd 1d 8a ba bd
       -0.08680303 0.11611485 -0.06435472 -0.09108374
000070 0d ab 3d be ec 11 59 be 9a 0f 60 be 4d 01 d6 bd
       -0.18522282 -0.21198243 -0.21880952 -0.10449467
000080 60 90 11 bd f8 02 13 bc c3 f9 0e 3d 29 ac e8 bd
       -0.035538077 -0.008972876 0.03490616 -0.11360962
000090 29 73 a9 bd f8 f5 a2 3d d2 e0 a1 bd cf 1d 19 be
       -0.08273918 0.07957071 -0.07904209 -0.14952777
0000a0 ed 18 71 be 61 45 e1 bd 8c 89 82 3d 1a bf 15 bd
       -0.23544665 -0.10999561 0.06373891 -0.0365592
0000b0 fd 69 2f bd 70 64 7d be d0 e0 00 be 6a 84 d0 bd
       -0.042825688 -0.24745345 -0.12585759 -0.10181506
0000c0 cd f0 12 3e d2 3c 7e be 20 b8 18 bd 3c 43 f0 bc
       0.1434967 -0.24827889 -0.03728497 -0.029328935
0000d0 88 83 1b be 0f 7e 80 3b af cf 41 bd e2 d7 a4 3d
       -0.15186894 0.0039212774 -0.047317203 0.08048989
0000e0 9f 40 54 3c 53 32 a4 3d e8 d2 ec bd ef 3f ce bd
       0.01295486 0.08017411 -0.11563665 -0.10070788
0000f0 45 af 99 3c 6a 65 30 be d6 44 43 be 54 8d 8b 3d
       0.018760333 -0.17226186 -0.19069228 0.068140656
000100 bc 14 a7 3d ab 48 a5 3c 09 79 46 3c c0 66 f6 bc
       0.08158252 0.020176252 0.012113818 -0.030078292
000110 6d 70 21 be 28 5b 67 3d ff 7b f3 bd ad 9a 6b bd
       -0.15765543 0.056483418 -0.11888885 -0.057520557
000120 2f 40 68 bd 0c 6e be 3d 92 e4 c5 bd f1 05 0d be
       -0.056701835 0.092983335 -0.09662737 -0.13771798
000130 c0 0e 95 3d 46 de 86 bd 1d 1f 97 3d 28 2a 08 be
       0.07278204 -0.06585364 0.07378981 -0.13297331
000140 fb 4a 0c 3c 22 a9 ed bd ed 9b 2c 3d 32 bc 20 3d
       0.008562799 -0.11604525 0.04214089 0.039241977
000150 0a 34 2a 3d 3d 59 06 be 3a 31 5b bd 97 84 9f 3c
       0.041553535 -0.13119979 -0.053513743 0.019472403
000160 26 e7 51 bd 2c 54 80 3c e8 f5 16 be 5a e3 88 3d
       -0.05124583 0.015665136 -0.14742243 0.06683989
000170 50 ff d9 bd 83 33 a0 3d b0 e1 0c be 72 75 19 3b
       -0.106444 0.07822325 -0.13757968 0.002341595
000180 1b 45 06 be 75 01 0a bd b8 07 2f bd d1 3c 01 be
       -0.13112299 -0.033692796 -0.04273197 -0.12620856
000190 e2 2c d2 bb d2 4c 57 bb 26 a1 c8 3d 83 06 d2 3c
       -0.006414042 -0.0032852185 0.097963616 0.02563787
0001a0 63 ba 9e 3d 8f 06 9b bd 4e cb d0 bc 1b 5f e5 bb
       0.07750394 -0.0756961 -0.025487568 -0.006999863
0001b0 4d 79 81 3d 3d c8 c1 3a cc 33 85 3d e6 5e 95 3d
       0.063219644 0.0014784407 0.0650402 0.07293491
0001c0 b7 5a c3 bd 22 38 ba bd 6f 6e 8a bc 95 b8 61 bd
       -0.09538787 -0.09092738 -0.016898362 -0.05510767
0001d0 d8 cc 06 3c c3 4f f8 bd c9 3d 09 bc 8e 97 1c 3d
       0.0082275495 -0.12124588 -0.008376547 0.03823047
0001e0 1e bc 12 bd 90 0c a5 3d 3a ec 9f bd d4 44 fd bc
       -0.035823934 0.08059037 -0.078087285 -0.030916609
0001f0 0f 49 54 3d 37 7c 6f bd 63 31 c3 bd 49 f8 a9 3c
       0.051827487 -0.05846807 -0.09530904 0.020748274
000200 53 ab 73 bd 07 67 e1 3d 0b 23 ba bd fe ed 81 3c
       -0.05948956 0.11005979 -0.09088715 0.015860554
000210 18 42 c0 3d 37 54 a6 3d 41 6b 9e 3c 8f 15 af 3c
       0.093876064 0.081215315 0.019338252 0.021372585
000220 2d 83 c5 3d f4 d6 6e bb d6 9d c0 3d 6d 8f c8 3d
       0.096441604 -0.003644404 0.09405105 0.09792981
000230 31 18 ee 3d 82 94 d6 bd 45 d9 3a 3d ca 32 bc 3d
       0.11625708 -0.10477544 0.04561736 0.09189375
000240 56 d2 38 bc 03 18 0a be 8e 9e c2 bd b4 b2 3b bd
       -0.011280617 -0.13485722 -0.09502898 -0.04582472
000250 5f 38 84 3d da fb 8a 3d eb 47 ad 3d dc 73 fc 3d
       0.064560644 0.06786318 0.08460983 0.12326786
000260 95 d6 ce 3d 80 cf 0a 3d b2 30 99 be d7 1c b5 3d
       0.10099522 0.033889294 -0.29919964 0.088433914
000270 20 9b a9 bd 43 f5 9f bd 86 84 31 bd 26 d6 e2 bd
       -0.08281541 -0.07810452 -0.043339275 -0.11076002
000280 1b b8 5a bc 52 7e 2b 3d dd c4 cb 3c 4b ae 45 3d
       -0.013349558 0.041868515 0.024874145 0.04826192
000290 c0 81 c1 bd 83 1f 00 be 4e e9 bd bd 4b ba 8a bd
       -0.09448576 -0.12512021 -0.09273015 -0.06773814
0002a0 c9 7b ed 3d 6f 23 d0 bc 50 4e b4 3d 05 71 3d be
       0.11595876 -0.025407521 0.088039994 -0.18500145
0002b0 64 7f ad 3d 7d 22 82 3d 00 e3 bf bd 2a d6 8b bd
       0.084715635 0.06354234 -0.09369469 -0.06827958
0002c0 8e 9b df bd d0 e0 10 3e f3 3d 43 3d 66 2f 91 bd
       -0.109183416 0.14148259 0.0476665 -0.07089119
0002d0 41 c1 4d 3e fe be b0 3d da d1 43 bd 4b d8 a8 bd
       0.20093252 0.08630179 -0.047807552 -0.082443796
0002e0 45 4c 93 bd 45 7d bf bd 21 e4 a5 3c a7 d2 b7 bd
       -0.07192282 -0.09350065 0.020250382 -0.089757256
0002f0 72 53 b1 bc 2a 7c 2f 3d ab e6 42 3d 9e 92 3e bd
       -0.021646235 0.04284302 0.047583263 -0.046526544
000300 a7 be 5f bd 60 2c 73 bd 9e 2c f1 bd d6 fd 53 3c
       -0.05462518 -0.05936849 -0.11776088 0.012938937
000310 fc ff ea bd 6b b0 3e bd 4f 39 0d bd c2 f7 ae 3d
       -0.114746064 -0.046554964 -0.03447848 0.0854335
000320 c1 cd 89 3d 53 b2 cc bc d1 9a ab 3d c3 f0 22 3a
       0.067286976 -0.024987375 0.08379138 0.0006215686
000330 53 cb 83 bd 66 98 0d 3d 64 fc f7 bd 21 7f c2 ba
       -0.064352654 0.034569167 -0.121086866 -0.0014838913
000340 24 17 b0 3d 1d 5d 85 bd 9e 29 cc bd 60 6b f7 bc
       0.08598164 -0.065119006 -0.09968875 -0.030202568
000350 84 70 f8 bd c2 7f ff bd fc 9c 44 bd a3 e7 bb bc
       -0.12130836 -0.1247554 -0.048001274 -0.022937601
000360 61 31 90 bc 1e 37 bf bd 16 1b 67 3d e3 27 45 bd
       -0.01760167 -0.09336685 0.056422316 -0.048133742
000370 54 d1 da bd e7 7b 00 be 4c 49 b3 3d e1 6f b5 bd
       -0.106844574 -0.12547265 0.08754215 -0.0885923
000380 80 a9 cd bd c8 a0 1e bd 9c 3b 03 be 70 6e 5a bd
       -0.10042095 -0.03872755 -0.12815708 -0.053327978
000390 62 5d ba 3c f5 9d 54 3d 54 c7 13 bd e5 29 2f bd
       0.022749607 0.051908452 -0.036078766 -0.042764563
0003a0 ce 3c 0b 3d 23 06 8b bd e6 e2 9f 3d 55 04 2e 3d
       0.033993535 -0.0678828 0.07806949 0.0424846
0003b0 25 86 64 bc 3b d6 47 3d e4 98 fd bd 4a 72 e0 bd
       -0.013947998 0.04878829 -0.12382677 -0.10959299
0003c0 8b 78 b2 bd 46 66 69 3d f9 a0 bd 3d 37 6c 5a 3d
       -0.08714398 0.0569823 0.09259219 0.053325858
0003d0 2e 48 e2 bd 6d 63 ae 3d 85 50 01 3d c5 c6 1e bd
       -0.110489234 0.08515058 0.03157093 -0.03876378
0003e0 0b f2 c1 bc 32 b7 6b bc 7b 49 85 bd 81 92 bb bd
       -0.023674985 -0.014386939 -0.06508156 -0.09158803
0003f0 0d 94 ae bc cf 9c 9f 3c 7d 2b 71 3d b6 8c e9 bd
       -0.02131083 0.019483952 0.058879364 -0.114037916

network.4.bias f4 [64]
000000 c6 f5 d2 3d 42 7a 1a be 19 5f a8 bc 37 57 44 bd
       0.10300784 -0.150857 -0.020553159 -0.047934737
000010 7c 06 66 3a 66 48 ae bc 97 3f 13 3e 99 29 35 3d
       0.000877477 -0.021274757 0.14379726 0.044229124
000020 04 d5 94 3c d7 3b d4 bd 0b 03 9e 3c 27 50 97 3e
       0.01816798 -0.10362976 0.01928856 0.2955334
000030 9a 08 00 be d7 a8 1b be 75 e9 ae 3d 3c d6 ce bd
       -0.12503281 -0.15201126 0.08540622 -0.10099456
000040 d9 6b eb bb 5a 33 ca 3d 6b 10 82 bd 5c 95 14 3e
       -0.0071844873 0.09873076 -0.06350788 0.14510101
000050 1f 6d b4 3b 01 ab 7d bd 08 1f bb bb 7b 83 e9 3d
       0.0055061723 -0.06193066 -0.0057104863 0.11402031
000060 05 d8 fd 3d b6 e4 09 3e 1e 8a 84 bd a2 e2 d8 bd
       0.12394718 0.13466153 -0.06471656 -0.10590102
000070 19 e7 9e bd 26 7e b1 3d 3b 34 91 bd d8 94 85 3e
       -0.07758922 0.08666639 -0.0709004 0.2609012
000080 05 91 81 3e 3e f6 00 3e fa 58 e8 be 19 27 61 3d
       0.25305954 0.12593934 -0.45380384 0.054968927
000090 da 1c 81 3d f6 96 29 3d 51 4b 37 3e 31 43 61 bd
       0.06304331 0.041403733 0.17899825 -0.05499572
0000a0 f1 b7 19 3e 93 60 1d bd 6a 63 bf 3d 93 af ce bc
       0.15011574 -0.03842218 0.093451336 -0.025230205
0000b0 9a ed 13 3e 06 a2 dd 3d e7 92 ba 3e 7f 51 09 3e
       0.14446107 0.10821919 0.36440203 0.13409995
0000c0 a8 78 d1 bc 41 12 5b 3d d5 81 9b bd 05 5e 58 3e
       -0.025570229 0.053484205 -0.07593123 0.21129616
0000d0 6b 37 64 3e 6c cf 1c 3e 60 7b c2 be 87 1c a8 bb
       0.22286765 0.153135 -0.37984753 -0.005130354
0000e0 88 7e 19 3d 5b d5 f1 3b 0b 36 4c 3d bc 59 0c 3e
       0.037474185 0.0073801703 0.049856227 0.13706106
0000f0 04 db 22 bd 74 c5 36 bc 64 ce f5 3d e2 02 c2 3c
       -0.03975965 -0.011155475 0.120022565 0.023683015

network.6.weight f4 [64, 64]
000000 51 64 0a 3e d2 8d 40 bd ed 04 f9 3d ca 16 d7 bd
       0.1351483 -0.04701025 0.12159143 -0.105023935
000010 54 bc bf bd d1 76 44 3d e2 23 88 3d c3 28 5c 3d
       -0.093620926 0.047964875 0.06647469 0.05374981
000020 9a d9 6a 3d 30 ee e1 3d 11 f8 ca 3d 1c a9 eb bd
       0.057336427 0.11031759 0.09910596 -0.115068644
000030 da 4d ae 3d 13 10 36 3c 61 d0 19 bd 60 5b 79 bd
       0.08510943 0.011112231 -0.03755224 -0.060878158
000040 fb 53 d9 3d d0 78 34 bd 2b 09 a0 bd 8b 11 58 3e
       0.10611721 -0.04406053 -0.07814249 0.21100442
000050 97 33 d3 bd e7 41 92 3c 02 65 a1 3d 60 17 10 bd
       -0.10312574 0.01785369 0.07880594 -0.035178542
000060 52 41 58 3d a1 51 54 3d 0d 6a 9d 3d 5f 23 1e bd
       0.05279667 0.05183566 0.07686243 -0.03860795
000070 05 2c d6 bd af 5b 08 3e 60 88 c9 3d 33 ce 25 3d
       -0.10457615 0.13316225 0.098404646 0.04047985
000080 b9 f5 4d bd 57 71 2a 3e ea ed 34 3e e2 59 e5 3d
       -0.050283168 0.16644798 0.17668882 0.111987844
000090 eb 7d 15 3e 58 c8 ea 3d 72 9c e2 3d 30 8f 07 3e
       0.14598815 0.11463994 0.11064996 0.13238215
0000a0 cd b2 37 3d 52 d9 c2 3d 32 aa ae 3d 6b 49 f6 3d
       0.044848252 0.09514107 0.08528556 0.12025722
0000b0 9e 32 fb 3c 9d 9b 15 3e 31 c7 e9 3b 53 60 83 bd
       0.030663785 0.14610143 0.007134341 -0.06414857
0000c0 f0 3a 19 3d 9d 6d 4f 3d d9 4c 0e 3e 0b 90 d9 3b
       0.037409723 0.050641645 0.13896503 0.0066394857
0000d0 ac 28 c3 bc c0 a4 36 3e 28 f3 f3 3b af 5e 86 3d
       -0.023823105 0.17836285 0.007444758 0.06561028
0000e0 3a 0c 77 3d a2 e6 92 bd d0 35 a2 bd 88 92 af 3d
       0.060314395 -0.07172896 -0.0792042 0.085728705
0000f0 e0 9d 08 bd 0c 7f 03 bc b1 fe 81 3d dc 23 5f bd
       -0.033353686 -0.008025896 0.06347407 -0.054477558
000100 ea 98 af bd 59 71 42 3c 98 7b c0 3d 77 ff be bd
       -0.08574088 0.0118678445 0.09398574 -0.0932607
000110 24 19 8e 3d ce df f0 bc 14 3a 8a 3c 91 6a be bd
       0.06938389 -0.029403593 0.016873397 -0.0929767
000120 a8 21 0c 3e 5f 0f 6c bd 11 de ef b9 99 8b a0 bc
       0.13684714 -0.057631847 -0.00045751085 -0.019597815
000130 e9 67 a5 bd 3d bf f6 3d 17 10 eb 3d 87 0e 24 bd
       -0.0807646 0.120481946 0.11477678 -0.040052917
000140 b4 c7 2c 3d 14 6b 2c bd 20 e8 cb 3d 34 75 42 bd
       0.04218264 -0.042094305 0.09956384 -0.047475055
000150 af 3e a0 3d cc e7 2c 3d b7 50 48 bd d4 97 d0 bd
       0.07824456 0.042213246 -0.0489051 -0.10185209
000160 34 03 df 3d 34 a8 c6 bd fc 34 bf bd 30 e6 34 bd
       0.10889283 -0.09700051 -0.09336278 -0.044164836
000170 ab 37 08 3c 8e 19 c3 3d 24 86 71 3c d8 be 47 3d
       0.0083140535 0.095263585 0.014741454 0.048765987
000180 de 8a 2a 3d 10 d8 96 3b ab d3 be bd ef 76 f3 3d
       0.04163634 0.0046033934 -0.09317716 0.11887919
000190 67 aa f7 3d 62 ad cd 3d dd 87 0d 3d 5c 40 42 3d
       0.120930485 0.10042836 0.034553397 0.04742466
0001a0 06 d2 95 3c bf 3d a5 3d a1 f2 84 bd 86 d4 3c bc
       0.018288624 0.08068418 -0.0649159 -0.011525279
0001b0 7b 9a 9d bd cd 89 a3 3d 74 11 a2 bd 81 3f c9 3d
       -0.076954804 0.07985268 -0.07913485 0.098265655
0001c0 09 b9 85 3d 75 48 35 bc 73 6b f4 3d 6f 2b 14 be
       0.06529433 -0.011064638 0.11934557 -0.14469694
0001d0 de ea ed bd c9 14 19 3e e2 99 18 be d3 f0 9e bc
       -0.11617063 0.14949335 -0.14902452 -0.019401943
0001e0 ed 0d 88 3c 42 be 2a bd b3 7c fc 3d 88 9b 77 bc
       0.016608203 -0.04168535 0.12328472 -0.015112765
0001f0 7e a5 8d bc e2 80 76 3c b0 e1 04 3e 8d fc 61 3d
       -0.017290827 0.0150453765 0.12976718 0.05517249
000200 23 c3 10 3e c5 e8 d1 bd 82 72 3a bd 12 25 96 bd
       0.14136939 -0.102494754 -0.04551936 -0.07331289
000210 cd a3 6e bd b2 0f 0e 3e a5 71 ee 3d 71 16 2a 3c
       -0.05826168 0.13873175 0.1164277 0.010381327
000220 62 0e c0 bd c2 e2 11 3d fc 7d c8 bc ce ec af 3e
       -0.09377743 0.035616644 -0.024474137 0.34360355
000230 b3 86 bc bd 67 66 f5 3b bf 62 c5 3d 23 c1 b0 3d
       -0.09205379 0.007489014 0.09637975 0.08630588
000240 b0 b9 ad 3d 25 3b 8e 3c 15 be 57 bc 65 c5 94 bc
       0.08482683 0.017362187 -0.013167878 -0.018160531
000250 09 16 b7 bd 55 14 4d bd 33 de 43 bc 78 d5 e4 bd
       -0.0893975 -0.05006822 -0.011954832 -0.111735284
000260 4d de 20 bd d4 6b 96 3d 17 a3 89 3d 1f d3 2f be
       -0.039274503 0.07344785 0.0672056 -0.1717038
000270 50 2e fc bd 52 0d ab bd 8a 9a b3 bc 6a 18 25 3e
       -0.12313521 -0.0835215 -0.021924276 0.16122594
000280 c2 e6 5f be 7b 10 fc bd b4 77 c7 be e0 9f 84 3c
       -0.21865371 -0.12307831 -0.38958514 0.016189516
000290 9d 6b 74 bd 22 0a 97 3d e7 0a 1b be 8e 22 44 3d
       -0.05967294 0.073749796 -0.15140878 0.047884516
0002a0 3f a8 9c 3d 9a d7 0f 3d 91 64 0e bc 45 b0 0c be
       0.07649278 0.035117723 -0.008690969 -0.13739116
0002b0 e8 41 91 bd c3 39 3c 3d 34 b9 e5 3d 61 ed 2c bd
       -0.07092649 0.045953523 0.11216965 -0.04221857
0002c0 17 72 50 bd 35 d1 62 3b 08 3d 09 be 83 dc 87 3d
       -0.050890055 0.003460956 -0.13402188 0.06633856
0002d0 6a 01 78 3e bc ab b4 bd d9 71 28 bd 17 e6 ad 3d
       0.2421929 -0.08821818 -0.0411242 0.08491152
0002e0 cc 0b d2 3d d0 48 e4 3d 3d 09 df 3c 67 63 cc bd
       0.10256156 0.111467004 0.027226085 -0.09979897
0002f0 1a 76 b2 3d 33 1e 2e bd 9c c4 8c 3c 4f 1e a8 3c
       0.08713932 -0.04250927 0.017183594 0.020522265
000300 2d 5c 29 bd fc 91 8a 3d e5 b4 d8 bc 4c 77 9c bc
       -0.04134767 0.067661256 -0.026453445 -0.019099854
000310 85 08 84 3d 58 48 8a bd af 5a 31 3b 61 ee 2e 3d
       0.064469375 -0.0675208 0.0027062108 0.042707805
000320 e3 07 4e 3d 81 f4 3a bd 96 76 02 be bf 31 b1 3c
       0.05030049 -0.045643333 -0.1274055 0.021630166
000330 48 3c 2b 3e d0 89 4a bc 01 37 0d bd fa 04 97 bd
       0.16722214 -0.012361959 -0.034476284 -0.07373996
000340 b0 4d e1 bd 91 3c 3b 3d f8 93 14 be 45 2d 99 bd
       -0.11001146 0.045712058 -0.1450957 -0.074793376
000350 de 0e a0 3c d4 6e 5f 3d ce e6 05 3e f6 de b7 3d
       0.01953834 0.054549053 0.13076326 0.08978073
000360 75 25 54 3d 80 cf 84 3c 5c 5e 83 3d 04 c7 b1 3c
       0.051793534 0.016212225 0.06414482 0.021701343
000370 59 16 81 bd 59 f9 8a bd a4 6d a7 bd d1 55 1c bd
       -0.063030906 -0.067858405 -0.08175209 -0.03816778
000380 79 c9 e5 bc 06 79 88 3d d7 3e 34 3e d5 e9 af 3d
       -0.028050171 0.066637084 0.17602096 0.08589522
000390 a6 ff 10 bd 66 96 1c bd 24 0e a5 bc be 5f 94 3c
       -0.035400055 -0.03822937 -0.020148344 0.01811206
0003a0 fd a1 f9 bd d8 60 c2 3d 30 1a a6 3b c5 01 6e bd
       -0.121891 0.09491128 0.0050690398 -0.058107156
0003b0 cf 4a c3 3d 64 84 d0 bc 4c aa 50 bd 32 a7 ad bd
       0.09535753 -0.025453754 -0.050943658 -0.084791556
0003c0 84 45 df bc 46 57 cc bd e8 a2 d2 3c e3 61 96 3d
       -0.027254827 -0.099775836 0.025712445 0.07342889
0003d0 a2 2a ed 3c c4 63 0c bd bd 90 90 3e 59 e2 08 be
       0.028950993 -0.03427483 0.28235427 -0.13367595
0003e0 39 89 87 be 5f 0e 4f bd 8a 40 06 bd b6 34 9f 3c
       -0.2647188 -0.050550815 -0.032776393 0.019434314
0003f0 c3 a9 e4 bc 91 22 cf bd dc 57 90 bc ab ff 08 bd
       -0.02791298 -0.10114015 -0.01762002 -0.03344695

network.6.bias f4 [64]
000000 24 42 28 bd 6c eb d6 3b e6 b7 70 3e b4 25 62 be
       -0.0410787 0.006558826 0.23507652 -0.22084695
000010 4b b3 9a bd b9 d0 52 3e 1d 22 1c 3e 6d e5 4d bd
       -0.07553729 0.20587434 0.15247388 -0.050267626
000020 6b 8f 3b bb 8c a2 92 3c 90 d9 90 3d 90 97 a5 bc
       -0.002861942 0.017899774 0.07072747 -0.020213872
000030 97 aa 12 3e bc eb d0 bd 50 4a 7b bd 0b d0 91 3d
       0.14322887 -0.10201213 -0.061350167 0.07119759
000040 ad 8b c1 3e ec d5 35 bd cc 72 92 3e ff 61 6b 3e
       0.37801877 -0.044393465 0.28603208 0.22986601
000050 96 a9 e4 bd bf 63 71 3e be 28 be 3d 95 52 3e 3e
       -0.111651585 0.23573206 0.09285115 0.1858619
000060 93 82 95 bc 2a e8 81 3e e6 ad 23 3d 07 16 de bc
       -0.01825074 0.2537244 0.039960764 -0.027110113
000070 d0 fb 61 3c 8a 5f c8 bd 35 7f 6a 3e c3 19 b3 3c
       0.013792947 -0.09783848 0.22900088 0.02186287
000080 f0 2e 9f bd 7e f2 82 3e 7f 5b 83 bd bd 0b 28 3e
       -0.077726245 0.25575632 -0.06413936 0.16410728
000090 03 e2 0e 3e 7a d3 cb 3d fb 85 75 bd 01 03 77 3d
       0.13953404 0.09952445 -0.059942227 0.0603056
0000a0 cd f1 1e 3e ee ff 9c 3d fa 46 30 3e 54 9d f0 3d
       0.15521927 0.07666002 0.17214575 0.11748758
0000b0 e6 a4 d6 3d 60 ba c1 3e aa d9 ff 3c ef 40 c0 bd
       0.10480671 0.37837505 0.03123172 -0.09387385
0000c0 87 8c 05 bc c9 d2 34 3e e3 0c 17 3d 4e 5e 57 3e
       -0.00815118 0.17658533 0.036877524 0.21032068
0000d0 43 1d 68 bd f5 e2 40 3e 4c 4f bd 3c e0 73 38 3d
       -0.05666853 0.18836577 0.0231091 0.045032382
0000e0 aa 45 f4 bc bf ff 41 3e fc de 14 bc cc a0 20 3e
       -0.029818375 0.18945216 -0.009086367 0.15686339
0000f0 26 75 62 3e 5a 8d 2a 3b 35 00 a4 bc dd a4 f9 3d
       0.22115001 0.0026024194 -0.02001963 0.12189648

network.8.weight f4 [1, 64]
000000 34 1d 54 bd e2 bd 05 be 66 db 53 3e 2b ca 63 bd
       -0.051785663 -0.13060716 0.20689163 -0.055612724
000010 19 48 88 3d 8d c1 7b 3e c2 70 49 bd 94 9e be bd
       0.066543765 0.24585553 -0.0491798 -0.0930759
000020 5c cb 97 bb 6b 08 03 3e 7f 08 fc bd 96 71 cf bd
       -0.0046323966 0.1279618 -0.12306308 -0.10129087
000030 f0 a1 10 be 09 fd b5 3c bf 89 e0 3c ea 68 9c bd
       -0.14124274 0.022215383 0.027409432 -0.07637198
000040 03 41 b8 3e 00 28 a7 bd fa 2d 87 3e 5d ed 1d 3e
       0.359871 -0.08161926 0.26402265 0.15422578
000050 b4 e5 bb 3c b0 87 ed 3d 3c 1c f9 bd 08 28 0e 3e
       0.02293668 0.11598146 -0.121635884 0.13882458
000060 cc 0c a0 bd ef f8 a5 3e 63 23 d9 3d 2a 3e ae 3c
       -0.07814941 0.32416484 0.106024526 0.021269877
000070 2e 02 b8 3d 8b 37 48 bc 4b 67 0e 3e c2 d1 ce bd
       0.08984791 -0.012220274 0.1390659 -0.10098602
000080 8b e4 70 bd f3 26 34 3e 42 ee c5 3d d6 3c 4d 3e
       -0.058811706 0.17592983 0.09664585 0.20042738
000090 5e 77 0e be ec 77 f2 bc fa 65 08 be a5 bc 98 bd
       -0.13912722 -0.029598199 -0.13320151 -0.07457856
0000a0 13 a8 70 bd a3 66 b6 bd ef c2 99 3e 61 80 15 be
       -0.058754038 -0.08906295 0.30031535 -0.14599754
0000b0 55 df 0d be 37 66 88 3e 24 3a 17 bd 5e 0d 61 bd
       -0.13854726 0.26640484 -0.03692068 -0.05494439
0000c0 21 ab a1 bd 31 8d 51 3e 90 96 00 be 9b 5a ae 3e
       -0.078939684 0.20464016 -0.12557435 0.340535
0000d0 1b fc 85 bc e8 e5 91 3e 75 4e 01 be 6b 64 ab bd
       -0.016355565 0.28495717 -0.12627585 -0.083687626
0000e0 50 3c b8 bd 5b 26 52 3e 51 81 df bd db f6 37 3e
       -0.08995879 0.20522444 -0.10913337 0.17965262
0000f0 70 2a a8 3e aa 88 fb bd 11 57 af 3d 37 12 78 3e
       0.32844877 -0.12281926 0.085615285 0.24225698
