ModelWeights/HalfCheetah-v4-69420-/actor.weights.pt (torch, 60367 bytes, 11 tensors)

log_std f4 [6]
0	0xbf85ad30	-1.0443478
1	0xbf86f0be	-1.0542219
2	0xbf4ea6b8	-0.8072314
3	0xbf86c891	-1.0529958
4	0xbf70b636	-0.9402803
5	0xbf4cca6f	-0.7999639

network.0.weight f4 [64, 17]
0	0xbced9676	-0.02900241
1	0x3b87d017	0.0041446793
2	0xbeef5a71	-0.4674869
3	0x3f2ecc22	0.6828023
4	0xbe1f18d5	-0.15536816
5	0xbec51e13	-0.38499507
6	0xbe339f6d	-0.17541285
7	0xbe31f6ec	-0.1737935
8	0xbdfa90fb	-0.12234684
9	0xbe93127b	-0.28725037
10	0xbee61b64	-0.44942772
11	0xbd1db848	-0.038505822
12	0xbbafaeca	-0.0053614127
13	0x3da064f0	0.07831752
14	0x39860962	0.00025565462
15	0xbd1fb625	-0.038992066
16	0xbe01b124	-0.1266523
17	0x3ce512bd	0.027963037
18	0xbf2f61a8	-0.68508387
19	0x3eaf041d	0.34182826
20	0xbdccd6c1	-0.100018986
21	0xbdd624ab	-0.104562126
22	0x3e630a66	0.22171935
23	0x3e5db004	0.21649176
24	0x3d930d4f	0.07180273
25	0x3e85cee4	0.26134408
26	0x3e34cb27	0.17655621
27	0xbceb624a	-0.028733391
28	0x3d55b863	0.052177798
29	0x3e08e684	0.13369185
30	0x3e2b6384	0.16737181
31	0xbcecc209	-0.028901117
32	0x3db884c8	0.09009701
33	0xbd1fb782	-0.038993366
34	0x3e26b442	0.162797
35	0xbed4e35b	-0.41579708
36	0x3d6850af	0.05671757
37	0xbe397d5d	-0.18114229
38	0xbe1ea593	-0.15492849
39	0x3e853ac4	0.26021397
40	0x3e0e7271	0.13910843
41	0xbe10d2a5	-0.14142855
42	0x3e47fa6f	0.19529127
43	0xbbef55a0	-0.0073039085
44	0xbe9fa2dd	-0.31178942
45	0x3e42ca16	0.19022402
46	0x3e25963a	0.16170588
47	0xbdea0c99	-0.11428184
48	0x3e214b29	0.15751328
49	0x3dfede53	0.12444749
50	0xbe293489	-0.16523947
51	0xbc9fd7b8	-0.019512042
52	0xbe8614a7	-0.2618763
53	0x3e9fdca6	0.3122303
54	0x3e4ba1fd	0.19886012
55	0x3e65f04a	0.22454944
56	0x3e1fcd8e	0.15605757
57	0xbd593d8f	-0.053037222
58	0xbeb27251	-0.34852841
59	0x3d616130	0.055024326
60	0x3eb5436f	0.3540301
61	0x3e32cb15	0.17460282
62	0xbe2c7f2d	-0.16845389
63	0xbe83d1fc	-0.25746143
64	0x3dd6efdc	0.10494968
65	0xbc4b0c74	-0.012393106
66	0xbc3a4a1b	-0.011370207
67	0xbe35509c	-0.17706531
68	0x3eaf812d	0.3427824
69	0xbea99e95	-0.331288
70	0x3e22b591	0.15889575
71	0xbe53dff1	-0.20690896
72	0xbdd31362	-0.10306431
73	0x3e8690f8	0.26282477
74	0x3d1c0c24	0.038097516
75	0x3cf05c4b	0.029340884
76	0x3d0c39ba	0.03423474
77	0x3e8687dd	0.2627553
78	0xbdacfe02	-0.08446886
79	0xbe2335c5	-0.1593848
80	0xbdcfceda	-0.10146876
81	0x3dd28a21	0.10280252
82	0x3d98a12d	0.07452617
83	0x3e3c3962	0.18381265
84	0xbe1af0e9	-0.15130962
85	0xbdf1eca1	-0.118127115
86	0x3d5e105d	0.054214824
87	0xbf383256	-0.71951807
88	0x3f442747	0.7662243
89	0xbdd0f482	-0.10202886
90	0xbe9d019f	-0.306653
91	0xbe7feacb	-0.2499191
92	0x3e1cf3c5	0.15327366
93	0xbc30fd08	-0.010802515
94	0xbedc5a57	-0.43037674
95	0x3d17da26	0.037073277
96	0xbe64154f	-0.22273754
97	0xbe07c60e	-0.13259146
98	0xbdafe387	-0.08588319
99	0xbddc2a61	-0.10750271
100	0x3c6a3404	0.014294628
101	0xbdfaaa20	-0.1223948
102	0x3eb8fb91	0.3612943
103	0xbe985b84	-0.2975732
104	0xbe2c68c6	-0.16836843
105	0x3e5b4686	0.21413621
106	0x3c4dff16	0.012573024
107	0xbe9a99e8	-0.30195546
108	0x3d2433a6	0.04008832
109	0x3ddee29d	0.10883067
110	0xbe55492f	-0.20828699
111	0xbcb0926d	-0.021554196
112	0x3d599e54	0.05312951
113	0xbe408aff	-0.18803023
114	0xbe43eb4e	-0.1913273
115	0xbe20d34c	-0.15705603
116	0x3e07b1bd	0.13251396
117	0xbd82afb0	-0.06381166
118	0xbd546230	-0.05185145
119	0x3e650f40	0.22369099
120	0xbf16a65d	-0.588476
121	0xbd59200d	-0.05300908
122	0xbe8f8bc7	-0.2803633
123	0xbbeb3722	-0.007178203
124	0xbcfd7565	-0.030939767
125	0x3e3666cd	0.17812653
126	0x3c854e04	0.016272552
127	0x3dde9c97	0.10869711
128	0x3e50f2b1	0.2040508
129	0xbe4bf7df	-0.19918774
130	0x3d5ad0af	0.053421672
131	0x3ce17d6b	0.027525624
132	0x3dd87cc0	0.10570669
133	0xbb435827	-0.0029807182
134	0x3de232ba	0.110448316
135	0x3e5d8d38	0.21635902
136	0x3e8c5881	0.27411273
137	0xbdae2af4	-0.085042864
138	0x3e0a48b5	0.13504298
139	0xbef170ab	-0.4715627
140	0xbcbde9f1	-0.023182841
141	0x3e0b8383	0.13624386
142	0x3e36d496	0.17854533
143	0xbe678d17	-0.22612415
144	0xbe5090e6	-0.20367774
145	0xbd7518dc	-0.05983816
146	0xbd7ac476	-0.061222516
147	0x3db38017	0.087646656
148	0xbe0abaf3	-0.13547878
149	0xbe3eafba	-0.18621722
150	0x3db4c5f3	0.08826818
151	0xbe30d2c1	-0.17267896
152	0x3dd1606e	0.10223471
153	0x3e92b2cf	0.28652045
154	0xbe29eef9	-0.16595067
155	0x3efb23ba	0.49050695
156	0xbed35b38	-0.41280532
157	0xbe40fab6	-0.18845639
158	0xbd4f62a4	-0.05063118
159	0x3ea9a55f	0.3313398
160	0xbc90c3a3	-0.017671412
161	0xbb7b4184	-0.003833861
162	0x3e842246	0.258074
163	0xbd941a40	-0.07231569
164	0x3e2fa8c0	0.17154217
165	0x3b1649ae	0.00229321
166	0x3d85a05e	0.06524728
167	0xbd6b021e	-0.057375066
168	0xbe76d9b1	-0.2410648
169	0xbdc8b376	-0.097998545
170	0x3ea8be8b	0.32957873
171	0xbe26aa0f	-0.1627581
172	0x3d942d32	0.07235183
173	0x3e71efb9	0.23626603
174	0x3e21958a	0.15779701
175	0xbe6a81f2	-0.22901133
176	0xbe31d646	-0.17366895
177	0xbdb4a2c9	-0.08820111
178	0xbd33d276	-0.043901883
179	0xbdac0368	-0.08399087
180	0x3e089baf	0.13340639
181	0xbd9f3edd	-0.07775662
182	0x3d97dac8	0.07414776
183	0xbd7d197c	-0.061791882
184	0xbdb9b528	-0.09067756
185	0x3e520ae9	0.20511974
186	0x3e422e26	0.18962917
187	0xbde99df2	-0.11407079
188	0x3eb95b1a	0.36202317
189	0xbe0edd5f	-0.13951634
190	0x3d2a67a9	0.041602764
191	0xbe8c6e3d	-0.27427855
192	0xbed45870	-0.41473722
193	0xbe0be72e	-0.13662407
194	0xbd9b0070	-0.07568443
195	0x3e21e0f0	0.15808463
196	0xbed99dae	-0.42503113
197	0x3e00d939	0.12582864
198	0xbda17a2f	-0.07884633
199	0xbdcc3886	-0.099717185
200	0x3e26fcda	0.16307393
201	0xbe3fdf78	-0.1873759
202	0xbe1ddabd	-0.15415473
203	0x3c27ce31	0.010242031
204	0x3ebb7621	0.36613563
205	0xbec87b86	-0.3915674
206	0xbe0423ff	-0.12904356
207	0x3eb63468	0.35586858
208	0xbe36e661	-0.1786132
209	0x3e2bf931	0.16794278
210	0xbe6a7379	-0.22895612
211	0xbd3f4926	-0.04670062
212	0xbdeb599d	-0.11491702
213	0x3e454852	0.1926587
214	0xbe007c1c	-0.12547344
215	0x3e088ebe	0.13335702
216	0xbde65613	-0.11246886
217	0xbe027f5b	-0.12743895
218	0x3d5cb70f	0.053885516
219	0x3c623d29	0.013808527
220	0xbb85a4e5	-0.004078495
221	0x3ec3d9a6	0.3825199
222	0xbf247070	-0.64234066
223	0x3bb328d1	0.005467512
224	0x3e895517	0.2682273
225	0x3e6bac7a	0.23015013
226	0x3eb49198	0.3526733
227	0x3c8a6fdd	0.016899044
228	0x3e154878	0.14578426
229	0x3e38061f	0.17971085
230	0x3e253f2b	0.16137378
231	0xbd02e2a7	-0.031954434
232	0xbd9a81a8	-0.07544261
233	0xbda33f99	-0.07971115
234	0x3d2a1341	0.04152227
235	0x3e29fe4c	0.16600913
236	0x3ddb7041	0.1071477
237	0x3ddf3f55	0.109007515
238	0x3dd19e52	0.10235275
239	0xbe16eabd	-0.14737983
240	0xbcf4a487	-0.029863609
241	0x3d5df3c5	0.054187555
242	0xbd216d32	-0.039410777
243	0xbda929a7	-0.08259898
244	0xbd38e154	-0.045136765
245	0x3e904813	0.28179988
246	0xbceae410	-0.028673202
247	0x3e0f77c3	0.14010529
248	0x3e19840a	0.14991775
249	0xbdfd840e	-0.12378703
250	0x3e116e39	0.14202203
251	0x3b86647a	0.004101333
252	0xbd6bf38c	-0.05760531
253	0xbe0d737a	-0.13813582
254	0x3dc23907	0.09483533
255	0xbe5bd567	-0.21468125

network.0.bias f4 [64]
0	0xbd4e0eb5	-0.050306994
1	0x3ec2412e	0.37940353
2	0x3ea357f0	0.31903028
3	0xbdcf9e56	-0.10137622
4	0xbd2a6d72	-0.04160828
5	0xbe3121dc	-0.17298073
6	0xbe89a853	-0.26886234
7	0x3e6d99dc	0.23203224
8	0x3dca2970	0.09871185
9	0x3e24beaa	0.16088358
10	0xbe863c1a	-0.2621773
11	0xbdcd8f0e	-0.10037051
12	0x3dac0064	0.08398512
13	0x3eb3e90f	0.35138747
14	0xbb2ac893	-0.0026059493
15	0xbe23f533	-0.16011505
16	0xbc7d34f3	-0.015454519
17	0x3da45cda	0.080255225
18	0x3d3f69cb	0.04673175
19	0x3ea587ea	0.32330257
20	0x3e02819b	0.12744753
21	0xbb5f92d2	-0.0034114611
22	0xbdbb1237	-0.091343336
23	0x3ec3e902	0.38263708
24	0xbe0cc3ed	-0.13746615
25	0x3e168091	0.14697482
26	0x3b410513	0.0029452487
27	0x3dd5047e	0.104012474
28	0xbdfdf78e	-0.12400733
29	0x3e9f3cf5	0.31101194
30	0xbc38031f	-0.011231213
31	0xbdbb33e6	-0.09140758
32	0xbe956e23	-0.2918559
33	0xbbd35011	-0.0064487536
34	0x3d63524d	0.05549841
35	0x3e2be0ce	0.16784975
36	0x3e46bcff	0.19408034
37	0xbd61d6a2	-0.05513633
38	0x3d90074f	0.07032644
39	0xbdc4d2b6	-0.096105024
40	0x3e5e228d	0.21692868
41	0xbdcb774f	-0.09934866
42	0x3dabff18	0.08398265
43	0xbd59de05	-0.05319025
44	0xbe037de2	-0.12840989
45	0xbbcb9faf	-0.006214104
46	0x3ddf6d5b	0.1090953
47	0x3dabe1bb	0.08392664
48	0xbe91c109	-0.28467587
49	0xbe638b0f	-0.22221015
50	0xbe9caa9d	-0.30598918
51	0xbde410ec	-0.1113604
52	0x3e1925bb	0.149558
53	0xbe22b352	-0.15888718
54	0xbd0c37b5	-0.034232814
55	0x3e08096a	0.13284841
56	0x3e522922	0.20523503
57	0x3dba6a08	0.09102255
58	0xbe213500	-0.15742874
59	0x3de3e272	0.111271754
60	0xbe6a91e0	-0.2290721
61	0x3df11863	0.117722295
62	0x3d5a5c5b	0.053310733
63	0x3e2a9557	0.16658531

network.2.weight f4 [64, 64]
0	0xbd9774a3	-0.073952936
1	0x3dae2163	0.08502462
2	0x3d6f0929	0.058358345
3	0xbd8e4032	-0.06945838
4	0x3c8bdabe	0.017072078
5	0xbe274b7e	-0.16337392
6	0xbdab32ac	-0.08359274
7	0x3c97d71c	0.01853519
8	0x3d2af248	0.041734964
9	0xbe190c37	-0.14946066
10	0xbd2fe05d	-0.04293858
11	0xbdcd9d48	-0.10039765
12	0x3bcd8a49	0.0062725884
13	0xbe00567a	-0.12532988
14	0x3dabb714	0.08384529
15	0xbc77aa8c	-0.015116345
16	0x3e0466de	0.12929866
17	0x3de83827	0.11338835
18	0xbdb47431	-0.08811224
19	0xbd3c240d	-0.04593282
20	0x3e0e4f2a	0.13897386
21	0xbd5a418e	-0.053285174
22	0xbe10f0a6	-0.141543
23	0x3d31f439	0.0434458
24	0x3d3d0b5e	0.04615342
25	0x3d06f890	0.03295189
26	0xbd2ea244	-0.042635217
27	0x3e0cf266	0.13764343
28	0xbde10f28	-0.10989219
29	0xbddf5359	-0.10904569
30	0x3e0b196f	0.13583921
31	0x3d937042	0.07199146
32	0xbca572ba	-0.020196307
33	0xbd6059af	-0.05477303
34	0xbdbe2bf7	-0.092857294
35	0xbd9101e5	-0.070804395
36	0xbda614f8	-0.08109468
37	0x3d9ba773	0.07600298
38	0x3d21dc43	0.0395167
39	0x3dc3b28b	0.09555539
40	0x3d7aab30	0.061198413
41	0xbda6fb8f	-0.0815345
42	0x3d94df5c	0.07269165
43	0xbe0d87a3	-0.13821273
44	0x3cac81bf	0.021057962
45	0xbd71e49c	-0.05905591
46	0xbc8fe637	-0.01756583
47	0x3cced418	0.025247619
48	0x3d845202	0.06460954
49	0xbcd83867	-0.026394082
50	0x3d740bf4	0.059581712
51	0xbd93fb32	-0.07225646
52	0x3d84879f	0.0647118
53	0x3db6dd07	0.08928876
54	0xbe010bba	-0.1260213
55	0xbdef2895	-0.11677662
56	0xbdfaa296	-0.12238042
57	0xbda77e50	-0.08178389
58	0xbd989aeb	-0.07451423
59	0x3cd261d0	0.025681406
60	0xbe13c792	-0.14431599
61	0x3ba4d42d	0.005030176
62	0x3e2066f2	0.1566427
63	0x3d78b728	0.060721546
64	0x3d2d9cdb	0.042385917
65	0x3da24b11	0.07924474
66	0xbdc2e9e3	-0.095172666
67	0xbc2cfd24	-0.0105584
68	0x3db6a4ee	0.089181766
69	0xbdc86ab0	-0.09785974
70	0xbcb1d6a8	-0.021708801
71	0x3d212151	0.039338414
72	0x3c82dd13	0.015974557
73	0x3db52e6d	0.08846746
74	0xbce48d0f	-0.027899293
75	0x3d9dc174	0.07702914
76	0xbd442df3	-0.047895383
77	0xbcdae1ad	-0.026718939
78	0x3b94ff76	0.004547055
79	0xbe1e8f9a	-0.15484467
80	0x3d4a9604	0.049459472
81	0x3e4becaf	0.19914506
82	0xbdfb0222	-0.12256266
83	0x3d7be445	0.06149699
84	0x3c651145	0.013981168
85	0xbc95e7d9	-0.01829903
86	0xbd51d584	-0.051229015
87	0x3e1c77d0	0.1528008
88	0xbd7394b3	-0.059467983
89	0xbdac48ff	-0.084123604
90	0x3d043db9	0.032285426
91	0xbd9140af	-0.070924155
92	0x3e11f206	0.14252481
93	0x3ce2b10e	0.027672317
94	0x3b9b40e8	0.004737962
95	0xbda397bd	-0.07987926
96	0x3cec8c27	0.028875424
97	0xbc6b6698	-0.014367722
98	0x3ce961cc	0.028489016
99	0xbd01d9e4	-0.031701937
100	0x3d9cb39b	0.076514445
101	0x3dab137a	0.08353324
102	0xbba0989b	-0.0049010045
103	0xbd96bb81	-0.07359982
104	0xbcfdb983	-0.030972248
105	0x3cb25dee	0.021773305
106	0x3dfc0fde	0.12307714
107	0xbde3ef80	-0.111296654
108	0xbd7be206	-0.06149485
109	0x3d6f509f	0.058426496
110	0x3dd2dafb	0.102956735
111	0x3da2337c	0.07919976
112	0xbba80b2c	-0.005128285
113	0xbca67a76	-0.020322066
114	0x3db93c9d	0.09044764
115	0x3d876a65	0.0661209
116	0xbc9041b1	-0.01760945
117	0x3db65219	0.08902378
118	0x3c732dcb	0.014842461
119	0x3d4d3198	0.050096124
120	0xbd59e1e0	-0.053193927
121	0x3d0b5074	0.034012273
122	0x3dd1d401	0.10245515
123	0xbdd54a5e	-0.10414575
124	0xbe0c33b8	-0.13691604
125	0x3daef573	0.085429095
126	0xbe0b28df	-0.1358981
127	0xbd4e53cc	-0.050372884
128	0xbd07722b	-0.033067863
129	0x3e078f61	0.13238288
130	0xbd4242eb	-0.0474271
131	0x3dd8d4b5	0.10587446
132	0xbd898f39	-0.06716771
133	0x3d39f455	0.04539903
134	0xbd9fc44d	-0.07801113
135	0xbd0246f9	-0.031805966
136	0xbd13b462	-0.0360607
137	0xbc9cef34	-0.01915703
138	0x3c57b00c	0.013164531
139	0xbdaeff49	-0.085447855
140	0x3d3c71cc	0.046006963
141	0x3ddfb9d8	0.10924119
142	0x3d9d6e2b	0.076870285
143	0xbd27e6b3	-0.040991496
144	0xbd204de4	-0.039136782
145	0xbd156cec	-0.03648083
146	0xbcb3819a	-0.021912385
147	0x3e007c2b	0.12547366
148	0xbde9f776	-0.114241526
149	0x3dbb6869	0.09150774
150	0x3d85e810	0.06538403
151	0x3d895fb0	0.06707704
152	0xbc85ab8a	-0.016317148
153	0x3db502a8	0.08838397
154	0x3d9744bf	0.07386159
155	0x3dada4a5	0.08478669
156	0xbcb6b37f	-0.022302387
157	0xbd740b69	-0.059581194
158	0x3cd4f3d9	0.025995182
159	0xbde39e10	-0.111141324
160	0xbe4aa787	-0.19790469
161	0x3bf717f7	0.0075406986
162	0x3dc18c13	0.09450545
163	0x3d9846f1	0.07435406
164	0xbd14b35a	-0.036303855
165	0x3e225032	0.15850905
166	0x3d2430d0	0.040085614
167	0x3dec7dd1	0.11547435
168	0xbe170673	-0.14748554
169	0x3d8bfed7	0.06835716
170	0xbcc138e5	-0.0235867
171	0x39de16d4	0.00042360148
172	0xbd8d685c	-0.069046706
173	0xba357c48	-0.00069231214
174	0xbd9ed996	-0.07756345
175	0x3e333bcb	0.17503278
176	0x3c9886f0	0.01861903
177	0xbd106636	-0.035253726
178	0x3cdbed6d	0.026846612
179	0xbe0cc70f	-0.1374781
180	0xbe0c9e97	-0.13732372
181	0xbdfb06e5	-0.122571744
182	0x3dc93d95	0.09826199
183	0x3dc895a1	0.097941644
184	0x3db54c62	0.088524595
185	0x3d676edb	0.056502204
186	0x3d0ffbb1	0.03515214
187	0xbe048a74	-0.1294344
188	0xbdaab2e7	-0.08334904
189	0xbbe1d76e	-0.0068921363
190	0x3d896d96	0.06710355
191	0x3df90dfb	0.1216087
192	0xbda67441	-0.081276424
193	0xb91ec77f	-0.00015142372
194	0x3d8aab43	0.06770947
195	0xbced1d48	-0.028944626
196	0x3c2d7f6d	0.010589463
197	0xbd78690c	-0.060647056
198	0x3d34e33f	0.04416203
199	0x3d8b3d9e	0.06798862
200	0xbdd9b685	-0.10630516
201	0xbcb7ee36	-0.022452455
202	0x3dd42715	0.10359017
203	0x3d7e6380	0.06210661
204	0xbd172b27	-0.036906388
205	0xbd42bbbd	-0.047542322
206	0xbe1c2af9	-0.15250768
207	0x3dc15108	0.094392836
208	0xbd196311	-0.037447993
209	0x3d83be4e	0.06432782
210	0xbe109eeb	-0.14123122
211	0xbdc87369	-0.09787638
212	0x3d036c21	0.03208554
213	0x3dcc952e	0.09989391
214	0xbdea4c91	-0.11440385
215	0xbdae2913	-0.08503928
216	0xbd79049a	-0.060795404
217	0xbda8917a	-0.082308725
218	0x3d6b6490	0.05746895
219	0xbc9b155e	-0.018931087
220	0xbce01556	-0.027353924
221	0xbdb27cbe	-0.08715199
222	0xbda78374	-0.081793696
223	0xbc8f04f0	-0.01745841
224	0xbe1c92c7	-0.15290366
225	0x3d80c90c	0.06288347
226	0xbd31a50f	-0.043370303
227	0x3cafdc3f	0.021467326
228	0xbc865e4e	-0.01640239
229	0xbe0b01a9	-0.13574852
230	0xbde2f126	-0.11081152
231	0xbc20e495	-0.009820123
232	0xbd4e8c40	-0.05042672
233	0x3d197983	0.0374694
234	0xbde899db	-0.113574706
235	0x3d9bdccf	0.07610475
236	0xbd601267	-0.05470505
237	0x3dac7a4a	0.08421762
238	0x3a15ac97	0.0005709617
239	0xbddca8c6	-0.107743785
240	0xbdcf1355	-0.10111109
241	0xbd9f5b23	-0.07781055
242	0xbe05d63e	-0.13070008
243	0x3dc4faec	0.09618172
244	0xbe0615e9	-0.13094296
245	0xbd1dea46	-0.0385535
246	0xbd87c736	-0.06629793
247	0xbdc04238	-0.0938763
248	0x3dd014bd	0.101602055
249	0x3dadd650	0.084881425
250	0xbdcf7bb3	-0.10131016
251	0xbde1c743	-0.11024334
252	0xbce9229a	-0.028458882
253	0x3cc7a34e	0.024369862
254	0x3d87e31e	0.06635116
255	0xbd8acaad	-0.067769386

network.2.bias f4 [64]
0	0xbd24ea2a	-0.04026238
1	0x3d424b70	0.047435224
2	0x3d34fc8e	0.044186167
3	0x39ba0db6	0.000354869
4	0xbb9e0cef	-0.004823319
5	0xbe471c65	-0.19444425
6	0x3d50f1a4	0.051011696
7	0xbe098d9b	-0.13432924
8	0xbdca3dcd	-0.09875069
9	0xbe24312c	-0.16034383
10	0xbda97ec0	-0.08276129
11	0x3d2660aa	0.04061953
12	0xbcae16a8	-0.021251038
13	0x3e0354f7	0.1282538
14	0x3d688a1d	0.05677234
15	0xbd2985e6	-0.04138746
16	0xbd5dddfa	-0.05416677
17	0x3e38bfe9	0.18041958
18	0x3d85a503	0.06525614
19	0x3cd01487	0.025400413
20	0x3c2afb5d	0.010435906
21	0xbde0f5c9	-0.1098438
22	0xbdf3d5e1	-0.119060285
23	0xbb609703	-0.0034269697
24	0xbca3d876	-0.020000678
25	0xbd120e5c	-0.035658225
26	0x3e141c54	0.14463931
27	0x3e2dddbe	0.16979119
28	0x3dfb2196	0.122622654
29	0x3d95e78a	0.07319553
30	0xbe108b86	-0.14115724
31	0x3d9532d2	0.07285084
32	0xbe0ff4e7	-0.14058267
33	0x3dc1dffa	0.09466548
34	0xbc84b894	-0.016201295
35	0x3d9ac0f9	0.07556338
36	0xbd99b2a3	-0.075047754
37	0x3cd818c8	0.026379004
38	0xbc1bc98c	-0.009508502
39	0x3d3132ea	0.043261446
40	0xbd3e043c	-0.046390757
41	0x3cefe0bf	0.029281972
42	0xbe09205c	-0.1339125
43	0x3cf1fa88	0.029538408
44	0x3d56b4bb	0.05241845
45	0xbddec799	-0.10877914
46	0x3e70981b	0.23495524
47	0xbd373e55	-0.04473718
48	0xbd47e7fc	-0.048805222
49	0xbd51b8c5	-0.0512016
50	0x3d82f122	0.06393649
51	0x3d86a931	0.065752394
52	0xbdd704f3	-0.10498991
53	0xbdedbac7	-0.116078906
54	0xbcdcb54b	-0.026941916
55	0xbe190802	-0.14944461
56	0x3d1febc3	0.0390432
57	0xbe2d7c11	-0.16941859
58	0xbd6ab7af	-0.05730408
59	0xbca12c38	-0.019674405
60	0x3c2dc703	0.01060653
61	0x3b5c97a7	0.0033659728
62	0x3df97015	0.12179581
63	0x3d5d8121	0.054078225

network.4.weight f4 [64, 64]
0	0xbbfd6f82	-0.00773424
1	0x3e06919b	0.13141482
2	0x3e33c824	0.17556816
3	0xbd409e19	-0.047025774
4	0xbdbb186d	-0.09135518
5	0xbe4b4cc6	-0.19853505
6	0x3d1f86f3	0.038947057
7	0x3d538a66	0.05164566
8	0x3db1af32	0.08675994
9	0xbd84e7ac	-0.064895004
10	0x3c37fc8c	0.011229645
11	0xbd12dd43	-0.035855543
12	0xbd654541	-0.05597425
13	0x3d1bc2d2	0.038027592
14	0xbda42ca4	-0.08016327
15	0xbd4e1149	-0.050309453
16	0xbd985612	-0.074382916
17	0x3db25752	0.08708061
18	0x3ad33cfc	0.0016116197
19	0x3c655517	0.013997338
20	0xbde3effc	-0.11129758
21	0xbc860de2	-0.016364042
22	0xbe2ee2d4	-0.17078716
23	0x3becdc02	0.0072283754
24	0x3db8d5d7	0.09025162
25	0x3db3d81d	0.08781455
26	0x3c00e45f	0.007866948
27	0x3d5b00d0	0.05346757
28	0xbc96fb76	-0.018430453
29	0xbe19e46b	-0.15028541
30	0xbc95b4e4	-0.018274732
31	0x3d9258a6	0.071458146
32	0xbd855da1	-0.06511999
33	0x3da9f78a	0.082991675
34	0x3dd44b68	0.10365945
35	0x3e3c70a8	0.1840235
36	0xbdba2980	-0.09089947
37	0xbd71950d	-0.058980037
38	0x3da9992c	0.08281168
39	0xbdb3ee34	-0.08785668
40	0xbda1cf20	-0.07900834
41	0x3e2e45b6	0.1701878
42	0x3df6703b	0.12033125
43	0xbbd51a1d	-0.006503357
44	0xbc7c767f	-0.015409111
45	0xbd9a72dd	-0.0754144
46	0x3e1eb9cd	0.15500565
47	0xbe0870f6	-0.13324341
48	0x3c9152d1	0.017739685
49	0x3c689d22	0.01419762
50	0x3d8a28e4	0.067460805
51	0xbca7012b	-0.0203863
52	0xbde24da4	-0.11049965
53	0x3d7ac4b3	0.061222743
54	0xbda62073	-0.08111658
55	0xbc50ae01	-0.012736798
56	0xbd888892	-0.06666674
57	0x3d7551b9	0.05989239
58	0x3e0eb34f	0.13935588
59	0xbd2fd940	-0.042931795
60	0x3bff6b50	0.007794775
61	0x3d826ce7	0.06368428
62	0xbdcfa312	-0.10138525
63	0x3dc78b58	0.097433746
64	0xbd3b03c0	-0.045657873
65	0xbe0c1d59	-0.1368307
66	0xbd8efbae	-0.06981598
67	0x3debbdd8	0.11510819
68	0x3d5e4c75	0.054272134
69	0x3d70600b	0.058685344
70	0xbb631cfb	-0.0034654725
71	0xbd019f07	-0.0316458
72	0xbdd71d98	-0.105036914
73	0xbde99e5c	-0.11407158
74	0xbdbc7f33	-0.09203949
75	0xbd300ab7	-0.04297897
76	0xbda87d8c	-0.08227071
77	0x3ca56c77	0.020193322
78	0xbe335036	-0.17511067
79	0xbd727327	-0.05919185
80	0x3de01d39	0.10943074
81	0xbd9fba6f	-0.07799231
82	0xbd9559bb	-0.07292505
83	0x3b90461a	0.004402888
84	0x3d880392	0.06641306
85	0x3d07d457	0.033161487
86	0xbdf4c947	-0.11952453
87	0x3d0420ad	0.032257725
88	0x3ccb2c16	0.024801295
89	0x3dc89d25	0.09795598
90	0x3dd11748	0.10209519
91	0x3d07fb65	0.033198733
92	0xbd221020	-0.03956616
93	0xbd82efb8	-0.06393379
94	0xbda0c85d	-0.07850716
95	0x3cd9caf7	0.026586039
96	0xbe42cc5d	-0.19023271
97	0x3deaeeaa	0.11471303
98	0xbe22c67d	-0.1589603
99	0x3d304214	0.043031767
100	0x3ca160f5	0.019699553
101	0xbc959f88	-0.018264547
102	0xbdc1d797	-0.094649486
103	0x3d97d1b2	0.07413043
104	0x3cfd8acc	0.030949973
105	0xbd3b5a91	-0.045740668
106	0xbd849c40	-0.06475115
107	0xbe0d2a95	-0.13785775
108	0x3dbcb247	0.09213691
109	0xb9bd6f17	-0.00036131658
110	0x3daf95cb	0.085734926
111	0xbca35dea	-0.019942243
112	0xbd1302b4	-0.03589125
113	0x3db3714b	0.08761843
114	0x3bf47b0b	0.007460957
115	0xbe00a733	-0.12563781
116	0x3ca32872	0.019916747
117	0x3d2da32b	0.042391937
118	0xbdda3011	-0.10653699
119	0x3d4236b8	0.047415465
120	0x3daba0f9	0.083803125
121	0x3d713ca7	0.058895733
122	0xbd5f339a	-0.05449257
123	0x3d2742cb	0.040835183
124	0xbc84c2ae	-0.016206112
125	0xbd84d59e	-0.06486057
126	0xbba18bd3	-0.0049299984
127	0xbcd3ac66	-0.025839042
128	0xbbee24b5	-0.0072675594
129	0x3c4ae205	0.012382989
130	0xbdbc5314	-0.091955334
131	0xbdfeac4e	-0.12435208
132	0x3c8e170f	0.01734498
133	0xbe181cc2	-0.1485472
134	0xbdedd704	-0.116132766
135	0xbd5d7da0	-0.054074883
136	0x3dd06fd5	0.1017758
137	0xbd1fde4b	-0.039030354
138	0x3d8dfac1	0.06932593
139	0xbc39acf8	-0.011332743
140	0x3c66d8fb	0.014089818
141	0x3d87de21	0.066341646
142	0xbc4449d5	-0.011980494
143	0x3b7f3c07	0.0038945691
144	0xbc233aee	-0.00996278
145	0xbd5bca18	-0.05365953
146	0xbdc8edfd	-0.09811018
147	0x3ceee831	0.029163452
148	0x3d625966	0.05526104
149	0x3ce1e2c9	0.02757396
150	0xbd3798ab	-0.04482333
151	0xbdccead1	-0.10005725
152	0x3d03c51b	0.032170396
153	0xbdda18e7	-0.10649281
154	0x3c98a96c	0.018635474
155	0xbdb83cc6	-0.089959666
156	0xbd567a6b	-0.05236284
157	0x3dca805c	0.09887764
158	0x3da19bde	0.078910574
159	0xbdc5a7c4	-0.096511394
160	0xbdd54e5f	-0.10415339
161	0x3d9aba63	0.07555082
162	0xbd11fabc	-0.03563951
163	0xbd792e3f	-0.06083512
164	0x3d65b50f	0.056080874
165	0xbda806d2	-0.08204426
166	0xbe059cb4	-0.13048059
167	0x3c5e2960	0.013559669
168	0x3d9200ec	0.07129082
169	0x3d17f0bf	0.037094828
170	0xbe04d681	-0.12972452
171	0xbde5c47e	-0.112191185
172	0xbdd6474e	-0.10462819
173	0x3d95e23d	0.07318542
174	0xbcc3911e	-0.023872908
175	0xbe179dba	-0.14806262
176	0x3c54ec3d	0.012995777
177	0xbdf106de	-0.11768888
178	0xbcd4396b	-0.025906285
179	0x3dda1de6	0.10650234
180	0xbe2e2663	-0.17006831
181	0x3dea7e56	0.11449878
182	0x3d301e36	0.04299756
183	0xbd2ae2e3	-0.041720282
184	0xbca8af73	-0.020591473
185	0xbe0a3b9e	-0.13499305
186	0x3db29933	0.08720627
187	0x3de66335	0.11249391
188	0x3c7d8de3	0.015475723
189	0x3d36da36	0.044641696
190	0x3d4361c1	0.047700647
191	0x3d114453	0.03546555
192	0x3d92f44e	0.07175504
193	0xbe03d14c	-0.12872809
194	0x3d0934f2	0.03349776
195	0xbd476d0c	-0.04868798
196	0x3c4256a2	0.011861475
197	0xbdf40534	-0.11915055
198	0xbd45bf09	-0.04827789
199	0xbc27c217	-0.010239146
200	0xbd3cc878	-0.04608962
201	0xbc91b582	-0.017786745
202	0xbdeb5f2b	-0.11492761
203	0x3cff2150	0.031143814
204	0xbdf4ab42	-0.11946727
205	0x3d8f7f2c	0.07006678
206	0xbe538456	-0.20655951
207	0xbd22bb8d	-0.039729644
208	0x3d9eef2a	0.07760461
209	0xbcd8100c	-0.02637484
210	0x3d26f326	0.04075923
211	0xbdae26fc	-0.085035294
212	0xbdce489d	-0.10072444
213	0x3da91215	0.08255402
214	0xbd4278ed	-0.047478605
215	0xbd2a77ea	-0.041618265
216	0x3dfb6216	0.12274568
217	0xbe0f98e5	-0.14023168
218	0xbdd266a9	-0.10273487
219	0xbcd8e3de	-0.026475843
220	0x3d277f4b	0.04089288
221	0x3daa4bc9	0.08315236
222	0xbc291d74	-0.010321964
223	0xbd53471b	-0.051581483
224	0xbd8bd8b0	-0.06828439
225	0xbdd1dbda	-0.102470115
226	0xbe0ffc35	-0.14061053
227	0x3bd4d7dd	0.0064954595
228	0xbd4bb974	-0.04973741
229	0xbde7e024	-0.11322048
230	0x3d2a37a4	0.04155697
231	0x3d0a6371	0.03378624
232	0x3c9ad603	0.018900877
233	0xbd0ef564	-0.03490199
234	0x3db7e394	0.08978954
235	0x3dabc1a3	0.08386543
236	0x3d49139f	0.049090978
237	0x3d0b9d90	0.03408581
238	0x3de45a8a	0.111500815
239	0xbd00fd8b	-0.031491797
240	0x3d25f4b2	0.040516563
241	0xbdb57112	-0.08859457
242	0xbd36d83a	-0.044639803
243	0xbd178bc7	-0.036998536
244	0xbdc7566b	-0.0973328
245	0x3c63413d	0.0138705345
246	0x3d965a72	0.0734147
247	0x3da4b704	0.0804272
248	0x3da95ffa	0.08270259
249	0x3dca9076	0.09890835
250	0x3d6dbea8	0.058043152
251	0x3dd87bc0	0.105704784
252	0x3c2fb7d7	0.010724983
253	0x3ce1c974	0.02756188
254	0x3d4c5c65	0.0498928
255	0x3da8513d	0.0821862

network.4.bias f4 [64]
0	0x3e1391bd	0.14411063
1	0xbdadff05	-0.08495907
2	0xbe1d5a00	-0.15366364
3	0xbe0f24d6	-0.13978896
4	0xbc843681	-0.01613927
5	0x3d58d417	0.05293664
6	0xbd7c2996	-0.061563097
7	0x3e54cd55	0.20781453
8	0xbba393d4	-0.0049919877
9	0x3df37964	0.11888388
10	0xbd99cb45	-0.07509474
11	0x3d1c57c3	0.038169634
12	0xbceae0eb	-0.028671702
13	0x3df665f6	0.12031166
14	0x3d68b46b	0.056812685
15	0x3ddfc6cb	0.109265886
16	0xbdee1264	-0.116246015
17	0xbbb3c752	-0.0054864073
18	0x3e104791	0.140898
19	0x3e036db2	0.12834814
20	0x3da9d52b	0.08292612
21	0xbd4fb3d9	-0.050708625
22	0x3e1a613d	0.15076156
23	0x3db376be	0.08762883
24	0xbcbd4fbb	-0.023109308
25	0x3e34539b	0.17610018
26	0x3de7efe5	0.11325053
27	0x3dd3e52c	0.103464454
28	0xbdf658dd	-0.12028668
29	0xbe0a7734	-0.13522035
30	0xbc7f5ab8	-0.015585594
31	0x3e54bdc2	0.20775512
32	0x3c7044bf	0.014664828
33	0xbd1ae8cd	-0.037819672
34	0x3e59e7ca	0.21279827
35	0x3d3c9000	0.046035767
36	0x3e3c2324	0.1837278
37	0x3d2c1a1c	0.042017087
38	0xbd802b5c	-0.0625827
39	0x3e18817b	0.14893143
40	0xbdd4e9ca	-0.10396154
41	0xbd282418	-0.041050047
42	0x3e8f4f26	0.27990073
43	0xbddd5863	-0.10807874
44	0x3e046d1e	0.1293225
45	0xbd189489	-0.03725103
46	0x3e69cd91	0.22832324
47	0x3de2aeb4	0.11068478
48	0x3bda2f41	0.006658465
49	0x3cc5ee9b	0.024161628
50	0x3d8d1504	0.06888774
51	0xbc90df19	-0.017684506
52	0xbd94b548	-0.07261139
53	0x3df78412	0.12085737
54	0x3e466db4	0.19377786
55	0x3e2ea687	0.17055713
56	0xbbc06367	-0.0058712247
57	0xbc79f7ef	-0.015256866
58	0xbc9cee3c	-0.019156568
59	0x3bd64848	0.0065393783
60	0xbc10f8dc	-0.008848395
61	0xbe2748d3	-0.16336374
62	0xbcd81dc3	-0.026381379
63	0xbdc78d7d	-0.097437836

network.6.weight f4 [64, 64]
0	0x3e263b86	0.16233644
1	0x3db59140	0.08865595
2	0xbdb76109	-0.08954055
3	0xbcaa4fdf	-0.020790039
4	0x3c29972d	0.0103509845
5	0x3cbef20a	0.023308773
6	0x3d56a64b	0.052404683
7	0x3dc1955d	0.09452317
8	0xbca18ac2	-0.019719485
9	0x3c953ecb	0.018218419
10	0xbdd27a60	-0.102772474
11	0xbce44dbd	-0.0278691
12	0xbe3b9c13	-0.18321256
13	0x3dcb2eb0	0.09921014
14	0x3de7ced5	0.11318747
15	0x3d190316	0.03735646
16	0xbdf7fda6	-0.121089265
17	0xbd775b24	-0.060389653
18	0x3d93f348	0.072241366
19	0x3c166565	0.009179448
20	0x3d92cdf2	0.07168187
21	0x3de7b601	0.11314011
22	0xbde1ebe0	-0.11031318
23	0xbd5db041	-0.054123167
24	0xbd0ef1f8	-0.034898728
25	0xbca04683	-0.019564873
26	0x3c6eff0e	0.014587177
27	0x3e11fd9c	0.142569
28	0x3e016492	0.12636021
29	0xbd8c39ad	-0.06846938
30	0xbd878ae8	-0.06618291
31	0x3c069d99	0.008216285
32	0x3d759713	0.05995853
33	0x3acdb93f	0.0015695466
34	0xbdd9ea4a	-0.1064039
35	0xbc40e169	-0.011772492
36	0x3e16e2b6	0.14734921
37	0x3d4433f2	0.0479011
38	0xbd9ccb68	-0.07655984
39	0x3dddeaad	0.108357765
40	0xbdf39855	-0.118942894
41	0x3db5c5b1	0.08875597
42	0x3d6cd2af	0.05781811
43	0x39dcc26b	0.00042106523
44	0xbe2d9b78	-0.16953838
45	0xbdcc9651	-0.09989608
46	0xbd44bf9f	-0.048034307
47	0x3c838963	0.016056722
48	0xbde33a2c	-0.1109508
49	0x3d16584d	0.036705304
50	0x3d84a81e	0.06477378
51	0x3c3dd970	0.011587486
52	0x3e138d38	0.1440934
53	0x3dbd3d91	0.092402585
54	0xbc388e04	-0.011264328
55	0x3dafaec4	0.08578256
56	0xbdeb2d8e	-0.11483298
57	0xbb00f500	-0.0019677281
58	0x3da4b6db	0.080426894
59	0xbdb19cfb	-0.0867252
60	0x3db1bdfe	0.08678816
61	0x3d9183b1	0.07105196
62	0xbd8d3d76	-0.06896488
63	0xbdb360b4	-0.08758679
64	0xbdb00fcf	-0.08596765
65	0xbd67ed9b	-0.056623083
66	0x3c6c215f	0.014412253
67	0x3d13d92e	0.03609579
68	0x3d971e14	0.07378784
69	0x3dae8689	0.08521754
70	0x3d6c99ed	0.057763983
71	0xbdebdb1c	-0.11516401
72	0xbd9deca1	-0.07711149
73	0xbdae325b	-0.08505698
74	0xbd936765	-0.07197455
75	0xbda4eb60	-0.08052707
76	0xbdca80e4	-0.09887865
77	0x3dd72ebb	0.1050696
78	0xbd91392e	-0.07090984
79	0xbe099f03	-0.13439564
80	0xbde8d32f	-0.11368405
81	0x3d66896b	0.056283396
82	0xbd2f9420	-0.042865872
83	0x3dd02ee2	0.10165192
84	0xbcd32560	-0.025774658
85	0xbd6dbe1b	-0.058042627
86	0x3d893f23	0.067014955
87	0xbdafca6c	-0.08583531
88	0xbde73938	-0.112902105
89	0xbc86d272	-0.01645777
90	0xbdc738f0	-0.09727657
91	0xbb9604a2	-0.004578189
92	0x3cae2293	0.02125672
93	0xbda627f2	-0.08113088
94	0xbbe3d95c	-0.0069534015
95	0x3d426489	0.04745916
96	0xbd8f87d8	-0.07008332
97	0xbce05f08	-0.027389064
98	0x3c959026	0.018257212
99	0xbd7cec7e	-0.061748974
100	0x3d21dae3	0.039515387
101	0xbdbc2d0f	-0.09188282
102	0xbbdfb70a	-0.00682724
103	0x3d014b6b	0.031566065
104	0x3d8ed05b	0.069733344
105	0xbe11801e	-0.14209029
106	0xbd292def	-0.04130357
107	0xbd8cd98b	-0.068774305
108	0xbd87d968	-0.06633264
109	0xbdf15054	-0.117828995
110	0xbd1fa812	-0.038978644
111	0x3d01dbaf	0.031703647
112	0xbd23c27e	-0.039980404
113	0xbb8dce89	-0.0043275994
114	0xbcce939c	-0.02521687
115	0x3d6b9ada	0.057520725
116	0xbde3fc1f	-0.11132073
117	0xbdc3c727	-0.0955947
118	0xbd86ea01	-0.065876015
119	0x3d543a10	0.051813185
120	0xbd898807	-0.06715398
121	0xbbb2e0cf	-0.005458928
122	0xbde89f98	-0.11358565
123	0x3c85e8c8	0.01634635
124	0x3dbe427a	0.09290023
125	0x3c7df8dd	0.015501228
126	0xbdd734af	-0.105080955
127	0xbd4e4970	-0.050363004
128	0xbde7a720	-0.113111734
129	0x3cb4e070	0.022079676
130	0x3d344b89	0.04401735
131	0x3d82dca7	0.06389742
132	0xbe1cd5b2	-0.15315893
133	0xbdd6c19f	-0.10486149
134	0xbdd315b1	-0.10306872
135	0x3d0f15d9	0.034932945
136	0xba35efe6	-0.00069403497
137	0x3daa9fe1	0.08331276
138	0xbd4ae2de	-0.049532764
139	0xbdaeb910	-0.085313916
140	0x3dc342f4	0.09534255
141	0x3d9417db	0.072311126
142	0xbce0309f	-0.027366934
143	0xbc2dbfda	-0.010604823
144	0xbda4e994	-0.08052364
145	0xbd2938b9	-0.04131386
146	0xbc4fde14	-0.012687225
147	0xbd67d3d1	-0.05659849
148	0x3deaf505	0.11472515
149	0x3dfc0133	0.12304916
150	0xbcb50256	-0.02209584
151	0x3d892111	0.0669576
152	0x3daad439	0.083412595
153	0x3dce08a2	0.1006024
154	0x3df8f3e7	0.12155896
155	0x3d84a9ea	0.06477721
156	0x3e0ba631	0.13637616
157	0x3d8cec37	0.06880992
158	0xbe151a04	-0.14560705
159	0x3c8f3318	0.017480418
160	0xbdcead86	-0.10091691
161	0x3dd25a9a	0.10271187
162	0x3e0959c9	0.13413157
163	0xbcc837c1	-0.024440648
164	0x3d3fb264	0.046800986
165	0x3d85bb5a	0.06529875
166	0xbdc7c296	-0.09753911
167	0xbe0dd91d	-0.13852353
168	0xbe04588b	-0.12924401
169	0x3d18c60b	0.037298243
170	0xbd96eec2	-0.07369758
171	0x3db6a903	0.08918955
172	0x3d7acc65	0.061230082
173	0xbca79f7f	-0.020461796
174	0x3d9c8e60	0.076443434
175	0xbcf82827	-0.030292584
176	0x3de9da8c	0.11418638
177	0x3cbd13ee	0.023080792
178	0x3d413008	0.047164947
179	0x3d7dbb56	0.061946236
180	0xbdf85b4e	-0.1212679
181	0xbe0a62d3	-0.13514261
182	0xbd929819	-0.071579166
183	0xbd503c3b	-0.05083869
184	0x3d2c268e	0.042028956
185	0x3d505727	0.050864365
186	0x3dc8707b	0.09787079
187	0x3e298fe5	0.16558798
188	0x3da4b3cf	0.08042108
189	0x3d9408be	0.0722823
190	0x3d62be8f	0.055357512
191	0xbc615cb5	-0.013755013
192	0x3d9713fc	0.073768586
193	0xbd58dc90	-0.05294472
194	0xbcf55df8	-0.029952034
195	0x3dbb148a	0.09134777
196	0x3d166ca4	0.0367247
197	0x3d56cb84	0.05244018
198	0x3d224fec	0.039627
199	0xbdc1191f	-0.094286196
200	0xbcd3a563	-0.025835698
201	0xbdd60e79	-0.10451979
202	0x3d9f8f30	0.07790983
203	0x3ca79300	0.020455837
204	0xbdde939e	-0.108679995
205	0xbd5adf68	-0.053435713
206	0x3d445aac	0.047938034
207	0x3cca1734	0.024669267
208	0xbbeabc00	-0.0071635246
209	0x3dd5272a	0.104078606
210	0x3d98d3ab	0.074622475
211	0xbce1f201	-0.027581217
212	0xbd2f9d27	-0.04287448
213	0x3ce74530	0.028231233
214	0xbdbaa1bf	-0.09112882
215	0xbc2bcf6b	-0.010486464
216	0xbd7574d0	-0.059925854
217	0xbdcda8e2	-0.100419775
218	0x3cc1b466	0.023645591
219	0xbd8826e8	-0.06648046
220	0x3bc560ed	0.0060235173
221	0xbbc5ee00	-0.0060403347
222	0xbdd3d5cd	-0.10343514
223	0xbd8eb072	-0.06967248
224	0xbe10922e	-0.14118263
225	0x38b0b800	8.426607e-05
226	0x3aebce80	0.0017990619
227	0xbd2fb18d	-0.042893935
228	0xbdcc6839	-0.099808164
229	0x3bc0b0a7	0.0058804336
230	0x3d31ee59	0.043440197
231	0xbde6589b	-0.11247369
232	0xbdafcc3c	-0.085838765
233	0x3d899622	0.06718089
234	0xbd9c2830	-0.07624853
235	0x3d3a737c	0.04552029
236	0xbd9579ef	-0.072986476
237	0x3d3d9ad4	0.046290234
238	0xbdd1ea1e	-0.102497324
239	0xbe0927d1	-0.13394095
240	0xbd5a6e58	-0.05332789
241	0xbdc666c9	-0.096875735
242	0x3da0fed4	0.078611046
243	0xbda70e32	-0.081570044
244	0xbdb55268	-0.08853608
245	0xbdf0a665	-0.11750487
246	0xbdb70fd0	-0.08938563
247	0xbe1a6d13	-0.15080671
248	0xbda24890	-0.079239964
249	0x3d3d46bc	0.046210036
250	0x3cfbdca0	0.03074485
251	0x3d9333ee	0.07187639
252	0x3cb8d151	0.022560747
253	0xbde7e226	-0.11322431
254	0x3d6bd930	0.057580173
255	0xbdc88ddc	-0.097926825

network.6.bias f4 [64]
0	0x3c3406fb	0.010987992
1	0xbdd6a901	-0.10481454
2	0x3e123e62	0.1428161
3	0x3c62f46b	0.013852219
4	0x3e62ce13	0.22148924
5	0xbe1637b0	-0.1466968
6	0x3e15b87e	0.1462116
7	0xbd39355e	-0.04521691
8	0xbd4a5a45	-0.049402494
9	0xbc30a377	-0.010781161
10	0x3e0ec4d5	0.13942273
11	0xbe20c1ac	-0.1569888
12	0xbd80be6a	-0.062863186
13	0x3cb88204	0.022522934
14	0x3ccb8c47	0.024847163
15	0x3dca3c94	0.098748356
16	0x3dab15f3	0.08353796
17	0x3d5e7378	0.05430934
18	0x3e2f4f07	0.1711999
19	0x3e230abc	0.15922064
20	0x3d22f15b	0.039780956
21	0xbc4512f8	-0.012028448
22	0x3d9f0012	0.07763685
23	0xbd3f994d	-0.04677706
24	0x3c6ebf7d	0.014572022
25	0x3e6f6726	0.23379192
26	0x3daa578c	0.083174795
27	0x3e6c4cd0	0.23076177
28	0xbcfabe5f	-0.030608354
29	0x3c89a32d	0.016801441
30	0x3d943569	0.0723675
31	0x3e118fac	0.14214963
32	0x3c2d92cd	0.010594082
33	0xbbb5e33f	-0.0055507715
34	0xbcccda52	-0.025006447
35	0xbe1abfa1	-0.15112163
36	0x3dc19c93	0.09453692
37	0xbdad39a6	-0.08458261
38	0xbc9a10a1	-0.018806757
39	0x3b860120	0.0040894896
40	0x3e39785a	0.18112317
41	0xbba57441	-0.005049259
42	0xbe34358f	-0.17598556
43	0x3df0f225	0.117649354
44	0xbd1c4cc6	-0.038159154
45	0x3dc61910	0.09672749
46	0x3d9b8dbf	0.07595395
47	0x3db721bc	0.08941981
48	0xbd142102	-0.03616429
49	0x3e4b2831	0.1983955
50	0x3de43fba	0.111449674
51	0x3d95d988	0.073168814
52	0xbe264aaf	-0.16239427
53	0xbcbaaaad	-0.022786463
54	0x3da2b873	0.07945337
55	0x3cb6aeb3	0.0223001
56	0xbdb8f2c8	-0.09030682
57	0xbdde9b25	-0.10869435
58	0x3dfa3f57	0.12219112
59	0xbd820e2c	-0.06350359
60	0x3d1cbc58	0.038265556
61	0x3e3b81ea	0.18311277
62	0xbda721cf	-0.08160745
63	0xbd8eeed3	-0.06979146

network.8.weight f4 [6, 64]
0	0x3e05d9a6	0.13071308
1	0xbbfc52ca	-0.007700299
2	0xbdd2cefd	-0.10293386
3	0x3d960042	0.07324268
4	0x3de7cb06	0.113180205
5	0x3de46532	0.11152114
6	0xbc8db40e	-0.01729777
7	0xbd909044	-0.070587665
8	0xbd0267be	-0.031837218
9	0xbe1ff7f8	-0.15621936
10	0x3e1b8cd5	0.15190442
11	0x39fc1da9	0.00048087284
12	0xbd309cf3	-0.04311843
13	0xbd8b744d	-0.06809292
14	0x3e1e8024	0.1547857
15	0x3caa4fb7	0.020789964
16	0x3d554704	0.05206968
17	0x3daad200	0.083408356
18	0x3dcf72a6	0.10129289
19	0xbe37968c	-0.17928523
20	0x3e43676c	0.19082421
21	0x3d19f37f	0.03758573
22	0xbc4c9e32	-0.012488889
23	0xbdd6660c	-0.10468683
24	0x3dcb436e	0.099249706
25	0x3cbce048	0.023056164
26	0xbe178f8f	-0.14800857
27	0xbc63da49	-0.013907024
28	0x3c30a2c7	0.010780997
29	0x3de9f0f6	0.11422913
30	0x3dab4164	0.08362082
31	0xbe22fbe0	-0.15916395
32	0xbde84b64	-0.113425046
33	0x3de4adf7	0.11165994
34	0x3d5d1aa2	0.053980477
35	0xbd758e63	-0.059950244
36	0x3cfd16a8	0.030894592
37	0xbc544cf7	-0.012957803
38	0xbdba1af7	-0.090871744
39	0x3cd78781	0.02630973
40	0xbd829b67	-0.06377297
41	0xbdbf752c	-0.09348521
42	0x3d22d559	0.039754245
43	0x3d6d4b3a	0.05793307
44	0xbce4259a	-0.027849961
45	0x3ca3a458	0.019975826
46	0x3bd26614	0.00642086
47	0x3ba0b602	0.0049045095
48	0xbdab2b9c	-0.08357927
49	0x3d2a5f09	0.04159454
50	0x3e0309bc	0.12796682
51	0x3de5b050	0.112152696
52	0x3d25550e	0.040364318
53	0x3d5dfa3e	0.054193728
54	0x3c0c1398	0.008549593
55	0x3e181d7b	0.14854996
56	0xbcecb2c5	-0.028893838
57	0xbce62d24	-0.028097697
58	0x3e0bd257	0.13654457
59	0x3b59f020	0.0033254698
60	0x3dd86fff	0.105682366
61	0xbdde24fe	-0.108468994
62	0xbc8e3488	-0.017359033
63	0xbd8d2057	-0.06890934
64	0xbb07bb5c	-0.002071104
65	0x3da9a146	0.082827136
66	0x3d42e612	0.047582693
67	0x3db3bb80	0.08775997
68	0xbc632ccb	-0.01386566
69	0xbd00f972	-0.03148789
70	0xbd20408b	-0.039124053
71	0x3dc030fc	0.09384343
72	0x3c45f627	0.012082613
73	0x3e579352	0.21052292
74	0x3d29a543	0.04141737
75	0x3a79f1eb	0.0009534645
76	0xbdffedb9	-0.12496514
77	0x3d5a7ac7	0.053339746
78	0xbd64ccfa	-0.055859543
79	0xbd6f040b	-0.058353465
80	0x3dcdf575	0.10056583
81	0xbe011a24	-0.12607628
82	0xbde37ebc	-0.11108157
83	0x3dabe9b5	0.083941855
84	0xbe15025d	-0.14551683
85	0xbd71b8b6	-0.059014045
86	0x3cb894ea	0.022531945
87	0x3c0064d4	0.007836539
88	0x3c32b3f0	0.010907158
89	0xbe28f7af	-0.16500734
90	0x3e1f65f0	0.1556623
91	0x3d04be99	0.03240833
92	0xbcc37396	-0.023858827
93	0xbdfa59d6	-0.12224166
94	0x3cfca4ad	0.030840242
95	0x3c7aa035	0.015296985
96	0x3e0d393d	0.13791366
97	0xbd9e9c8e	-0.07744704
98	0xbd2479be	-0.040155165
99	0xbdffa81e	-0.12483238
100	0xbce5e573	-0.028063511
101	0xbcd66066	-0.026169013
102	0xbd490746	-0.049079202
103	0x3c801d09	0.015638845
104	0xbde2253b	-0.110422574
105	0xbd9d9492	-0.07694353
106	0x3d0399eb	0.03212921
107	0xbd51a820	-0.051185727
108	0x3e189e4d	0.14904137
109	0xbcb50e26	-0.022101473
110	0x3deaf8ee	0.11473261
111	0x3de69ddb	0.11260577
112	0x3d0247a1	0.031806592
113	0xbe010e48	-0.12603104
114	0xbda4a721	-0.0803969
115	0xbd8ab17e	-0.06772135
116	0x3ceca35b	0.028886488
117	0xbde4c8b1	-0.11171091
118	0x3d836a9a	0.06416817
119	0x3d7e75db	0.062124114
120	0xbd259d90	-0.040433466
121	0xbcb6fd19	-0.022337483
122	0xbe3b314f	-0.18280528
123	0xbd09445d	-0.033512462
124	0x3d49889b	0.049202543
125	0x3e377d26	0.17918834
126	0x3c26fd90	0.01019229
127	0xbcb13778	-0.021632895
128	0xbd59f665	-0.053213496
129	0xbd2d8fd6	-0.0423735
130	0xbca23625	-0.019801209
131	0x3dab3259	0.083592124
132	0xbc6e7e0c	-0.014556419
133	0x3d02da4a	0.031946458
134	0x3c97496a	0.018467624
135	0xbc2b116f	-0.010441168
136	0x3d489f35	0.048979957
137	0xbd6a56d7	-0.057211723
138	0x3b3a64ef	0.0028441509
139	0x3ce22616	0.027606051
140	0x3d8554d2	0.06510319
141	0xbc406702	-0.011743309
142	0x3dd9852d	0.106211044
143	0x3da11601	0.07865525
144	0x3cfce174	0.030869223
145	0xbdaa62f6	-0.083196566
146	0x3c5c8c80	0.013461232
147	0x3e197927	0.14987622
148	0x3a808367	0.0009804786
149	0x3da78092	0.0817882
150	0x3d8b4d4e	0.06801854
151	0x3d015e62	0.03158415
152	0xbdc464a5	-0.09589509
153	0x39774ff0	0.00023585535
154	0x3d98d047	0.07461601
155	0xbd076979	-0.03305957
156	0x3ce56865	0.02800388
157	0x3bc1a81a	0.005909932
158	0xb96e52c6	-0.00022728284
159	0x3a69e5f5	0.0008922511
160	0x3ce19967	0.027538968
161	0x3d58cdc9	0.052930627
162	0xbdbf8461	-0.09351421
163	0xbd8f4acb	-0.069966875
164	0x3dd27ea2	0.102780595
165	0x3d7e8755	0.06214078
166	0x3cc2fb78	0.02380155
167	0xbd46931b	-0.048480134
168	0x3db1b16d	0.086764194
169	0xbdc79996	-0.09746091
170	0x3809707a	3.2768097e-05
171	0x3c90a489	0.017656581
172	0x3c4979c5	0.0122970985
173	0x3cec1396	0.028817933
174	0x3c04424a	0.008072445
175	0x3dd5ed42	0.10445644
176	0x3bab3539	0.0052248505
177	0x3d472bb0	0.048625648
178	0x3df71fb9	0.120665975
179	0x3d91ca10	0.071186185
180	0xbd00ff74	-0.03149362
181	0x3c9be5a8	0.019030407
182	0xbbbdc178	-0.0057908855
183	0xbd853d7d	-0.065058686
184	0xbdcb4666	-0.09925537
185	0x3d3b674b	0.045752805
186	0x3d2ac6dd	0.041693557
187	0x3dc60c5e	0.096703276
188	0x3ddefda1	0.108882196
189	0x3d573d6e	0.05254882
190	0xbd8f5b23	-0.06999805
191	0x3d3ff52a	0.046864666
192	0x3e3f833e	0.18702409
193	0xbd9f8fe5	-0.077911176
194	0xbdd2b8b5	-0.10289136
195	0x3d0190e9	0.031632338
196	0xbe287e18	-0.16454351
197	0xbcfbed88	-0.030752912
198	0xbd434b1c	-0.04767905
199	0x3da54a8e	0.08070861
200	0x3c7fa469	0.015603163
201	0xbd903919	-0.070421405
202	0xbc8c2339	-0.01710664
203	0xbdea25e1	-0.11433006
204	0xbda3572f	-0.07975613
205	0x3e17adf4	0.14812452
206	0x3deaf509	0.11472518
207	0xbda8b2f7	-0.0823726
208	0xbe067a9f	-0.13132714
209	0x3c2daefc	0.010600802
210	0xbdcab39f	-0.09897541
211	0xbdde6cd8	-0.10860604
212	0x3c8a57ec	0.016887628
213	0xbdd3c749	-0.10340745
214	0x3c2c1e30	0.010505244
215	0x3dd2bac1	0.10289527
216	0xbdd5279e	-0.10407947
217	0xbe0ffee2	-0.14062074
218	0xbd16f186	-0.03685143
219	0xbe59a022	-0.21252492
220	0x3dfeb08f	0.1243602
221	0x3d806805	0.0626984
222	0x3d1eae27	0.038740303
223	0x3d402ff3	0.046920728
224	0x3df0b25e	0.11752771
225	0xbd201895	-0.039085943
226	0x3c1e2e8d	0.009654653
227	0x3d089854	0.033348396
228	0x3e44afd2	0.19207695
229	0xbcea7335	-0.028619388
230	0xbdb42731	-0.08796538
231	0x3c1b7a19	0.00948956
232	0xbe0a7809	-0.13522352
233	0x3dda615d	0.10663102
234	0xbd0e2cb1	-0.03471059
235	0x3e36e292	0.17859867
236	0x3da9c392	0.08289255
237	0xbdcd8c82	-0.10036565
238	0xbe0caeb0	-0.13738513
239	0xbe02ab3a	-0.1276063
240	0xbdb78f39	-0.089628644
241	0xbdb66b0d	-0.08907137
242	0x3db04bb3	0.086081885
243	0x3defbf72	0.11706437
244	0xbc5dba07	-0.013533122
245	0xbda8cee5	-0.08242587
246	0xbdbfea99	-0.09370918
247	0x3dd2bd91	0.10290063
248	0xbda2201d	-0.07916281
249	0x3e1ddda5	0.15416582
250	0x3d840492	0.06446184
251	0xbc42b603	-0.011884215
252	0x3e640f4c	0.2227146
253	0xbda2fe84	-0.07958701
254	0x3d24411e	0.040101163
255	0x3d96551f	0.07340454

network.8.bias f4 [6]
0	0xbd8af0f3	-0.06784239
1	0x3d2abfdc	0.041686878
2	0xbb57aae3	-0.0032908253
3	0xbd54630c	-0.05185227
4	0xbb9b2b4a	-0.004735385
5	0x3c8cc68a	0.017184515
