ModelWeights/BipedalWalker-v3-69420-/actor.weights.pt (torch, 295878 bytes, 7 tensors)

log_std f4 [4]
00000000: 14be 0abf 56a2 cabe 9cbc 39be 45ef 07bf
-0.54196286 -0.39576977 -0.18138355 -0.5309947

network.0.weight f4 [256, 24]
00000000: 832a d93d 7414 8fbe 0808 97bd d062 233e
00000010: 5728 b13d 951a 433e c514 813e 8a28 0e3d
00000020: 3237 bebb 3583 39be 812d 8a3c 934d 4f3e
00000030: 86fb 7abd a307 c73d a065 0f3e f555 433e
00000040: 5816 2a3e f543 bf3d ee05 20be 770b 15be
00000050: daae b93d 32bb 82bd a76d b93d fbe2 bb3d
00000060: f71c 1b3e c4bd 833d 68c7 4ebe 8acd 5bbe
00000070: 7a23 72be 9ecc f8bd 4b13 23be a77e 11bd
00000080: bda7 2e3e e6cb 6abd 67d3 6cbd d7ee 473e
00000090: 081f 153d 6132 71bd 2d7d a73d 8e7e 493d
000000a0: 386d 4d3d f055 72bd 33a3 a2ba 7b69 62bd
000000b0: aab0 0ebe 6175 0abe 9d71 3b3e 819a 513e
000000c0: c66d fd3c 750d bebd 5115 83bb 07de f83d
000000d0: eebd 803e 652b debd 8d69 35be d866 073e
000000e0: ec06 1abd b12e 2f3e 572d 41be e6b8 a83c
000000f0: 1307 d7bb 7b61 ecbd 988c 953c 707c 213e
00000100: aa1b 943d 386a 16be e9e5 82bc 3575 193e
00000110: d5bd 5d3e 57d2 5fbd 5480 d0bd 9d55 40bd
00000120: a9ba dabc f144 14be d8e6 573e 205c 963d
00000130: bbff 943d 1f2b e03d 6e98 8a3d 8a5a 433d
00000140: 1701 473e 7221 5e3d 2df3 6fbd 827b c23e
00000150: 2c83 113d 6bbd d83d 2a8d 8cbd 5b70 893d
00000160: 38b9 38be 9463 03be 55e9 f5bd cf62 503c
00000170: d37d 183e 127a f8bd d15c 2fbe db63 06be
00000180: 49f3 823c deba 29be 82a6 16be 7f51 f7bd
00000190: 8b5d d73d 01f4 3e3e 8048 cdbd 1427 eabd
000001a0: 85e8 263d 9167 f8bd 534d 393e 4832 e53d
000001b0: 7371 413d 6134 bf3d e88c a4bd 640f 4fbe
000001c0: 7a18 a03d e7dd 13be 46ab 08be 3dc4 08be
000001d0: ba36 3b3e 5738 fe3d 431d 37be 135b fc3d
000001e0: 2285 1f3e 26cb 1a3e 12b5 813e 7ce9 5cbb
000001f0: d0e5 50be c527 263e ae61 8abe bfcd 39be
00000200: e13c 87bd 2606 873d 8001 e73d d5f2 83bd
00000210: 7b92 3dbd 32dc 49be a02d 0dbe 73e1 e9bd
00000220: 5ec3 dcbd b937 3b3d e7ad 02be 474d a1bd
00000230: 94f6 183e 518e 80bd a589 11be 2dbd 3ebd
00000240: 1f3d 74bd 4a42 253e bf91 553e 7203 6d3e
00000250: 2dfb 113d e123 8d3d a667 193e 0d51 06be
00000260: 2d17 29be 55cb 0d3e b9a7 2a3e 260e 7dbe
00000270: 8d00 91bd 5934 7fbd ab8b eabd 3383 623e
00000280: 15cf 683e 2cbe e03d 4f7b 683e c2d8 123a
00000290: cb5c 473e c768 70bd f32b 4e3d 58a5 313d
000002a0: d733 133e 60ec 333d beeb d3bd 6e59 49be
000002b0: cb2c 9abd 0a6e f43d 24a3 2fbe a968 0e3e
000002c0: c655 a53d 572c 4b3e cc5f c73d 4278 27be
000002d0: 9258 65be 1907 2e3d ae83 e33c bb4b 32bc
000002e0: 9f88 2fbe 3f0e bcbd 5aca 60be 1c46 04be
000002f0: 066f bbbc 2eaa a9bd f384 2f3e 2897 9f3d
00000300: 22fa cf3d a2f8 da3d a24b 323e 3b8d 2bbe
00000310: a65a 64bd 6f32 1b3e 39d5 e7bd 5f78 36be
00000320: 3416 47be e20b bdbd 64ed 2fbe e4e1 76be
00000330: 5c1f 68bd b715 5fbe 15a3 08be 69a5 42be
00000340: 89d6 8dbd 298d 58bd 9bc6 343e 74ec 8f3c
00000350: 5bce e53d 939c 1cbc 4542 2f3e 037b b03d
00000360: a07b fc3d b018 413e 7d55 c2bd 6142 80be
00000370: 9b24 cb3c b807 20be 6fd1 84be 3b27 81bd
00000380: 99bd f5bd e654 d83d 8e45 76bd 712f f33d
00000390: 98bb e23c ba28 0bbe 1000 b4bd d4a4 e5bd
000003a0: 4680 dc3c 33de 343e 2806 a33c 6e07 373e
000003b0: bea8 3dbe 11ec 49be 5f87 5cbd 4b86 043e
000003c0: 2d09 573d 4d3e 8abd 2a98 013d ec2c b33d
000003d0: f72b 4ebe 28f1 a43d 7778 8a3e 6b84 cbbd
000003e0: 2da9 0a3d b0ee ea3a 3a12 e6bc a312 703e
000003f0: 7961 9ebd 50c3 403c 5742 573e c1f0 47bd
0.106038116 -0.27945292 -0.07374579 0.15955663 0.08650272 0.19053109 0.25211158 0.03470663
-0.0058049196 -0.18116458 0.016867401 0.20244436 -0.061275028 0.097182535 0.1400361 0.19075759
0.16610086 0.09339134 -0.15627262 -0.14555155 0.090665534 -0.06383361 0.09054118 0.091741525
0.15147768 0.06432679 -0.20193255 -0.21465126 -0.23646346 -0.12148403 -0.15925328 -0.035521176
0.17056175 -0.05732336 -0.057818796 0.19524704 0.036406547 -0.058885936 0.08178172 0.049192958
0.050152987 -0.059163988 -0.0012408256 -0.055276375 -0.1393458 -0.13521339 0.18305059 0.20469095
0.030936133 -0.092799105 -0.004000344 0.12151723 0.25144905 -0.108481206 -0.17716046 0.13222826
-0.037604257 0.17107655 -0.18864952 0.020595979 -0.0065621226 -0.115420304 0.018255517 0.15770125
0.07231839 -0.14688957 -0.01597877 0.14986117 0.21654446 -0.054643955 -0.10180727 -0.046956647
-0.026700335 -0.14479424 0.21084154 0.0734179 0.07275339 0.10945725 0.06767355 0.047693767
0.1943401 0.054231115 -0.05858152 0.37984854 0.035525486 0.105830036 -0.068628624 0.06710883
-0.18039405 -0.12830955 -0.12007395 0.01271887 0.14891748 -0.12132658 -0.1712525 -0.1312403
0.015985148 -0.1657519 -0.14711955 -0.12076091 0.10515889 0.18647768 -0.10023594 -0.11433235
0.04074909 -0.12129129 0.18095903 0.11191231 0.047227334 0.09336162 -0.08034688 -0.20220715
0.078171685 -0.14440118 -0.13346586 -0.13356109 0.18282595 0.1241309 -0.17882256 0.123220585
0.1557813 0.15116557 0.25333458 -0.0033708503 -0.20400167 0.16226108 -0.2702765 -0.18144892
-0.066034086 0.065929696 0.11279583 -0.06442801 -0.046282273 -0.19712904 -0.13786936 -0.11419954
-0.10779451 0.04570744 -0.12761651 -0.078760676 0.14937812 -0.06277145 -0.14212663 -0.04656713
-0.059628602 0.16138569 0.20856379 0.23145846 0.03563993 0.06891609 0.14980945 -0.13116856
-0.16512747 0.13847096 0.16665544 -0.24712428 -0.07080183 -0.062305782 -0.11452421 0.22120361
0.22735246 0.109737724 0.22703288 0.00056017574 0.19468991 -0.058693673 0.050334882 0.043370575
0.14375244 0.043926597 -0.10347699 -0.19663021 -0.07528075 0.11935051 -0.17152077 0.13907112
0.080730006 0.19841133 0.09735069 -0.16354468 -0.22397068 0.042487238 0.02777275 -0.010882313
-0.1714196 -0.09182405 -0.21952191 -0.1291737 -0.022880089 -0.08284412 0.1714056 0.07792503
0.10155131 0.10691954 0.17411664 -0.16753094 -0.05575051 0.15155958 -0.11319966 -0.17819355
-0.19442064 -0.09230782 -0.17180401 -0.24109608 -0.05667053 -0.21785627 -0.13343461 -0.19008411
-0.06925685 -0.052868996 0.17653887 0.017568804 0.11221 -0.009558815 0.17115124 0.086172126
0.12328267 0.18857074 -0.09488962 -0.25050643 0.024797728 -0.15627944 -0.25941035 -0.06306311
-0.119990535 0.10563068 -0.060124926 0.11874283 0.027677342 -0.13589755 -0.087890744 -0.11213079
0.026916634 0.17662887 0.019900396 0.17873928 -0.18521401 -0.19718958 -0.053840037 0.12941854
0.052498985 -0.06750164 0.031639256 0.087488025 -0.20133959 0.080538094 0.27045032 -0.09937366
0.033852745 0.0017923918 -0.028084863 0.2344461 -0.07733435 0.011765316 0.210214 -0.048813585

network.0.bias f4 [256]
00000000: d124 323e 83a7 fe3d e11e 9b3d 2909 643e
00000010: 294c 243e 0590 a63d 2f70 94bd 9830 093e
00000020: 4a03 123d eb61 563e d9aa 40bd d4bb 013d
00000030: 0e9c fbbd 0dea bb3d ce2a 8bbd e879 c8bd
00000040: 57bc 23be a790 8ebd d1da 04be 38a7 58bc
00000050: dfc2 213e ef80 163e ab44 1abe b51f bfbd
00000060: 6e32 81bc 54ad 04bd 3a1a c8ba 4448 a23d
00000070: 224f 5e3e 3da0 82bd 23c9 04be bfe1 293d
00000080: 0fac 17be d51f 033e d8cd 9fbd 3782 ccbd
00000090: 588f 133e 47cc a03d e444 2bbd e25d 123e
000000a0: 1601 123e 619d 493d ad87 31bd ae13 093e
000000b0: bb80 37be c758 12be dd6d 173e 53b2 24be
000000c0: 5088 fa3d 7663 353e b2df 283d 14d9 383e
000000d0: 2b16 1a3d 49d3 e23d 5f18 f83d dc55 643e
000000e0: 1799 90bc 295e f83d 42e7 873d d075 dcbd
000000f0: fe90 eb3c 1d4a 533e 99f0 c8bc e6b5 0fbd
00000100: 8596 f1bd c52a 09be 1896 183e c587 143e
00000110: 8d05 e3bb aecd 36be 3bc3 d83d e712 ef3d
00000120: 57df aabd 1951 e53d 7bbc a9bc 84fd 71bd
00000130: 6828 453c 6879 623e ade7 b6bd 0380 35be
00000140: b4b1 173e 903b 103e d5f3 09be 5f72 4f3e
00000150: ca65 02bd 9e67 be3d 1960 39be 4b53 70bd
00000160: cf84 2c3e 0695 3b3e 9e96 5dbd 387f 0dbe
00000170: 7d4a 453e 3c57 163e 5ac2 0bbe 11b6 d83d
00000180: 5423 473e a4ea 253e 75b1 2d3d 0799 20be
00000190: 7fac 063e db48 133e 1a95 133c c172 99bc
000001a0: 48c1 413d ceb8 523e ea26 4fbe 44ae ba3d
000001b0: b09a da3c b3fb 04bd 61d6 f23d 9727 6b3d
000001c0: a88e ed3c 483b 253e 1a39 c53d c8cc f8bc
000001d0: 5388 febd 9476 41bd cebf 183e 3fd6 873d
000001e0: 2cce 213e d896 4e3e 1c5e 2bbe 7554 18be
000001f0: 753f a43d f4e5 a7bd 60ba 64bc 34c1 263e
00000200: 0631 04be fb75 6abd c6c4 463d f99b 05be
00000210: 33b6 2b3d 0829 843d ca27 493e 63ca 38be
00000220: 8caf ebbc be4b 61bd 2ef0 14bd 7792 3bbe
00000230: f0b5 153e 3404 943d 6a24 2d3e 7f60 4e3d
00000240: 68d8 623d 1e5d 3b3e df69 b63d c58a f83c
00000250: 7a75 ccbd 0562 9bbd 6238 0b3c 9def 843d
00000260: c92f 26be 574f a1bd 1cb5 ecbd ff7a c0bc
00000270: 9f1e eabc 0fe8 28be 7245 27bd 2a90 80bc
00000280: 1529 04be 1a6b ac3c d667 00bd 8233 a83d
00000290: 17e0 ec3d 5b99 043d 1bbd 1a3e a727 743d
000002a0: 946d b93d 43cb 52bd 25cc b2bc 0333 1bbd
000002b0: 841f 983d d6b5 1ebe 334f 473e a347 c73d
000002c0: c04d 4b3e 3e4a 77bc d450 853d c875 bd3d
000002d0: 45ec 123e e232 c2bd 2ca1 193c 794f 0abe
000002e0: b0bc 3c3e d892 ba3d 6160 0f3e bccc febd
000002f0: 92f1 db3d de15 1bbe 21e9 243d ab9c 3fbd
00000300: 30dd 363e ccb9 13bd 8e13 08be ce40 a13d
00000310: b837 153e 66b1 ff3d fd89 e3bd 6b92 2c3e
00000320: 4c45 843d 3dc2 2fbe ecf1 413e d71c 033d
00000330: 9375 573e b054 c03c 4617 a1bc 9b83 b4bd
00000340: 7294 67bc 42ef e93d c16c e2bc fbf0 bd3d
00000350: 2f7a d2bd 2b16 ad3d f238 ff3d d944 313e
00000360: c7a6 22bd 0669 bfbd 6a25 2dbe 23a4 28be
00000370: 9481 cabd 5c24 0d3e bafb 563e d32c 4cbd
00000380: 5681 85ba 291f 303e 8b7d 3cbd 1649 e7bc
00000390: 4585 fb3d 3281 32be 4418 ca3c 60f5 2c3e
000003a0: a58e 0f3d 1096 07be cb39 71bd eaed 163e
000003b0: d8a9 473e 72d6 663e 7a35 173d 43be 5fbe
000003c0: a2f2 48be b77a 0b3e f776 f6bd 89df 7bbc
000003d0: c7a0 d53d 0a44 9fbd addc 1dbe 9821 01bc
000003e0: 0e1b 2dbd 79cc abbb 901d f13d f70e 3c3e
000003f0: f780 863d dadc ca3d 0f7a 4a3e b7da efbd
0.17396857 0.12434294 0.07574249 0.2226912 0.16044678 0.08132938 -0.0724796 0.13397443
0.035647668 0.2093579 -0.047037933 0.031673267 -0.122856244 0.09175501 -0.06795274 -0.09788877
-0.15989815 -0.06961184 -0.12974097 -0.013223462 0.15796994 0.14697622 -0.15065257 -0.093322195
-0.015771117 -0.03239186 -0.0015266605 0.0792394 0.21709874 -0.06378219 -0.12967353 0.041475054
-0.14811729 0.12805112 -0.078029335 -0.09985774 0.1441015 0.07851463 -0.041813746 0.14293626
0.14258227 0.049222354 -0.04334228 0.13386413 -0.179202 -0.14291678 0.14788003 -0.1608365
0.12233031 0.17713723 0.041228957 0.18051559 0.037618797 0.11075456 0.121140234 0.22298378
-0.017651124 0.121273346 0.06635906 -0.107646585 0.028755661 0.2063374 -0.024528788 -0.03508558
-0.117962874 -0.13395222 0.14901006 0.14504917 -0.006928152 -0.17851898 0.10584112 0.11673527
-0.0834338 0.11197109 -0.020719757 -0.059079662 0.012033559 0.22116625 -0.089309074 -0.17724614
0.14813882 0.14085221 -0.13471921 0.20258473 -0.031835355 0.09297107 -0.18103065 -0.058673184
0.16847537 0.18318567 -0.054098718 -0.13818061 0.19266696 0.14681715 -0.13648358 0.105816014
0.1944707 0.1620279 0.042405564 -0.15683375 0.1315174 0.14383261 0.009007717 -0.018731477
0.047303468 0.2057831 -0.20229688 0.0911527 0.026685089 -0.0324666 0.11857296 0.057410803
0.028998688 0.16135895 0.09630032 -0.030371085 -0.124283455 -0.047232226 0.14916918 0.06632661
0.15801305 0.2017473 -0.16735119 -0.14875968 0.08019916 -0.08198157 -0.013960451 0.16284639
-0.12909326 -0.05724142 0.0485275 -0.1304778 0.041921806 0.064531386 0.19644085 -0.18045954
-0.02877023 -0.055003874 -0.036361866 -0.1831759 0.14620185 0.07227364 0.16908422 0.050384995
0.055382162 0.1829724 0.08906912 0.030339608 -0.099833444 -0.07587055 0.008497329 0.06491015
-0.16229166 -0.07876461 -0.11557981 -0.02349615 -0.028579054 -0.16494773 -0.040837713 -0.015693743
-0.12906297 0.021047164 -0.031349026 0.08212949 0.11566179 0.032372814 0.151112 0.059608128
0.090541035 -0.051463377 -0.02182586 -0.037890445 0.07427886 -0.15499052 0.19463806 0.097304605
0.19853878 -0.015093384 0.06509557 0.092509806 0.14347942 -0.094823614 0.009376805 -0.13506879
0.18431354 0.091100395 0.1400161 -0.12441394 0.10739435 -0.1514506 0.04026139 -0.04678027
0.17857814 -0.03606586 -0.1328871 0.07873689 0.14572036 0.12485008 -0.111103036 0.16852729
0.0645853 -0.1716394 0.18939942 0.032009926 0.21040945 0.023477882 -0.019664418 -0.08814164
-0.014134513 0.11422588 -0.027639749 0.09274479 -0.10277211 0.08451494 0.12462033 0.1731142
-0.039709833 -0.093462035 -0.16908804 -0.16468863 -0.09887996 0.13783401 0.20994464 -0.049847435
-0.001018564 0.17199387 -0.046018165 -0.028233092 0.122812785 -0.17432097 0.024669774 0.16890478
0.035048146 -0.13240838 -0.058893006 0.14739195 0.19498384 0.22542742 0.036916234 -0.21849923
-0.19623807 0.13621031 -0.120344095 -0.015373119 0.104310565 -0.07776649 -0.15416212 -0.0078815445
-0.04226213 -0.005242881 0.11773217 0.18365084 0.06567567 0.09905405 0.19773124 -0.117116384

network.2.weight f4 [256, 256]
00000000: a4be f13a 3180 12bd 6c0a 433d 8a5f 073e
00000010: 94b2 d23d 413b c3bd a4aa e3bc 4bb0 0abd
00000020: 3739 9cbd aaa6 f9bd 18bb 943d cd3a e13c
00000030: 18b2 cbbd cff8 d9bd 1ffd aa3c 4c60 ae3b
00000040: 5416 1dbd d4c2 893d 41b8 bcbc d3f9 1dbd
00000050: b4cc 70bc a862 bc3c 63da c2bd 8573 393e
00000060: c292 6cbd db99 383d 9510 453d 417d 633c
00000070: 6671 193e 0637 be3d 209d da3d e5da 5c3c
00000080: a454 c3bb a675 81bd 39cd 863d 69de f0bc
00000090: a6f2 173d 7b6c 9c3c b5b9 8e3d 5c74 9ebb
000000a0: f408 273d cc6a b2bb 03c9 d03d f5c2 6b3d
000000b0: 01c7 c03c 6eea 27bc 5a9a 4ebb 8c4d d13d
000000c0: 2c09 8abd 65f6 07bd 8806 a8b9 4ea1 07bb
000000d0: bb48 93bd 4e23 7b3d edf7 babd e878 b8bd
000000e0: cbfc 4f3d 7782 83bd abf6 593c 4f87 49bd
000000f0: b878 96bd 766a 9bbd 8da1 183e 856c c7bd
00000100: 1921 c6bd fd18 acbc cfd9 443d 9ab6 26bc
00000110: 6314 313c d144 193c 67a2 5d3c 025b 2e3a
00000120: 2625 753b ad04 34bc ddd3 9d3d 0c18 d2bd
00000130: c92b 173d 1001 d1bc bb76 a33d 195b 14bb
00000140: b91f 7c3d 1bf9 01bd 83bf 01bd 83cb ac3d
00000150: c88b f2bd 5deb 743d 999f ccb9 107b 323d
00000160: 72bb 4d3d 790c 93bc 383c 32bd 404d dc3c
00000170: c317 92bd 7517 243d b1d6 29bd 9d41 9bb9
00000180: c385 403d beff c93c 21cb b1bc 211a 063d
00000190: ac76 8c3d 43ca 533d 85d6 053d 542a d83c
000001a0: 9828 bf3c c680 283c 18e8 0b3e 03ea cd3c
000001b0: 2551 313d f2f4 00bc 7a7e fc3c b571 da3b
000001c0: 185e 763d fab3 abbc 2b86 2d3d cc3d 363c
000001d0: 8317 9e3d a453 0a3c 5ade 09bd 5e2b 843d
000001e0: fe4a 77bd a269 d83c f849 65bd 8011 a33c
000001f0: e434 b5bb b74f 30bd 75e7 643d 37fe b53d
00000200: f37d 473c 70f0 d6bc e511 e4bb daf8 a43d
00000210: b280 04bc beb5 283d 00ba 44bd fc09 213e
00000220: 1827 71bb 7e33 c63c 7fb7 a5bb 3872 b13d
00000230: ff94 05bd 4cdd 8e3d 5905 ffbd 18e8 f73d
00000240: d594 a63d 76e8 cd3a 07f8 acbc 1eb1 f93c
00000250: 0a62 9fbc 838a dcbd 4593 083c d419 453d
00000260: ded7 4c3d cc28 de3c 87e4 b93b 98ac a53d
00000270: fb41 36bd 62e1 4c3d f393 4f3d 8763 6a3c
00000280: 0a71 b0bd b930 e0bd 0987 0dbc 4023 19bc
00000290: d088 6abd 7e9f d93b c74b d0bc abf7 973d
000002a0: 3cb5 ab3d 77c7 023d 664f bf3d e1e5 313d
000002b0: 9115 1dbd 85a5 913b 15ce 633c 9c58 ddbc
000002c0: 783a 2bbd 0225 5d3d c4b7 9e3c a5a5 203d
000002d0: 9bb3 293b 9698 893d 4ef9 55bc 6d4a 05bc
000002e0: 256c 003d e65f 343d 00ae f7bc 779b 2dbc
000002f0: 60f5 b239 9736 ffbc 224d e6bc 9c46 ad3d
00000300: e57f 2e3d c149 15bd abb9 be3b 88b9 df3c
00000310: 85a3 a33c c385 a03c 3be9 923d 0808 a7bb
00000320: 70fa d1bc c9c0 b73d f33b 36bc b582 adbc
00000330: d598 a73c c0b7 f5bb 5608 0cbe 251a f4bc
00000340: d8be 633b a7c2 283d 3a6f 2e3e 4a59 02bd
00000350: 45cf 80bd f18c 40bd ad05 c8bd 627f 343c
00000360: 2f3e 503d aedb 78bc c3b4 443d 0c85 913d
00000370: 9f22 853d 3193 41bd 6c7d 5d3d 7423 eb3c
00000380: 746f 63bc ad82 20bc 145b 3dbc ddba 123e
00000390: f177 253c 6e06 efbc 5416 f63c 5985 293c
000003a0: 0557 803c b1a0 35bc fada e1bb c8ae 453d
000003b0: 555e 29bd b693 793c 2525 f23d d184 f6bc
000003c0: 6be2 843b 5061 2b3d f0ed a4bd d4bd 6d3d
000003d0: 4225 733c 7a80 07bc 5ef0 b13a 9324 8fbd
000003e0: f0fa 8b3d a3d6 b6bc d72f c43c a330 15bd
000003f0: c03a 773d fc09 633d 3f61 b03b 4a89 a03c
0.0018443656 -0.035766784 0.04761736 0.13220039 0.10287967 -0.09532786 -0.027791329 -0.033859532
-0.076281 -0.12189992 0.07262248 0.027493859 -0.09946078 -0.106431596 0.02087265 0.005321538
-0.038351372 0.06726614 -0.023037078 -0.03856833 -0.0146972425 0.022996262 -0.0951431 0.18110473
-0.057757147 0.045068603 0.048111517 0.013884843 0.14984664 0.09287839 0.106745005 0.013479923
-0.0059610177 -0.06321268 0.06582112 -0.029402928 0.037096642 0.019094696 0.069690146 -0.0048356485
0.040780023 -0.00544486 0.1019459 0.057558972 0.023532392 -0.0102487635 -0.0031525106 0.10219869
-0.06740031 -0.033193965 -0.00032048323 -0.002069551 -0.071916066 0.061312966 -0.09129319 -0.09007436
0.05077819 -0.064213686 0.013303439 -0.049201306 -0.07347244 -0.07588665 0.14905377 -0.09737495
-0.096742816 -0.02100801 0.04805928 -0.010175372 0.010808083 0.009354786 0.013527489 0.00066511345
0.0037406175 -0.010987443 0.07706425 -0.10258493 0.03690699 -0.025513202 0.079816304 -0.0022637306
0.06155369 -0.031731706 -0.03167678 0.08437254 -0.118430674 0.059794772 -0.00039028822 0.043574393
0.05022759 -0.017950283 -0.04351446 0.026892304 -0.071334384 0.040061433 -0.04146451 -0.0002961279
0.047002565 0.02465808 -0.021703305 0.032739762 0.06858572 0.051706564 0.032675285 0.026387371
0.023334786 0.010284608 0.13662755 0.025136 0.043290276 -0.0078708995 0.030822027 0.006666387
0.06014833 -0.020959843 0.04236428 0.011123132 0.07719328 0.008442793 -0.033659317 0.06453584
-0.060374252 0.026417557 -0.055978745 0.019905806 -0.0055299867 -0.043044772 0.055884797 0.08886378
0.012176025 -0.026237696 -0.006960141 0.08055277 -0.008087324 0.041188948 -0.048028946 0.15726465
-0.0036796983 0.024194475 -0.005057275 0.086643636 -0.032612797 0.06975803 -0.12452192 0.12104815
0.08133856 0.0015709538 -0.021114362 0.030479964 -0.019455928 -0.107686065 0.008335893 0.048120335
0.050010554 0.027119063 0.0056729945 0.0808956 -0.044496518 0.05001963 0.050678205 0.014305956
-0.086153105 -0.10946793 -0.008638152 -0.009346783 -0.05725938 0.0066413274 -0.025426758 0.07420286
0.08384177 0.031928506 0.09341316 0.04343212 -0.038350645 0.0044447803 0.013904114 -0.027019791
-0.041803807 0.05399037 0.019374736 0.03922047 0.0025894407 0.067185566 -0.013059927 -0.00813542
0.031353135 0.04403677 -0.030234337 -0.010596148 0.00034133624 -0.03115396 -0.028112952 0.08460733
0.04260244 -0.03644729 0.005820473 0.027310148 0.019975433 0.019595033 0.071733914 -0.005097393
-0.025632113 0.08972318 -0.011122691 -0.02118049 0.020458618 -0.0074987113 -0.13675055 -0.029797623
0.0034751203 0.04120126 0.17034617 -0.031823434 -0.062895335 -0.047009412 -0.097667076 0.011016699
0.050840553 -0.0151890945 0.04802395 0.07105455 0.06500744 -0.047259513 0.05407469 0.028703429
-0.013881553 -0.0097967805 -0.011557359 0.14329095 0.010099397 -0.02917787 0.030039944 0.010346734
0.015666494 -0.011085675 -0.006892559 0.048262388 -0.041349728 0.015232971 0.11823491 -0.030092629
0.0040553114 0.04184085 -0.080531955 0.058042362 0.014840426 -0.008270377 0.0013575663 -0.06989398
0.06834972 -0.022319144 0.023948593 -0.036423337 0.060358763 0.055429444 0.0053826864 0.019596715

network.2.bias f4 [256]
00000000: b1bf 883c 1348 c13a 2b35 8e3c 4259 3dbd
00000010: 0b2c 02bd ad8f 333d 79fb 523d 0f6a 803b
00000020: 5ac9 c8bc 76d8 313d 0f2f be3c ac1a 223d
00000030: 3cc6 11bd a295 093d aac0 043d 97d8 64bc
00000040: fa87 a83b a200 1a3d 4c4a 273d 1f56 843d
00000050: 745a bb3c 5f3e 95bc d48f 763d 8320 413d
00000060: b635 0cbd d03c e33b e80c 49bd efd6 8fbd
00000070: 570d b53c dee7 21bc aa8d 24bc e30a c23c
00000080: 5459 aabc f8c9 5a3d 627a 133d 9324 8d3c
00000090: 7c95 bb3c 77e8 773d 9c4f 8e3d 0e53 103d
000000a0: 5da0 213d 03df b23c 59c3 ff3c 6866 c73a
000000b0: e5e5 2b3c 357e 373c c2b2 f3bc 550a 1a3c
000000c0: 9a9b 26bd c2f7 393d 1815 32bd 329b e1bc
000000d0: 08ad bb3c 74b2 9dbc 9c48 263d f8b2 043c
000000e0: bb35 23bd e40d 87bc d7de 65bd 8869 343d
000000f0: 49c9 16bd 1226 2b3c b194 60bd 0e4e 213c
00000100: e9ba 39bd 5205 5b3d dc9f 8c3b 6a93 9c3c
00000110: 4be4 2f3d 53d4 87bd b71a a53b a80b 87bd
00000120: a8d5 043d 172e 08bd 4fa0 2d3d 8efb 843d
00000130: 0985 153d e5ed 2abd f0a9 263d 515f 38bd
00000140: 3198 10bd 898b 41bb ab3f 02bd 5bbc 133d
00000150: 795e 9f3b 19b5 71bb 89ce b4bc 6c8c 85bd
00000160: 2bd3 01bd 8efd 47bd 6dca 813d df34 73bb
00000170: 8456 613d 5c3a 783d 0197 0c3b 6a0b 6abb
00000180: f51d 1ebd 570f 20bd 6066 23bd edaf 033d
00000190: 5210 2cbd 464e fb3c 2472 323d c5ac 69bb
000001a0: 1910 79bc bc8c 3fbc bb07 5fbd 0d7c 2bbd
000001b0: bb79 cbbc 2385 963c fb41 8abd 1bb6 373d
000001c0: da4b 7cbd 7d04 21bd 4aa8 2b3d 4458 2fbd
000001d0: 7ee4 96bc 079a b838 512f 54bd 5c12 01bd
000001e0: 4508 833c 326c 893d b10c a13d fcbb 6bbd
000001f0: b26b b63c 5e29 b2bb 53f9 46bd f4e0 2fbc
00000200: 8501 193d 9fae b7ba 4841 283d 0c4a 4bbb
00000210: 8783 0a3d 5c96 30bd 91f7 2c3c 31a6 8b3d
00000220: dc7f 14bc fca8 e93c 0b19 293c f655 093d
00000230: 8f48 a8bc e6c0 3cbc 3043 5e3d db5f 7a3d
00000240: 2aa5 273d bcda 8dbc cabd 433d ff00 d83c
00000250: 55df 71bb c0d0 4a3d 40bf f9bc ae04 803c
00000260: 9eda bcbc 06ed 21bd 0bd2 a13c c505 91bb
00000270: 8670 f6bc b241 f2ba 5359 f13c 08fb 01bd
00000280: 14f3 703c 535a 883d 97d6 1fbd 547b c8bc
00000290: ccc5 623d 389b 9b3d f1c3 013d 2f15 403d
000002a0: 2a16 853d 7d85 933c cfee bdbb 37cf 57bd
000002b0: ea25 2fbd 531d 1e3d eb88 a93c 10ca 013d
000002c0: 1ab9 2abd 303a 3c3d 2e99 a43c 1691 5bbc
000002d0: 8b24 6f3c 427a 003c 0818 793d 247f 25bd
000002e0: fc41 12bc 2c12 e53a ad7f 593d cf8e 29bd
000002f0: f137 1cbc 822f 9b3c 0009 febc 122d 333d
00000300: c712 603d d6ee 56bd def2 d83c e09f 523d
00000310: 5ef8 5c3b 7756 3ebd 92e3 51bd 4972 f5bc
00000320: 8d8f 31bd f9f1 81bd 439b 58bc b3d2 9b3c
00000330: 3aea 85bd 2074 a5bc 5d55 c53c f005 123c
00000340: 4488 163b 8280 23bd 3339 683c 7327 96bb
00000350: 090a 4c3b 35f6 683d 27f8 3dbd 98fb 82bc
00000360: bc80 80bd 715f e8bc b69c 2a3d b0a0 58bd
00000370: e8d5 27bc c8cb e6bc ea09 7a3d 8f3f 61bd
00000380: c91f c03c a1f0 0c3d 0cd4 243d bc32 b2bc
00000390: 357b 133d ec07 773d 00ff a23c c7ed 1b3d
000003a0: 7798 cebc cea7 43bd c17d 5dbd 87e0 123d
000003b0: 9264 1b3d f576 01bb ad9d 633b 0fe4 453d
000003c0: c0b7 f73c 051b 14bd fec1 0b3d dd3c 3ebc
000003d0: 7798 063d b01f adbc 3138 6d3d 8009 bdbc
000003e0: e7d9 9fbc ac91 ea3c 53a4 223c 6cfe 6c3d
000003f0: 25b3 6fbd fc91 ceba 6c98 82bc ca4c 8abd
0.016692968 0.0014746211 0.017359337 -0.0462277 -0.031780284 0.04383819 0.051509354 0.003918893
-0.024510074 0.043419324 0.023215799 0.039576218 -0.03558944 0.033589967 0.0324103 -0.013967655
0.005143163 0.03759826 0.04084234 0.06461739 0.02287028 -0.018218217 0.06019576 0.047150146
-0.03423091 0.0069347396 -0.049084574 -0.07023417 0.022101087 -0.009881942 -0.010043541 0.023686832
-0.020794548 0.05341527 0.036005385 0.017229354 0.022898428 0.06052443 0.06948778 0.035235457
0.039459575 0.021834856 0.031221079 0.0015213015 0.010491823 0.011199524 -0.029748324 0.009401877
-0.040675737 0.045402296 -0.043477148 -0.027539823 0.022909656 -0.019250132 0.04059659 0.00809931
-0.039846163 -0.016486116 -0.05612072 0.044045955 -0.036813054 0.010446088 -0.054829303 0.00984527
-0.045344267 0.05347187 0.0042915177 0.019113261 0.042942327 -0.066322945 0.005038585 -0.0659402
0.03243032 -0.03324708 0.04238921 0.06493293 0.036503825 -0.04173078 0.04068941 -0.045012776
-0.03530139 -0.0029532632 -0.031799 0.0360683 0.004863557 -0.0036881624 -0.02207114 -0.06520924
-0.031695526 -0.048825793 0.06337438 -0.003711037 0.05501415 0.06060253 0.002145231 -0.003571237
-0.038602788 -0.03907713 -0.039892554 0.032150198 -0.04200775 0.030676972 0.043565884 -0.0035655957
-0.015201592 -0.0116912685 -0.05445073 -0.04186635 -0.024838319 0.018374031 -0.06750866 0.044851404
-0.061595775 -0.03931092 0.04190854 -0.042808786 -0.0184195 8.8024935e-05 -0.051802937 -0.03151165
0.015995154 0.0671009 0.07863749 -0.057552323 0.02226815 -0.0054370603 -0.048577618 -0.010734785
0.037354965 -0.0014013833 0.041077882 -0.0031019477 0.03381684 -0.043112144 0.010557071 0.06818808
-0.009063687 0.02852296 0.010320912 0.033529244 -0.020542411 -0.0115206 0.054263294 0.06112657
0.040928997 -0.017316215 0.04778842 0.026367662 -0.0036906798 0.049515486 -0.030486703 0.015627231
-0.023053464 -0.039532684 0.019753477 -0.0044257366 -0.030082952 -0.0018482713 0.029461538 -0.031733543
0.014706392 0.06657853 -0.03902301 -0.02447287 0.055364415 0.07597965 0.031681005 0.046895202
0.06498368 0.018007988 -0.0057962905 -0.05268785 -0.042760767 0.038602185 0.02069517 0.031686842
-0.041680433 0.04595393 0.020092573 -0.01340129 0.014596115 0.0078416485 0.060813934 -0.040404454
-0.008926865 0.0017476729 0.053100277 -0.04139596 -0.009534822 0.018943552 -0.03101015 0.043744154
0.054705407 -0.052473865 0.026482996 0.051422 0.0033717374 -0.046469178 -0.05124242 -0.029961722
-0.04334979 -0.06344981 -0.013220611 0.019021368 -0.06538816 -0.020196974 0.024088556 0.008912548
0.0022969404 -0.039917476 0.014173794 -0.0045823394 0.003113391 0.056875426 -0.046379235 -0.01598911
-0.06274554 -0.028365823 0.041653357 -0.05288762 -0.01024387 -0.028173342 0.06104461 -0.054992255
0.023452656 0.03440917 0.040241286 -0.021752708 0.03600617 0.06031029 0.019896984 0.03806856
-0.025219185 -0.047767453 -0.054075006 0.035858657 0.03793771 -0.0019754742 0.0034731433 0.048313197
0.030238986 -0.03615858 0.034120552 -0.011611191 0.032860246 -0.021133274 0.057914916 -0.023075819
-0.019513084 0.028633915 0.009926873 0.057859823 -0.058520455 -0.001576006 -0.015941821 -0.067529276

network.4.weight f4 [4, 256]
00000000: b010 52bc 0147 b93d d3d4 28bd 0a99 8ebd
00000010: 7b2c e4bd 6a4d f33c 61ed d13d 8686 2fbd
00000020: 5927 66bd de2d 7b3d f366 913d 6fda b43d
00000030: 59bc 043e 9970 013d 21e3 31bd 2ac6 023c
00000040: 0cbb 4b3c e127 613d 5680 8c3d 357c 683d
00000050: d6eb 0c3d c1ff 2bbc 544c 3b3d 90a9 be3d
00000060: e676 f63b 6506 a6bc ada3 263d 52b7 39bd
00000070: d756 9cbd 9716 183d 7579 47bd e47e 333d
00000080: c186 d13d b9b7 39bd 7639 b0bc ad1e 113d
00000090: 15c8 3f3d f36f 29bc a582 f73d a133 a73d
000000a0: b04e 373d a718 e1bd 294e 04bd 8b1d 9e3d
000000b0: 36af 11be c28c 533d 754f 45bc c005 98bd
000000c0: 84a1 b7bd 9cd4 d1bc 7da2 dcbc 6dca 033c
000000d0: 5414 123d 528a e2bc 7007 c33d 15fc 8bbd
000000e0: 9881 aabc 4053 16bd 85e1 25be 95b6 1c3d
000000f0: 2e9c a83d 7037 203c 015a 2d3c 0e72 42bd
00000100: a787 57bd 2c9b 7e3d 48e9 2abe fdc5 5cbb
00000110: 1a3d 5dbd cf88 dfbd 5e35 37bb 3549 8b3c
00000120: 4171 8ebc ee7f a63c fd99 bbbd 47c3 ac3d
00000130: 17b3 193d 7159 b0bd f013 b8bd ded9 b4bc
00000140: 4e4b f9bc 1a53 dabd fcf1 4e3d cf53 213d
00000150: e4fc a83d 603e 6b3d e822 4d3d 9880 2e3d
00000160: eb20 713d 41c0 703d f8c2 babc b2f7 613d
00000170: 8974 42bd f3d3 093d 45c2 ff3d fcce a83d
00000180: b9c8 343d 5811 d93d 8c0e 8b3b 179e 8dbc
00000190: 311c 8d3d be3e 7fbd 4b60 12bc 7a0d fbbd
000001a0: 202a 6fbc c11c d3bd e677 a2bd 657e 3a3d
000001b0: 9141 78bc 7ab6 4d3d f072 3c3d 9ba7 a3bd
000001c0: f87e 533c f01c abbd d8a3 42bb 0b90 c7bd
000001d0: 6258 e2bc 1d00 0c3d 5b22 ffbc 51bf b43d
000001e0: d183 cf3d 78e1 e73c 0063 f33d 27e8 9e3c
000001f0: cda7 0b3d 118c 1f3d 82b5 3ebd 0b3e 81bc
00000200: 8d3d d73c 1084 c4bb 3875 8a3d 484d 6bbd
00000210: 95d3 8a3d 9391 9bbd b887 b4bd 5e30 d43d
00000220: b86f 003e ae71 5c3d 9009 173c 9fbe cabb
00000230: 7533 14bd f4d3 e83d e3ca 863d d9e4 df3d
00000240: 615b 68bd eb7b 0cbd b260 8bbc 7d12 9cbd
00000250: 766e b33d 81ec 7dbd 29a6 373d f9c7 733d
00000260: a7e6 19be 991e 78bd ad98 9b3d 78de 04bd
00000270: 4549 2bbc e740 4a3d f0af 833d 0251 143b
00000280: f1bd 603d c470 e1bc 7cff fd3c efbd 81bd
00000290: 371b 343d 0021 cc3d 5052 f6bb a010 7e3c
000002a0: 9e5d 4b3c 8f5a 4b3d 583a 91bc 26e3 56bc
000002b0: a375 703d 3464 af3d 6fcf 2fbc b39e bfbd
000002c0: 5945 663d e382 51bc 527a e5bc 1fbf 28bd
000002d0: ab3d 6d3b 66df 8ebd ce76 d5bd b90d 13ba
000002e0: 89cb 33bb 2a88 54bd 7fc8 f03d 355d 97bd
000002f0: 514b cc3d f16a 94bd d694 253d cae8 bdbd
00000300: 378d 2dbd 53b9 adbc 7793 cdbd f719 5abd
00000310: aa40 8a3d 66e9 a5bd 487a a53d 6fb4 683d
00000320: bc4c e2bd 9443 34bd 7b8b fb3d c607 cbbd
00000330: 9d43 8fbc a45b 913b deaf 5d3b 187a 193d
00000340: 6d07 833b e2ce 4ebc a49a 903d bf31 6abd
00000350: cb7c 75bd 71df a0bd 6f19 463d af3c 84bb
00000360: 652b b73c cfa4 2dbd 4338 80bd 62d1 1a3d
00000370: 5526 a5b9 ca6c 513c 1478 08be 3b2a e3bb
00000380: ce61 a9bd bff6 92bc d2d5 bfbd 9634 593d
00000390: 0f6e 233d 1389 02bc e126 8d3d 63df 7d3d
000003a0: 212c 433d a00e 193d e9a2 b73c 279d 173d
000003b0: b8ad a4bc 5c91 6c3d fedd 92bc dbfc 8f3d
000003c0: bffd 65bc 9f0e b83d 4d93 c73d dc52 d93d
000003d0: 8ec6 f3bc f1cb 26bc 103e b9bc 81a2 143d
000003e0: ec29 843c c8bf 04bd b1f0 573d 07e7 f43c
000003f0: b618 c2bc 3d70 b9bb cd04 c2bc 1ed8 11bd
-0.012821361 0.09046746 -0.04121859 -0.06962784 -0.111412965 0.0297 0.102503546 -0.0428529
-0.05618987 0.06132304 0.07099714 0.088307254 0.12962474 0.031601522 -0.043429498 0.007981816
0.012434732 0.054969672 0.06860416 0.056759078 0.0344046 -0.010497988 0.04572709 0.09309685
0.007521498 -0.020266721 0.040683437 -0.045340843 -0.07633751 0.03713092 -0.048699815 0.043822184
0.102307804 -0.045341227 -0.021511775 0.035429645 0.046821672 -0.010341632 0.12085465 0.08164144
0.044752777 -0.1099103 -0.0323011 0.077204786 -0.14226994 0.05164791 -0.01204287 -0.07422972
-0.089663535 -0.025614075 -0.02693295 0.008043868 0.035663918 -0.027653847 0.09522903 -0.0683519
-0.020813748 -0.036700487 -0.1619931 0.03826006 0.08232914 0.009778842 0.010580541 -0.047472052
-0.052619603 0.062159702 -0.16690552 -0.0033687346 -0.05401335 -0.10914766 -0.0027955393 0.017002681
-0.017387988 0.020324674 -0.0916023 0.08435684 0.03752431 -0.086108096 -0.08988178 -0.022076543
-0.030431416 -0.106603816 0.050523743 0.039386567 0.0825136 0.057432532 0.050082117 0.042603105
0.058869284 0.058777098 -0.022798046 0.05516786 -0.047474418 0.033649396 0.12488226 0.08242604
0.044136737 0.10599011 0.0042436775 -0.017287297 0.06890143 -0.062315695 -0.008934091 -0.1225843
-0.014597446 -0.10308219 -0.07933025 0.045530695 -0.015152351 0.05022285 0.04600805 -0.079909526
0.01290869 -0.08355129 -0.002969971 -0.09744271 -0.027630035 0.034179796 -0.031144312 0.08825553
0.10132564 0.028305754 0.11884117 0.019397808 0.034095574 0.038951937 -0.046559818 -0.015776655
0.026274467 -0.0059971884 0.06760639 -0.057446748 0.06778637 -0.075961255 -0.08814949 0.10360788
0.12542617 0.05381935 0.0092185885 -0.0061872746 -0.036181886 0.11368552 0.06581666 0.10932321
-0.05672777 -0.034297865 -0.017013881 -0.07620714 0.08761303 -0.061993126 0.044836197 0.05951688
-0.15029393 -0.060576055 0.0759748 -0.032438725 -0.010454481 0.049378302 0.06430042 0.0022631292
0.054868642 -0.027519591 0.031005614 -0.06335055 0.043971267 0.09967232 -0.0075171366 0.015506893
0.012412457 0.04964691 -0.017728016 -0.01311568 0.058705937 0.08564034 -0.010730608 -0.09356441
0.05621848 -0.0127875535 -0.028012428 -0.041197892 0.0036200087 -0.069762036 -0.10423051 -0.000560965
-0.0027434549 -0.05188767 0.117569916 -0.07390825 0.09975303 -0.0724696 0.040425144 -0.092729166
-0.042371 -0.021206534 -0.10037892 -0.05324742 0.06750615 -0.08101158 0.08079964 0.0568127
-0.11049792 -0.04400976 0.12282463 -0.09913592 -0.017488295 0.0044359732 0.003382675 0.037469953
0.003998688 -0.012622567 0.07060745 -0.057176348 -0.059933465 -0.07855118 0.0483641 -0.0040355544
0.02235956 -0.0423935 -0.06260731 0.03779734 -0.00031499812 0.012782285 -0.13327056 -0.0069325245
-0.08270608 -0.017939923 -0.09366955 0.053028665 0.039899882 -0.007967251 0.06892181 0.061980616
0.047649506 0.037367463 0.022416549 0.037015107 -0.020102367 0.057755813 -0.01792812 0.0703065
-0.014037549 0.08987164 0.09744892 0.10611507 -0.029757764 -0.010180459 -0.022612602 0.03628779
0.016133271 -0.03240946 0.052719776 0.029895319 -0.023693424 -0.005659132 -0.02368393 -0.035606496

network.4.bias f4 [4]
00000000: 3a91 2fbd b1de 6d3d 62cb 903d 7167 65bd
-0.04286311 0.058073703 0.07070042 -0.056006853
