ModelWeights/BipedalWalker-v3-69420-/critic.weights.pt (torch, 292622 bytes, 5 tensors)

network.0.weight f4 [256, 24]
000000 63 10 06 3f f4 5d 37 3f 8a 7d 5c 3e 0f db 30 bf
       0.52368754 0.71627736 0.21532264 -0.69084257
000010 15 c0 08 3e 5f b1 75 bd 49 47 4f be a1 ec 34 bd
       0.13354523 -0.059983607 -0.20242037 -0.04417098
000020 18 44 bc bd 65 94 44 3e 86 1a 1f 3e af b0 a4 bd
       -0.09192675 0.19197233 0.15537462 -0.08041512
000030 f4 d8 92 3d 18 5a 11 bd c9 b5 8f bd 06 81 0f 3e
       0.07170287 -0.03548631 -0.07017095 0.14014062
000040 3b bd 66 3d 6b 9a 38 3e 65 bc cc bc 60 08 2c be
       0.056332808 0.18027656 -0.024992177 -0.1680007
000050 b3 4d 01 be 99 54 06 be 9a da 25 3e 7f 45 81 bd
       -0.12627296 -0.13118209 0.16196671 -0.063120835
000060 94 3d 99 be 1a f0 19 bf ad 88 d5 3b 17 31 8b 3e
       -0.29929793 -0.6013199 0.006516537 0.2718589
000070 33 f6 94 bd 77 65 3e bd 98 ba 23 be c8 08 70 3c
       -0.07273521 -0.046483483 -0.15989149 0.014650531
000080 07 83 61 bd 94 56 09 be 49 c3 e2 bc 31 f2 0b bd
       -0.055056598 -0.13411933 -0.02768101 -0.03416652
000090 71 da 07 bd 5c 96 a8 bd 5e 87 52 bd ae b6 49 bc
       -0.033167306 -0.08231804 -0.051398627 -0.012311621
0000a0 c2 49 d1 bd d7 50 76 3d e6 76 19 3e c7 f7 7e 3d
       -0.10219146 0.06013569 0.14986762 0.062248018
0000b0 60 d0 b8 3d d3 17 cb 3d c5 b9 28 be 2c 38 1e 3e
       0.090241194 0.099166535 -0.16477115 0.15451115
0000c0 12 c5 e1 3e 52 f3 0e 3f a6 69 97 3d 88 8e 1c bf
       0.44095665 0.5584003 0.07393198 -0.61154985
0000d0 be bc 70 bd ab 41 ac bd 28 d4 8e bd c3 96 02 be
       -0.05877375 -0.08410963 -0.06974059 -0.12752824
0000e0 69 5e d0 3d 7a 1b 02 3e e1 4c 0b 3e 02 de 20 bd
       0.10174257 0.12705794 0.13603546 -0.039274223
0000f0 e6 20 f9 3c 15 7e 32 3d 9a 57 71 bd 44 97 0f be
       0.030411195 0.043577272 -0.058921434 -0.14022547
000100 c0 48 45 be 7d d5 d1 3c 37 6e 87 3d 51 f1 cc 3c
       -0.19266033 0.025614494 0.06612819 0.025017412
000110 a3 e4 1f 3e 07 aa 91 3c 04 8c b9 3d ef 82 17 3e
       0.15614562 0.01778127 0.09059909 0.14796041
000120 99 ba 83 3e 0c dc 8f 3e df 41 07 be 09 70 f8 be
       0.257283 0.2809757 -0.13208722 -0.48522976
000130 27 01 af 3e 9e 88 6f bd 86 74 b5 3d 8d c3 3c bd
       0.34180567 -0.058479898 0.08860116 -0.04608493
000140 6e 45 45 3e f7 75 86 3d 3d bb 34 3d 5b a7 de 3d
       0.19264767 0.06565469 0.044123877 0.10871764
000150 4f 2f 01 be 16 de 3d 3e c6 38 8b 3d d6 a2 c5 bd
       -0.12615703 0.1854175 0.06797938 -0.09650199
000160 e2 1f 7b 3e e2 6d 04 3e 59 23 56 3e 5b e2 04 3e
       0.24523881 0.12932542 0.20911922 0.12976973
000170 1c 58 57 3e 15 d9 20 3e a4 79 26 3e f2 b9 8f 3e
       0.21029705 0.1570781 0.1625734 0.28071553
000180 6b f8 bf be 9d ea 20 bf c2 72 88 bd 1c 5b 88 3e
       -0.37494215 -0.6285799 -0.06662513 0.2663201
000190 12 d1 83 bd 70 9e 47 bc 23 9d f4 3d ed 98 b0 bb
       -0.06436361 -0.012183771 0.11944034 -0.005389324
0001a0 e7 3e 39 bc c0 15 1b 3d fa cc 82 bd 90 77 84 be
       -0.011306501 0.03786254 -0.063867524 -0.2587247
0001b0 cd 10 b9 bc 29 ea 8b 3b 72 9c 34 3e a3 5b 9d bd
       -0.022591019 0.0042698574 0.17637804 -0.07683494
0001c0 bc 47 e8 3d d8 62 10 3e 9e 16 07 3e ff 40 40 be
       0.11341807 0.14100206 0.13192222 -0.18774794
0001d0 74 7e 0d 3e 6c ae f1 bd 90 c2 34 be e0 44 ad bd
       0.1381777 -0.118008465 -0.17652345 -0.084604025
0001e0 5b 57 61 be 13 16 9d be 60 91 8a be 61 5e a9 bd
       -0.2200598 -0.30680904 -0.27064037 -0.082699545
0001f0 05 bc 34 3e e5 a9 d4 bc db d0 0f be 1f b2 20 be
       0.17649849 -0.025959918 -0.14044516 -0.15692948
000200 f2 a1 ca be 2a ba 37 3e 41 9c 15 bd 2c 50 44 be
       -0.3957668 0.1794211 -0.03652597 -0.19171208
000210 cc 28 7e 3c d1 b4 e5 bd ec 81 3c bc ee 32 fc 3d
       0.015512656 -0.112161286 -0.011505585 0.123144016
000220 d7 ab cd bd b5 d0 2a 3e 58 88 29 be 68 1f 42 bd
       -0.100425415 0.16681178 -0.16555917 -0.047393233
000230 c9 75 22 be 6e 8f 26 bd 1a 89 d9 3d 4a 45 66 3e
       -0.15865244 -0.04066413 0.10621853 0.22487369
000240 42 fa a8 bd e0 ce 30 be b8 57 6d be 11 cc a8 be
       -0.08250858 -0.17266417 -0.23177993 -0.3296819
000250 c0 d6 09 bd 58 a8 02 bc 51 db 55 bc bf 52 50 3c
       -0.033652067 -0.007974707 -0.013052777 0.012715041
000260 21 78 21 3e 4b 73 5d 3e a2 c9 35 bd e2 4f 02 be
       0.15768482 0.21626012 -0.044381745 -0.12725785
000270 02 9b c2 bd cc bf 6a 3c 26 88 71 bd 6c 2c 47 3d
       -0.09502222 0.0143279545 -0.058967732 0.04862635
000280 d1 b9 5a 3e f6 df f6 3d dc d0 c3 3d 94 b2 f1 3d
       0.21359946 0.12054436 0.09561321 0.11801639
000290 17 90 bc 3d f8 e1 c5 bd 25 26 2d 3e 29 70 91 bd
       0.092071705 -0.09662241 0.16909082 -0.07101471
0002a0 01 be a8 3e 60 30 b4 3e f8 22 5c be ae 96 37 bf
       0.3295746 0.35193157 -0.21497715 -0.71714294
0002b0 de 0a 33 3d 11 fe 61 3e 14 25 2d 3d 7b ad 57 3c
       0.043711536 0.22069575 0.04227169 0.01316392
0002c0 73 b6 d1 3d 81 d1 cd 3d 56 ea 24 3e d7 b3 1b 3e
       0.102398776 0.10049725 0.16105017 0.15205322
0002d0 65 49 23 be a0 7d bc bd 8a 9d 88 3d 51 00 7e 3e
       -0.15945967 -0.092036486 0.06670673 0.24804808
0002e0 77 8b 6b 3e 3a 76 44 bd 67 45 6c 3e d4 a4 2d bd
       0.2300242 -0.047964312 0.2307335 -0.04239352
0002f0 81 2a 81 3e 6d fb 71 3e 22 a7 57 3d 77 d2 6a 3e
       0.2522774 0.23631068 0.052649625 0.22931848
000300 0a ce 1b be 40 b8 ca be e3 94 b7 3e ae fd dd bc
       -0.15215316 -0.39593697 0.3585578 -0.027098503
000310 f9 1c 24 3c de 1d d1 bd b1 53 39 3e ab c2 5b 3e
       0.010016673 -0.10210775 0.18098332 0.21460979
000320 56 59 40 be 3d e8 08 3e f9 13 49 bd e4 d1 56 be
       -0.18784079 0.13369842 -0.049091313 -0.20978504
000330 19 d8 af bc 12 42 06 3e ad 7a 51 bc a6 3d be bd
       -0.021465348 0.13111141 -0.012785596 -0.09289102
000340 12 98 8f 3d e4 58 71 bc e7 95 15 be 9f 60 92 3d
       0.07011427 -0.014730666 -0.14607964 0.07147335
000350 4f 49 8a 3c 4c df a1 3d 0c 2e 56 3e 7c a8 44 3e
       0.01688066 0.079039186 0.20916003 0.19204897
000360 fa 08 00 3f 08 1e bb 3e 46 76 c5 be 59 5e 12 3e
       0.500137 0.3654635 -0.38566798 0.14293803
000370 c3 6c ad 3e f5 11 11 3d 07 35 8d 3e c6 ef a0 3c
       0.3387204 0.035417516 0.2757952 0.019645583
000380 f4 65 6d bc 3c b7 ce 3c 13 14 cd bd b6 91 f2 3d
       -0.01448964 0.025233857 -0.100135945 0.118441984
000390 aa 3b be bb 17 25 cb be ae e2 55 3c b7 95 1b bd
       -0.0058054524 -0.39676735 0.013054533 -0.037984576
0003a0 ba 8b 83 bd 33 03 0e 3e 80 ca 3b be 57 37 44 be
       -0.06423135 0.13868408 -0.18338966 -0.19161735
0003b0 e0 d1 46 bc b6 09 f8 3d d8 a0 e2 bc 71 c7 ac 3b
       -0.012134999 0.12111227 -0.027664587 0.0052727987
0003c0 cc 65 e6 3e 38 f0 e9 3e 32 aa 87 be 43 f3 42 bd
       0.4499954 0.45691085 -0.26497036 -0.047595274
0003d0 e9 56 8d 3e 71 45 b2 3c ef 6e 5c 3e 79 be c9 3a
       0.2760537 0.021761628 0.21526693 0.0015391848
0003e0 0a f9 8e 3b 3f 55 ce bd 7b ff dc 3c 6a 23 63 3d
       0.004363184 -0.10074853 0.026977291 0.055453695
0003f0 86 e7 00 3b 9b 56 15 bf aa e3 5f 3e ba ba 09 be
       0.0019669249 -0.58335274 0.2186419 -0.13450137

network.0.bias f4 [256]
000000 f2 b9 5e 3d 85 78 77 bd 7a 15 ca bd 63 0c 3e 3d
       0.05437655 -0.06041767 -0.098673776 0.04639853
000010 a1 9a 1f 3e 03 f5 7b bd 4b 05 8c 3e 30 9c f9 3d
       0.1558633 -0.06151296 0.27347788 0.121879935
000020 f5 94 31 3e 35 db e3 3c 30 3e 63 3d 64 ff 0e be
       0.17341979 0.027814487 0.05547923 -0.13964611
000030 38 d4 bf 3e 03 4b a1 3d dd 18 34 bd 71 f6 cd bd
       0.37466598 0.078756355 -0.043969024 -0.100567706
000040 39 3c 80 3e bf e5 bb bc 81 9c 92 bd c1 f0 65 3c
       0.25045946 -0.0229367 -0.07158757 0.014034451
000050 00 ac 8a bd 21 74 9e 3e 82 87 0d 3e a4 82 81 3d
       -0.06771088 0.30947974 0.13821223 0.06323746
000060 02 e9 d6 3d 2f b8 47 3d 6f b3 87 3e 37 17 49 3e
       0.104936615 0.048759636 0.26504084 0.19637762
000070 7e 3a 5c 3e d8 53 88 3b 52 05 f1 3d b8 1f d7 3d
       0.21506688 0.0041603856 0.11768593 0.10504097
000080 44 4d 21 3d d2 49 cf 3d 68 75 9e 3d e9 9a 3b bd
       0.039380327 0.10121502 0.07737237 -0.04580203
000090 9e 31 29 be da 9b d3 bd d9 47 98 3d aa 59 a2 3e
       -0.16522834 -0.10332461 0.07435579 0.31709033
0000a0 e9 cb a0 3d 9b 31 0f be 4f 1c 23 3e 6f f4 c0 bd
       0.07851393 -0.13983767 0.15928768 -0.09421622
0000b0 52 f8 98 bd d3 dd 18 3e 25 c2 fa bd 42 08 70 3e
       -0.07469238 0.14928369 -0.122440614 0.2344065
0000c0 dc ea 6e 3e bb 28 63 3d 3f 0d 48 3e 95 63 ce 3d
       0.23331779 0.055458765 0.19536303 0.100775875
0000d0 59 64 13 be f6 05 ad 3d 62 8d 76 3d 69 18 79 3d
       -0.14393748 0.084484026 0.060193427 0.060814295
0000e0 11 75 c4 bd 63 16 08 bd 5b 55 a8 bc c8 af 96 3d
       -0.09592641 -0.033224475 -0.020548513 0.07357746
0000f0 1f 56 30 3e 34 8d 38 bd e2 41 ae 3d 99 60 45 3e
       0.17220353 -0.045056537 0.0850866 0.1927513
000100 d4 83 6c bd 54 bc 3b 3e e3 33 8b bd 03 06 9d bd
       -0.05774291 0.1833356 -0.06797006 -0.07667162
000110 56 a8 1a 3e 77 85 0c be 2d 99 ea 3b b2 09 05 3e
       0.15103278 -0.13722788 0.0071593733 0.1299198
000120 23 99 22 3d f2 6c 68 3d b9 ad b4 3d c7 fe 0a be
       0.039696824 0.056744523 0.088221975 -0.13573752
000130 df e9 1f bd 25 38 29 3e 44 a8 ea bc c6 b4 c7 bd
       -0.039041396 0.16525324 -0.028644688 -0.09751277
000140 63 5a 6f 3e b2 6c 17 be f6 c9 95 bd 85 f2 18 3e
       0.23374324 -0.14787558 -0.073139116 0.14936264
000150 4f 68 ee 3d 7d 61 e6 3c 8c 80 b5 bd 39 bd a6 3d
       0.11640989 0.028122658 -0.08862409 0.0814156
000160 86 46 1b 3d 91 fb f9 3d df 02 30 3e 04 de 19 3e
       0.037909053 0.122061856 0.17188595 0.15026098
000170 6b bd 4b 3d 25 ad 44 3d ae 4c 26 3d 7b 07 14 be
       0.04974119 0.048016686 0.04060047 -0.14455979
000180 6c 9f 96 bb 7b 77 10 be 8e ec 68 3c d4 20 72 3e
       -0.0045966413 -0.14108078 0.014216555 0.23645335
000190 a7 f9 a6 3c f7 07 4f 3e 02 50 08 be a0 37 c8 3c
       0.020382715 0.20217882 -0.1331177 0.024440587
0001a0 4f e0 bb bc 4e 4d 8f 3e 20 9a 0f 3e 7d 13 21 3e
       -0.022934107 0.27988666 0.14023638 0.1573009
0001b0 7d c0 c0 3c dd 78 dc bc 54 bc 8c 3c 5e 9c 71 3e
       0.023529286 -0.0269131 0.017179646 0.23594806
0001c0 41 5f 14 3e 66 ae ed 3d 45 3b 5c bc 7a 22 9c bd
       0.14489461 0.116055295 -0.013441865 -0.076237634
0001d0 9a 87 36 3e 05 46 c2 bc de ad 87 3e 7d 55 28 3c
       0.17825165 -0.023715029 0.26499838 0.010274288
0001e0 30 75 2d bd 6f f9 35 bd e0 16 77 bd 94 fe c4 bd
       -0.042348087 -0.04442733 -0.06032455 -0.096188694
0001f0 9f 6d 75 3e 5a fe c2 3d f2 44 00 bc 8a 58 9d 3d
       0.23967598 0.0952117 -0.007828938 0.07682903
000200 a5 55 e9 3c 1c f6 06 3e a6 b1 8d 3e 25 03 05 3e
       0.028483221 0.13179821 0.27674598 0.12989481
000210 e3 8f 62 3e e9 c9 84 3d 20 1a da bd 99 65 63 bc
       0.22125201 0.06483824 -0.10649514 -0.013879203
000220 ff 7f 31 be 9f 53 b7 bc ad f8 e3 3d 94 28 db bb
       -0.17333983 -0.02237874 0.111314155 -0.006688187
000230 13 e4 90 3d 8a 7a 13 be d7 37 50 3d b2 c2 64 bd
       0.07074752 -0.14402214 0.050834503 -0.05584974
000240 21 76 cb 3d 34 8b 5b 3e b2 39 7d bd 48 3e 86 3e
       0.09934641 0.2143982 -0.0618226 0.26219392
000250 38 85 50 3e f0 ab 71 3e ef c4 ea bd 29 1f 32 3e
       0.20363319 0.23600745 -0.11463343 0.17394699
000260 08 14 d4 bd 88 30 e8 3c 7d a5 da 3d ff 51 01 be
       -0.10355383 0.028343454 0.10676096 -0.12628935
000270 d0 5b e0 bc 5c ce c0 bd b2 52 21 be b2 99 08 be
       -0.02738753 -0.0941436 -0.15754202 -0.1333988
000280 70 eb 3c 3b de 65 12 3d 98 ab 31 3e 73 e7 ca bd
       0.0028826855 0.03574168 0.17350614 -0.09907427
000290 c0 45 58 bd 96 b8 0e be c4 26 a8 bd 44 0e a0 bd
       -0.052800894 -0.13937601 -0.08210519 -0.07815221
0002a0 9e 1c d5 3d 71 15 2d 3e 02 08 20 3e 96 f1 20 3e
       0.10405849 0.1690271 0.15628055 0.15717158
0002b0 27 42 ea 3d 55 72 05 be dc 5c 1d bd f0 01 08 bd
       0.11438399 -0.13031895 -0.038418636 -0.033204973
0002c0 e0 5d 70 3c 01 96 30 3d 06 19 83 3e 35 1f 0f 3e
       0.014670819 0.043111805 0.2560503 0.13976748
0002d0 fa 7d dc bd 05 e6 1a bd 0e 6d de bd a6 62 07 be
       -0.107662156 -0.03781702 -0.10860644 -0.13221225
0002e0 92 80 6e 3e d7 ef 40 3e a2 b3 14 be 3d 8f 3f bd
       0.23291233 0.18841492 -0.1452165 -0.046767462
0002f0 97 cf d9 bc 2f 17 6d 3e ca fe 69 3b 50 1e 02 be
       -0.026588244 0.23153375 0.0035704845 -0.12706876
000300 2f 2a 2e 3e 54 74 88 3d 07 70 c5 bd 81 f3 08 bc
       0.1700828 0.06662813 -0.09640508 -0.008358837
000310 d6 86 2a 3e 75 d0 94 bd 72 67 ae 3e af 80 34 3e
       0.16652998 -0.072663225 0.34063298 0.17627214
000320 68 96 82 3e 0b 62 6a 3e 18 55 04 be e3 6e 81 bd
       0.25505376 0.22888963 -0.12923086 -0.06319978
000330 13 83 f7 3b c9 37 77 3e 53 83 b3 3d 1e 9b c6 3d
       0.007553467 0.24142374 0.087652825 0.09697555
000340 02 9d 41 3e b3 cd 84 39 4c 4d 6d 3e f2 db a3 3d
       0.1890755 0.0002533026 0.23174018 0.080009356
000350 6e 60 3f 3e 5d 6f 38 be c3 7d 6a bd 03 42 99 3e
       0.18689129 -0.18011232 -0.057248842 0.29933175
000360 e9 53 ba 3d 51 cd 32 3e 70 a6 64 bd 3d 9d 97 3e
       0.09098036 0.17461134 -0.05582279 0.2961215
000370 7b fe 5e 3e 60 16 bc bc 1e 77 05 3e 72 b9 db 3d
       0.21776764 -0.022959888 0.13033721 0.1072873
000380 c3 95 d9 3d 3d 11 6e 3e 20 1b 22 3d b9 0a e2 3d
       0.10624268 0.23248763 0.03957665 0.110372014
000390 9d 35 3c 3e 79 31 71 bc 2b 28 9b 3d 9c 1c de bc
       0.18379827 -0.014721268 0.07576021 -0.027113251
0003a0 ac 2c 8f bb 08 c4 fe bd 35 a5 e1 bd 5d 60 06 be
       -0.004369339 -0.12439734 -0.11017839 -0.13122697
0003b0 3e 3b 86 bd d6 e3 b1 3d 82 10 48 3c f2 f6 39 3e
       -0.06554268 0.086860344 0.012210967 0.18160608
0003c0 9b cd 02 3e 18 8e ff 3d 7f 34 a9 bd d4 55 38 3e
       0.12773745 0.12478274 -0.08261966 0.18001491
0003d0 fa d4 d3 3d 81 ba 3c 3e 52 df 04 be ab 74 f5 bd
       0.103433564 0.1843052 -0.12975815 -0.11985143
0003e0 ef ff f7 bd 4f 9f 56 3c 9e 87 99 3d 2e d9 c6 ba
       -0.12109362 0.013099506 0.0749657 -0.0015170926
0003f0 82 88 b3 3e a7 5d 1c be 62 46 2b bd 99 52 4a be
       0.35065085 -0.152701 -0.04181517 -0.19758071

network.2.weight f4 [256, 256]
000000 1a 25 8b be 1d bb 84 3d c7 98 fb bd 3c f9 ac 3b
       -0.27176744 0.064810015 -0.12284999 0.0052787345
000010 94 82 be 3d b5 e5 0c 3e a5 12 83 3d bf 97 34 3d
       0.093022496 0.13759501 0.064000405 0.04409003
000020 8f 5b cf 3b 04 3a e9 bc 8d e4 d6 be db 08 fb bd
       0.0063280533 -0.028470047 -0.41971245 -0.122575484
000030 f2 00 bf 3d 95 07 3b 3c 4c f8 45 3e 55 7e c9 3c
       0.09326352 0.011415382 0.19332999 0.024596373
000040 fc 55 2a 3d 1f 4c e2 3d 64 0e 32 bd b7 38 c7 3d
       0.041585907 0.11049675 -0.043470755 0.097276144
000050 11 81 d7 bc f0 39 b0 3d 52 87 7f 3d 4b ba 83 3c
       -0.02630666 0.08604801 0.06238491 0.016080042
000060 14 75 0c bf 4c 03 96 be 68 8d 31 3c b2 df 01 bb
       -0.5486615 -0.2929939 0.0108369365 -0.001981717
000070 2d 33 f1 3d 4e a7 e1 3d 2e 52 44 bc 69 fb fc 3d
       0.11777339 0.11018239 -0.011982484 0.1235264
000080 41 e7 9e be 94 69 7d bd af 97 bd be 39 35 8e be
       -0.31035808 -0.061868265 -0.37029788 -0.2777498
000090 47 48 cf bc 50 08 5b 3d 65 68 a0 bc 29 89 7b 3d
       -0.02530302 0.053474724 -0.01958103 0.061410103
0000a0 d3 64 2c 3d 7e aa 81 3d 2a ec f9 3c 11 d4 40 bc
       0.04208834 0.06331347 0.03050812 -0.011769311
0000b0 cf 5c 87 3d 41 db 1c be 57 ca 20 3d 46 60 be 3d
       0.06609499 -0.15318014 0.039255466 0.092957065
0000c0 29 79 7c 3d ce d6 f6 3c 6f 28 41 be 7e fe 8f 3d
       0.061638985 0.030131724 -0.1886308 0.070309624
0000d0 e3 1f 18 3d cf f5 18 bd e3 82 86 be eb 8f 6d be
       0.037139785 -0.037343796 -0.26271734 -0.23199432
0000e0 78 78 91 be 07 64 ee be 38 d9 21 be db 22 26 bc
       -0.28412223 -0.4656069 -0.15805519 -0.010140146
0000f0 05 1d 15 3d 2c 03 78 3d 6a 0d aa 3d 8a e1 b1 be
       0.03640463 0.0605499 0.0830334 -0.34742385
000100 57 c9 41 bd 03 dd 3f 3d ef 97 20 3d 6a e1 52 3d
       -0.047311153 0.046841633 0.039207395 0.051484503
000110 72 86 a0 3d 2a 94 53 be 3a cc fa 3c 21 54 89 be
       0.078381434 -0.20661989 0.030614961 -0.26821998
000120 fb bc 30 3d c9 e5 64 be c4 68 18 3d 3b 52 0a be
       0.043148976 -0.22353281 0.037209287 -0.13507931
000130 b7 22 0d bd 29 d6 2c bc 80 72 0b bc 97 fd 17 bf
       -0.034456935 -0.010549107 -0.008511186 -0.5937132
000140 7f bf fc bc cd c7 ca 3d 0c 79 00 be 5a da a1 3d
       -0.030853031 0.0990139 -0.12546176 0.079029754
000150 0b c5 82 3d 9e f7 10 3e 3f 64 04 be 51 22 e9 3d
       0.06385239 0.14156958 -0.12928866 0.113834985
000160 fd 67 d5 3d 59 ab e8 3d e5 d4 11 3d 1c 40 4e be
       0.10420225 0.11360807 0.035603423 -0.20141643
000170 89 01 f9 3d b4 b2 0b 3e fc 3a a0 bd c3 b1 6d be
       0.12158496 0.13642389 -0.078237504 -0.23212342
000180 97 c6 63 3c b6 40 9a be 92 49 0e 3d 72 62 87 bd
       0.013902328 -0.30127496 0.03473813 -0.06610574
000190 c4 d9 40 be 9a 9d 5c 3e 07 b4 10 be 0e ff 9d 3d
       -0.18833071 0.21544495 -0.14131175 0.077146634
0001a0 0a 2f e0 bc d4 cf 8d 3d 63 54 f6 3c 94 5a c8 bb
       -0.02736618 0.06924406 0.030069536 -0.0061143134
0001b0 90 52 9a be 5a d0 f3 3d bc 9f 1f bc 27 71 03 bc
       -0.30141115 0.11904974 -0.0097426735 -0.008022583
0001c0 65 dc ad 3d 2b 3f ab 3c f4 84 3c 3d 41 ce 46 bc
       0.084893025 0.020904144 0.04602523 -0.012134136
0001d0 2a 86 48 be f0 29 7f 3d 88 36 7f 3d 14 62 85 3c
       -0.1958243 0.062295854 0.062307864 0.016282119
0001e0 f9 17 66 be 65 a6 ff 3d 21 b3 42 3c 5d da ba bb
       -0.22470082 0.12482909 0.011883528 -0.0057023005
0001f0 e7 18 1f 3d 84 ae 80 3d 05 52 11 3d 3b ed 8b 3c
       0.038842108 0.06283286 0.03547861 0.017080894
000200 a4 95 73 3d b0 a9 6a 3a 01 93 32 3d 5b fb d3 bc
       0.05946888 0.0008951677 0.043597225 -0.025876692
000210 38 41 72 bd da 9e a1 3d 55 45 94 3d 80 15 88 3d
       -0.05914423 0.07891627 0.072397865 0.06644726
000220 41 74 bd be e8 60 a7 3d b1 07 4c 3c cd 93 82 3c
       -0.37002757 0.0817278 0.012453006 0.015939618
000230 40 66 73 bc b7 0f 46 be d8 cb fa 3c 26 31 ee 3d
       -0.014855921 -0.19341932 0.030614778 0.11630468
000240 f7 59 86 3c ee 26 e3 bc 32 fd b5 3d ad 1e 34 3c
       0.01640032 -0.027728524 0.08886184 0.010993642
000250 b9 3e 45 3d c4 0d 0c 3c ec e5 5a 3d 0f c7 f7 3a
       0.04815552 0.008548204 0.053441927 0.0018903929
000260 67 95 0c be 82 61 d2 3b 73 d9 40 3d 6b db 16 3d
       -0.13728867 0.0064203152 0.047082376 0.036830347
000270 29 28 4d 3d 80 46 04 bd 9b 60 54 bd 11 1e b5 3d
       0.050087128 -0.032293797 -0.051849943 0.08843625
000280 8f 04 24 bd 6c d0 7b bd de 1f c3 3d 65 49 d1 3d
       -0.04004341 -0.061478063 0.095275626 0.10219077
000290 ba 33 63 3c 60 4b d1 3d 13 7c 31 3e 4a db b7 be
       0.013867313 0.10219455 0.17332487 -0.35909492
0002a0 75 02 a4 bd 7f 97 23 be dd 8e c7 3c 6b 8c f4 3d
       -0.08008281 -0.1597576 0.024360115 0.11940845
0002b0 fc e9 4c be d8 ab 4f be ba 65 27 3d 00 91 72 be
       -0.20011133 -0.20280397 0.0408685 -0.23688126
0002c0 65 2e e8 bd b4 cc d3 3d 49 55 83 3b 26 2a 9e be
       -0.11336974 0.103417784 0.0040079695 -0.30891532
0002d0 50 ad 25 be 72 20 0b 3d 74 12 98 bd 75 e3 02 be
       -0.16179395 0.03396649 -0.07425395 -0.1278208
0002e0 c0 76 04 3d 3f 51 3e 3d 12 37 fe bd da 23 d4 3d
       0.03233981 0.0464642 -0.124128476 0.10358401
0002f0 77 1d c6 bc b5 8b 08 3d d4 c3 d0 3c d3 e9 ac 3d
       -0.024183972 0.03333636 0.025484003 0.08443036
000300 47 f3 10 be 78 39 47 3d be b5 ee bd 8f 37 c1 bc
       -0.14155303 0.04863879 -0.11655758 -0.023586063
000310 26 6d 02 3d d5 35 20 be b1 e9 79 3e f6 d8 9f 3d
       0.031842373 -0.15645535 0.24405552 0.07805054
000320 dd 1c 66 bc 13 28 d8 3d 0e a7 8f be c2 b5 d1 3d
       -0.0140449675 0.105545186 -0.2805714 0.10239746
000330 e3 1f c6 bb 90 8f d0 bd 8c ff 75 bd 8d 54 28 3e
       -0.0060462817 -0.101836324 -0.06005816 0.16438504
000340 51 a3 92 3d 6e 3e 4e 3c d7 a9 2f 3d 0a 1b f8 bd
       0.071600564 0.012588127 0.04288658 -0.12114532
000350 f8 63 ce 3d 33 13 66 bd 07 dc d8 bc 8a 6e 0d 3d
       0.10077661 -0.056170654 -0.026472105 0.034529246
000360 2f 0b e4 3d 68 66 80 3d 3f bc 98 bd 68 f2 37 3d
       0.111349456 0.062695324 -0.0745778 0.04490891
000370 84 02 9e 3d 5b 9a 78 3b c4 ec d3 3c 97 18 e3 bc
       0.077153236 0.00379338 0.025869735 -0.027721686
000380 9b 0e 0f bd 90 e7 a7 3d f7 56 7c be 92 12 ae 3b
       -0.03492604 0.08198464 -0.2464255 0.0053122723
000390 83 3a 33 3d 01 e4 a6 3c 81 5e 8f bc 0f 31 5c be
       0.043756973 0.020372393 -0.017501118 -0.2150309
0003a0 fe f4 77 bc e6 65 8a be 7c 97 10 3d a8 02 0e bf
       -0.015134094 -0.27030867 0.035300717 -0.55472803
0003b0 3a ab 25 bd b3 8d 8b be 52 44 e3 3c 1a a0 6e be
       -0.040446497 -0.27256545 0.027742539 -0.23303261
0003c0 92 73 ab 3d 95 91 3b 3d a5 85 97 be a9 87 80 3d
       0.08371653 0.045793135 -0.2959415 0.06275875
0003d0 3c 18 fe 3c 78 75 41 3d 52 d4 c5 bc f4 b3 06 bd
       0.031017415 0.047231168 -0.024149094 -0.03288646
0003e0 6a e6 b8 3d ed 21 21 bd e2 95 0d 3d 62 9f 5a bd
       0.09028323 -0.039338995 0.034566768 -0.053374656
0003f0 44 7b cd 3d 93 0a de bd 87 c2 8c bd 20 9c 9b 3c
       0.10033277 -0.108418606 -0.06873041 0.018995345

network.2.bias f4 [256]
000000 86 d0 17 3d 4d 53 16 bd 16 c6 48 3d ef 58 89 3d
       0.037064098 -0.036700536 0.049017034 0.06706416
000010 9f ff 7d 3d 82 db 06 bd 75 b3 0c 3d ab c6 16 bc
       0.062011357 -0.032924183 0.03435083 -0.00920264
000020 a3 4a d9 bc 84 4b 6b 3c 77 c1 45 bd 36 bb a0 3d
       -0.026524847 0.014361266 -0.048280206 0.07848208
000030 41 a7 1a 3d 37 76 5f 3d 86 07 62 bd 3b 67 59 3c
       0.037757162 0.054556098 -0.055182956 0.013269241
000040 37 c4 17 be df 77 54 3d e3 7d 28 be 95 90 b6 3d
       -0.14820944 0.05187213 -0.16454272 0.089142956
000050 df 4c 71 bd be 5f 04 bc e7 f0 b9 3d d3 96 45 3d
       -0.0589112 -0.008079467 0.090791516 0.04823954
000060 58 8c d1 3c be b1 ab 3d 84 c9 c3 3d 0e e9 9d ba
       0.025579616 0.08383511 0.095599204 -0.0012047605
000070 8b b3 00 3d 33 76 8e 3d 4f 8f 94 bc 89 14 e2 3d
       0.031421226 0.069561385 -0.018134741 0.11039073
000080 13 43 99 3d 20 ea c2 3c a6 89 98 3d 83 53 ec 3c
       0.074834965 0.02379328 0.07448129 0.028848415
000090 3d f1 d5 3d 06 f8 e7 bb 31 2b ed 3d 37 43 87 3c
       0.10446403 -0.0070791272 0.11580504 0.016511543
0000a0 36 8e b9 3d d3 c8 f7 3c 22 d4 0c 3d b0 f9 c2 3d
       0.09060328 0.030247128 0.034381993 0.0952028
0000b0 3e 14 01 3d b8 9a 5e 3d 72 5f 4c 3d b3 64 b8 3d
       0.031513445 0.05434677 0.04989571 0.09003582
0000c0 4e 17 31 3d e2 39 0b 3b 0c e6 b4 3d 46 90 89 3d
       0.043235116 0.0021244218 0.088329405 0.06716971
0000d0 01 fe 13 3d 68 69 e4 3d 5a 23 8b bc 89 dd dd 3d
       0.03613091 0.11152917 -0.01698463 0.1083327
0000e0 ed 2a 09 bd 9c 76 f1 3d fa 46 e8 3c 28 f7 d0 3d
       -0.033488203 0.11790201 0.028354157 0.10203391
0000f0 bc 6b a4 3d e8 f8 f1 ba ff dc 61 3d 1c 4a 2b 3d
       0.08028361 -0.0018461021 0.0551424 0.041818723
000100 1c ba 23 3c f4 62 9a 3d c7 e6 87 3d ba ec 1a bd
       0.009993102 0.07538405 0.06635814 -0.037823416
000110 ec 26 3f 3d 2b 78 be 3d 2e 46 79 3b d1 b2 f0 3d
       0.04666798 0.09300264 0.0038036215 0.117528565
000120 91 14 b8 3c 23 4c 40 3d 71 7b 8e 3d 0a 5d cb 3d
       0.022470744 0.04694761 0.06957138 0.09929855
000130 fb 20 6f 3d 4b 72 3c 3d 03 b8 cd 3d 69 90 d4 3d
       0.058381062 0.046007436 0.10044863 0.103791066
000140 68 17 a0 bb 2c 82 86 bc 69 0a 06 3d b2 37 6b 3d
       -0.0048856027 -0.016419493 0.03272477 0.057426162
000150 65 aa 99 3c 07 20 73 3d 4a 99 2a 3d a8 e3 87 3d
       0.018758008 0.059356716 0.041650094 0.06635219
000160 56 da 6e bd 88 12 d1 bc 86 87 96 3d 8e 54 43 3a
       -0.05831369 -0.025521532 0.07350068 0.00074512593
000170 6b 9a 9a 3d 6d 21 99 ba e4 eb c6 3d ba 00 11 bc
       0.07548984 -0.0011682935 0.09712961 -0.008850271
000180 3c 1d aa 3d 20 23 21 3d 66 ec 83 3d b1 de 41 bd
       0.08306357 0.03934014 0.06441574 -0.047331516
000190 90 dc 00 3c ed c5 a4 3d 46 f3 8e 3d 15 10 1b bd
       0.007865086 0.08045564 0.069799945 -0.037857134
0001a0 56 33 b3 3b c3 8e 5d 3d 64 84 9f 3d 96 a5 9f 3d
       0.005468766 0.054091226 0.077889234 0.07795255
0001b0 51 ae 5c bd ec 20 a3 3d 9d 0d 0d 3d 95 1e 94 3d
       -0.05387718 0.07965264 0.03443681 0.072323956
0001c0 55 05 e8 3b 69 69 af 3d 3b 4a a7 3d 99 a7 53 3d
       0.0070807138 0.08565027 0.08168455 0.051673505
0001d0 aa d9 07 3c d6 78 e6 3b 72 c5 bb 3d b3 d9 5c 3c
       0.008291641 0.0070334477 0.09168519 0.013479638
0001e0 b7 63 85 3d 78 f0 63 3d 41 96 b2 3d 25 51 a4 3d
       0.0651316 0.05564925 0.08720065 0.080232896
0001f0 d8 d2 85 3d b4 37 bc 3d 11 68 f4 3c d7 30 58 3d
       0.06534356 0.09190312 0.029834779 0.052780952
000200 13 f9 f4 bc 0f 4c b3 3d 50 5f b1 3d 9d fd 1c 3d
       -0.029903924 0.087547414 0.086607575 0.038327802
000210 c3 06 3a 3d 61 60 92 bc 04 5b de 3d b7 77 81 3d
       0.045416605 -0.017868223 0.108572036 0.06321662
000220 cf e7 42 3d 21 1b 88 3d 09 3f 90 3d bb 61 fa 3b
       0.04758435 0.066457994 0.07043273 0.007641045
000230 2d c8 3e 3c bf 9c 23 3d d0 dc 30 3d e8 d8 5b 3a
       0.011644405 0.039944407 0.043179333 0.00083865086
000240 0e 01 ad 3c 47 3f e2 3b 52 aa 63 3d 7d d9 99 3d
       0.021118667 0.006904516 0.055582352 0.07512186
000250 30 76 60 3d bf e2 12 bc 80 e9 93 3c c0 d5 4c bc
       0.054800212 -0.008965193 0.018055677 -0.012502134
000260 07 82 ab 3d 2d bd 93 3d fb 52 9a 3d a7 6a 27 3d
       0.0837441 0.07213817 0.075353585 0.040873196
000270 7f 4a 84 3b ed a5 ad 3c d8 3d bf 3d 29 b0 0f bd
       0.004037201 0.021197284 0.09337968 -0.03508011
000280 85 47 2b bd 4f d6 76 3d 12 c0 09 3d 03 62 b1 3b
       -0.041816253 0.060262974 0.03363044 0.0054132952
000290 17 88 2e bd f8 97 cf 3c 0c 8e b4 3d 51 0e f4 bc
       -0.042610254 0.025341019 0.08816156 -0.029791983
0002a0 d7 b7 85 3c da 72 3f 3d 55 75 65 3d c0 dc 0c 3d
       0.016323013 0.04674039 0.0560201 0.03439021
0002b0 8d 32 60 bb 0f 08 66 3d 9a 8a d2 bb 85 d6 13 3d
       -0.0034209818 0.05616003 -0.006425214 0.036093254
0002c0 15 29 f5 3c 63 a9 d4 3d 37 6e 42 3d 07 05 27 3c
       0.029926816 0.103838705 0.04746839 0.01019407
0002d0 99 7b 8b bc 89 31 30 3d fe c7 f1 3b 96 54 2a 3d
       -0.01702671 0.04301599 0.0073785773 0.041584574
0002e0 c2 ec 2e bc f2 7c 4b 3d 10 68 7f 3d db 5d 23 bc
       -0.010676565 0.049679704 0.0623551 -0.009971107
0002f0 75 ef e9 3a 74 d7 c6 3d b8 dd ba bb f5 91 b4 3c
       0.0017847853 0.09709063 -0.0057027005 0.022042254
000300 3f 9a c1 3d 49 80 5d 3d 7b a4 e4 3d 32 59 ac 3d
       0.09453248 0.05407742 0.11164185 0.0841545
000310 a4 9b 55 bc d0 6e ba 3d e6 97 59 3d eb b4 66 bd
       -0.013037596 0.09103167 0.053123377 -0.05632488
000320 60 94 46 3d ed 2e 83 3d a1 72 9e 3d 1b 90 56 3d
       0.048481345 0.06405435 0.077367075 0.052383523
000330 80 d0 d5 3c bb 95 32 bd 09 16 a2 3c 32 98 db 3d
       0.026100397 -0.043599825 0.019785898 0.10722388
000340 e4 37 28 3d c5 7c c2 3b eb 8b b7 bb 6a a5 ba 3b
       0.041068926 0.005935284 -0.0056013963 0.0056959884
000350 a9 79 fb 3d 92 68 83 3c ed 22 b2 3d 29 fc f6 bc
       0.12279064 0.016041074 0.08698068 -0.030149536
000360 85 60 28 3d 4a 17 c8 3d 82 e1 9b 3d 47 82 e2 bb
       0.041107673 0.09770067 0.076113716 -0.006912503
000370 92 65 00 3b f2 cb 9a 3d 5c 9b 52 3d e0 fc 14 3d
       0.001959179 0.07558431 0.051417693 0.036373973
000380 15 eb fc 3c c4 64 35 3d f8 71 c2 bb d1 84 fe bc
       0.030873815 0.04428555 -0.0059339963 -0.031069191
000390 49 03 02 3d 32 70 a5 3d 50 47 a0 3d 4f 75 45 3c
       0.031741414 0.0807804 0.07826102 0.012051894
0003a0 73 5b c1 3d 5c da 5b 3c 51 2a 9c 3d be ca 40 3d
       0.09441271 0.01341876 0.07625259 0.04706835
0003b0 44 18 cf bb 13 3a 13 be 2d e4 1b 3d dc 06 a1 bd
       -0.0063200314 -0.14377622 0.038059402 -0.078626364
0003c0 d4 6e e1 3d 18 5b cd 3c c4 1a 87 bd c7 c2 d5 3d
       0.11007467 0.025067851 -0.06596902 0.104375415
0003d0 be 7d ac 3d 06 05 94 3b a4 87 ec 3a c4 73 e2 3d
       0.08422421 0.0045172004 0.0018045795 0.11057237
0003e0 ec 03 8c 3d 04 d7 c4 3d 8f 9f 65 3d 0d a9 8c 3d
       0.068366855 0.096113235 0.05606037 0.068681814
0003f0 a3 ae 89 3d 8d 7c 5c 3d ad d0 b2 3c 01 6b 63 3d
       0.067227624 0.05382972 0.02182802 0.05552197

network.4.weight f4 [1, 256]
000000 b9 91 18 be e4 aa 50 3c f3 a2 42 be fc c0 26 be
       -0.14899339 0.012736056 -0.19007473 -0.16284555
000010 c5 f8 49 be 79 1f 5d 3c 92 c6 47 3e 5b dd 43 be
       -0.19723804 0.013496273 0.19509342 -0.19127409
000020 97 75 94 3e 7f 74 32 be 6e 95 3b 3d c3 ae 43 be
       0.28995964 -0.17427252 0.045796804 -0.19109635
000030 fe 19 34 be c7 ab a0 3c 6e ae d2 3a 42 6d 40 be
       -0.1758804 0.01961316 0.0016073713 -0.18791679
000040 77 c7 dd 3e 52 27 2d be 58 08 d7 3e 1a b9 37 be
       0.43316242 -0.16909531 0.41998553 -0.17941704
000050 0c b3 08 3d 40 8c a3 be 8f d7 27 be fb cc 57 3e
       0.033373877 -0.3194294 -0.16390823 0.21074288
000060 80 63 52 be aa 28 3b be 6f 72 1e be ac 7d 63 3d
       -0.20545769 -0.18277231 -0.1547334 0.055539772
000070 34 22 35 be 65 06 33 be 54 3f 2f be 89 70 64 be
       -0.17688829 -0.17482908 -0.17114002 -0.22308554
000080 03 9b 76 3e 6b 47 48 3e 09 f8 37 be a6 6f 23 3e
       0.2408257 0.19558494 -0.17965712 0.15960559
000090 db 3e 53 be 45 b0 71 3c 18 3e 2f be 3d de 03 3d
       -0.20629446 0.014751499 -0.1711353 0.032194365
0000a0 ea 28 53 be e0 eb 2c be ef 46 b5 3c be ec 15 be
       -0.20621076 -0.16886854 0.02212855 -0.14641091
0000b0 84 2c 6d 3c 9a 2d 43 be 44 cd 0a be 90 fd 4a 3e
       0.014475945 -0.19060364 -0.13554865 0.19823289
0000c0 e8 d2 2a be d5 72 12 be de fd 26 be 25 65 6f 3e
       -0.16682017 -0.14301617 -0.1630778 0.23378427
0000d0 0c 42 49 be e0 1b 4a be c3 ad 79 3d b7 2b 5c be
       -0.19654101 -0.19737196 0.060956728 -0.21501051
0000e0 bb a8 3a 3d 16 d4 4d be 96 1e 61 be fe 40 2f be
       0.04557107 -0.20100436 -0.21984324 -0.17114636
0000f0 d9 02 35 be a0 38 4b be ac 98 43 be d1 19 9e 3c
       -0.17676868 -0.1984582 -0.19101208 0.01929942
000100 83 f6 23 be 77 fc 24 3e 56 f5 2e be 00 a9 33 3d
       -0.16012006 0.16111933 -0.17085776 0.043862343
000110 74 fe 60 3e 14 c3 46 be d4 13 42 be cd 3c 15 be
       0.21972066 -0.19410354 -0.18952876 -0.14573975
000120 95 da 66 3e 4e 51 67 be 67 3b 48 3e 72 46 4f 3e
       0.2254432 -0.22589609 0.1955391 0.20241717
000130 00 cd 86 3e 18 d9 55 be 6e 19 59 be 4a 97 14 be
       0.26328278 -0.20883596 -0.21201107 -0.14510837
000140 0a c9 43 3d 3a 70 5e 3e 61 4b 74 3e 5d 67 09 be
       0.047799148 0.21722499 0.2385688 -0.13418336
000150 b2 5f 13 be ba 3e 3f be 25 60 59 be 7e 84 19 be
       -0.14391974 -0.18676272 -0.21228082 -0.14991948
000160 89 95 36 3d a0 23 99 3b 4f ec 28 be 8b 20 48 be
       0.0445762 0.0046734363 -0.16496395 -0.19543664
000170 6f 1c 01 be b5 7e 35 3e ea 8c 07 be 5d c5 13 be
       -0.12608503 0.17724116 -0.13237348 -0.14430757
000180 55 ef 3f be 05 4e 75 3e e7 a0 30 be bf b3 1a 3d
       -0.18743642 0.23955543 -0.1724888 0.037769075
000190 d9 57 5d 3d 30 8a 5a 3e e4 ba 75 3e 4b 64 00 3d
       0.054038856 0.21341777 0.23997074 0.031345647
0001a0 57 9f 23 be a6 ab 13 be 79 2a 31 be 15 c2 57 3e
       -0.15978752 -0.14420947 -0.17301358 0.2107013
0001b0 83 40 1f 3d ef d5 2f be ac 1b 22 be 76 8e 22 be
       0.038879883 -0.17171453 -0.15830868 -0.15874657
0001c0 4a 39 82 3e ed 0f 4d be c8 8d 51 3e 1f 96 4f be
       0.25434333 -0.20025606 0.20464242 -0.2027211
0001d0 9e fb 76 3e a6 dd 7d 3e a7 f9 64 be 34 b6 09 be
       0.24119422 0.24791583 -0.2236086 -0.13448411
0001e0 62 91 56 be 5d 83 82 3e e9 b4 6b 3e 64 29 5a 3e
       -0.20953897 0.25490847 0.2301823 0.21304852
0001f0 84 ee 58 be 2e 43 80 be c3 6e 16 3b 26 40 4e be
       -0.21184736 -0.25051254 0.0022954203 -0.20141658
000200 e5 f7 64 3d 23 a4 7c 3e 41 09 33 be b6 df 72 3e
       0.055900473 0.24671988 -0.17483999 0.23718151
000210 fe ac 52 3e a3 23 5a 3e 45 3a 78 3e ba ce 89 be
       0.20573804 0.21302657 0.24240978 -0.26915532
000220 d2 70 70 3e c4 fa 28 be 65 e9 26 be b2 08 2d 3c
       0.23480538 -0.1650191 -0.1629997 0.010561155
000230 87 89 2c be 56 a6 40 be 98 7b 42 3e fc 50 35 be
       -0.16849338 -0.18813452 0.1899246 -0.17706674
000240 55 10 4f 3d a7 42 01 3d 07 91 e2 3c 28 bc 49 be
       0.050552685 0.031557705 0.027657045 -0.19700682
000250 bd 01 1f be 8a 37 1d be 92 ce a6 3c d5 5e 13 be
       -0.15528007 -0.15353218 0.020362172 -0.14391644
000260 c8 e2 5d 3e 27 1b 37 3e c2 ec 7d 3e 5b 7a 3b be
       0.21668541 0.17881452 0.24797347 -0.18308394
000270 a6 cf 57 3e ba 9d 3d be 90 8c 14 be e3 27 0c 3d
       0.21075305 -0.18517199 -0.14506745 0.034217726
000280 11 22 03 3b 0c 21 15 be c3 35 1f be 7d 05 1a be
       0.0020009319 -0.14563388 -0.15547852 -0.15041156
000290 09 cf 3c 3d ae 25 16 be 0b 98 83 3e 67 10 0d 3c
       0.04609588 -0.14662811 0.25701937 0.008609868
0002a0 e8 94 78 3e e3 cc 3b 3c f6 4e 58 be 5b 6c a7 be
       0.24275553 0.011462423 -0.21123871 -0.32699856
0002b0 38 7d 51 3e 34 7c 63 3e a7 12 6b 3e 0d 50 71 3e
       0.20457923 0.22215348 0.22956334 0.23565693
0002c0 a5 b2 40 be 82 15 4f be dc fb 39 be 99 e2 30 be
       -0.18818147 -0.20223048 -0.18162483 -0.1727394
0002d0 56 9f 13 3d 3d ba af 3b 83 47 46 be aa 30 49 be
       0.036040626 0.0053627775 -0.19363217 -0.1964747
0002e0 50 15 9f 3c 65 fd 51 be 82 be 28 be af 96 81 3e
       0.019419342 -0.20506819 -0.16478923 0.25310275
0002f0 e5 86 64 3d 15 f1 54 be 78 e2 62 3d 1f e1 59 be
       0.055792708 -0.2079509 0.05539176 -0.21277283
000300 e4 b6 49 be 81 fa 24 be 2d c5 1e be 25 e8 3c be
       -0.19698673 -0.16111185 -0.15504904 -0.18447931
000310 14 de 36 be 5c fe 35 be af bd 82 be ed 6a 6a 3d
       -0.17858154 -0.17772812 -0.25535342 0.05723088
000320 e1 8e 53 3d 82 1b 3b be 9d 4e 5f 3e b1 b2 14 be
       0.05164993 -0.18272212 0.21807332 -0.1452129
000330 70 6c 6d 3d ef 71 1e 3d 41 a9 34 be de 29 2c be
       0.057964742 0.038682874 -0.1764269 -0.16812846
000340 cd e2 3d be 3f 75 5a 3c fd aa 74 3e 07 87 1a be
       -0.18543549 0.013333618 0.23893352 -0.15090571
000350 dd 07 3d be 1f 5b 37 be 8e 1e 11 be b3 70 74 3d
       -0.18460031 -0.17905854 -0.14171812 0.05967779
000360 92 0f 42 be bd e2 34 be 40 64 41 3e 7b cf 3c be
       -0.18951252 -0.17664619 0.18885899 -0.18438523
000370 91 86 8a bd 4e 31 19 be 93 df 3c be 43 9f 5d 3d
       -0.06763948 -0.14960214 -0.18444662 0.054106962
000380 c4 6d 71 3d 40 28 71 3e b2 9a 26 3e d2 6d fc 3c
       0.05894257 0.2355051 0.16269949 0.030814085
000390 9c 5b 84 3e 16 83 4b 3e 19 c9 2f be 61 ef 9c 3c
       0.25851142 0.19874224 -0.17166556 0.019157114
0003a0 1e 95 20 be e8 6b dc 3c a2 09 36 be 4b f9 35 be
       -0.15681884 0.026906922 -0.17777112 -0.17770879
0003b0 48 b8 46 3e 00 db d2 3e ea 3a 4f be c9 09 e3 3e
       0.19406235 0.4118271 -0.20237318 0.44343403
0003c0 59 b7 38 be 64 9b 8c be d7 f2 a0 be cf 4f 1a be
       -0.18038692 -0.27462304 -0.31435272 -0.15069507
0003d0 3a 4a 15 be b2 b9 64 3e 3e 1b 5f 3d 96 6c 2a be
       -0.14579096 0.22336462 0.05446934 -0.16642985
0003e0 a3 57 44 be fa b1 34 be 84 64 4f 3e 40 bd b5 be
       -0.19174056 -0.17646018 0.20253187 -0.3549595
0003f0 84 13 18 be c7 65 59 3e 0a e4 5d 3d 6c 1a 68 3e
       -0.14851195 0.21230231 0.054172553 0.22666329
