ModelWeights/CartPole-v1/critic.weights.pt (torch, 3784 bytes, 3 tensors)

network.0.weight f4 [64, 4]
0	0xbefbb682	-0.4916268
1	0x3eff8f62	0.4991408
2	0xbf410529	-0.753985
3	0xbd1a4c4a	-0.03767041
4	0xbe8f3de8	-0.27976918
5	0x3e49e179	0.19714917
6	0x3d8a5b2f	0.06755673
7	0x3d8b6682	0.06806661
8	0x3d8c364b	0.06846293
9	0xbe6253a4	-0.22102219
10	0x3e44f707	0.19234858
11	0x3f85613a	1.0420296
12	0xbf8f275e	-1.1183889
13	0xbe497ef9	-0.19677342
14	0xbe6f29d7	-0.23355804
15	0x3f1036d3	0.56333655
16	0x3d55f6ab	0.052237194
17	0xbe9b8341	-0.30373576
18	0x3f34dec8	0.7065244
19	0xbe8f60d8	-0.28003573
20	0x3e6116d2	0.21981362
21	0x3d826580	0.06367016
22	0x3df8e0fc	0.12152287
23	0xbe364bb5	-0.17802317
24	0xbec2216f	-0.37916133
25	0xbf39c6ca	-0.72568953
26	0xbea939dd	-0.3305196
27	0x3ef77bb6	0.4833657
28	0x3cf8a9a8	0.030354336
29	0xbeda35bf	-0.4261913
30	0x3e15d131	0.14630581
31	0xbdfd3cd7	-0.1236512
32	0xbe2d0ed7	-0.16900192
33	0xbec1ff46	-0.3789007
34	0xbe279f40	-0.16369343
35	0xbf3c3b92	-0.735284
36	0x3d00f8d0	0.031487286
37	0x3e436018	0.19079626
38	0xbe814fc1	-0.2525616
39	0x3e849f13	0.25902614
40	0xbdf16f60	-0.11788821
41	0xbf4ae052	-0.79248536
42	0xbf9ab65f	-1.2086905
43	0xbfabc47d	-1.3419338
44	0xbd9a3202	-0.075290695
45	0xbe4fd2f8	-0.20295322
46	0xbecb8bba	-0.3975504
47	0xbea1adfa	-0.31578046
48	0x3edad5a6	0.42741126
49	0xbec961b5	-0.39332357
50	0x3e300bfb	0.1719207
51	0x3f9ca0b0	1.2236538
52	0x3ded99f8	0.11601633
53	0xbca8a0e0	-0.020584524
54	0x3eeaddaa	0.4587224
55	0xbe1b2bcc	-0.15153426
56	0x3ee9d32f	0.45668933
57	0xbdf0c63e	-0.11756562
58	0xbf31e02a	-0.6948267
59	0x3d930bf1	0.07180012
60	0x3da6b0e4	0.08139208
61	0x3da9cefd	0.08291433
62	0x3f0b99db	0.5453164
63	0xbde38285	-0.11108879
64	0x3e5d1d62	0.2159324
65	0xbe12667c	-0.14296907
66	0xbeca3874	-0.39496195
67	0xbe361aec	-0.17783707
68	0xbddfd6c7	-0.109296374
69	0x3e025630	0.1272819
70	0xbd339b2d	-0.04384916
71	0x3e15e06f	0.14636396
72	0xbdd9cc4a	-0.10634668
73	0xbcb75e3c	-0.022383802
74	0xbe4ea8ec	-0.20181626
75	0x3dd230af	0.10263192
76	0xbde9101a	-0.11380024
77	0xbf57524f	-0.8410997
78	0xbf086206	-0.5327457
79	0x3e12d8f5	0.14340575
80	0xbea7f524	-0.32804215
81	0x3eaca504	0.33719647
82	0xbeac7ca5	-0.33688846
83	0x3e82c7d1	0.25543073
84	0xbdf25204	-0.118320495
85	0xbf2e920a	-0.6819159
86	0xbecee2c6	-0.4040739
87	0xbf3eaede	-0.74485576
88	0x3ee33e3e	0.44383425
89	0xbd403857	-0.04692873
90	0x3e00b549	0.12569155
91	0x3ee7e135	0.45289007
92	0x3e5a9dc9	0.21349253
93	0xbecf4f8f	-0.40490386
94	0xbf825b00	-1.0184021
95	0x3eedd331	0.4645019
96	0x3d8c3b3a	0.06847234
97	0xbe7c8f42	-0.24664024
98	0xbeac32ef	-0.3363261
99	0x3e34c7f7	0.17654406
100	0xbe14ba36	-0.14524159
101	0x3f423909	0.7586828
102	0xbdf3d93b	-0.11906668
103	0xbe6d2a18	-0.23160589
104	0x3e886a09	0.26643398
105	0xbf528591	-0.82235056
106	0xbf935d87	-1.1512917
107	0x3e940276	0.28908128
108	0xbe5bf592	-0.21480396
109	0xbeced322	-0.40395457
110	0xbf561a91	-0.8363429
111	0x3ed34b76	0.4126851
112	0xbc067b6b	-0.008208136
113	0xbed94a05	-0.42439285
114	0xbe93c752	-0.28863007
115	0xbd5203ab	-0.05127303
116	0x3e7fd876	0.24984917
117	0xbf9259c7	-1.1433648
118	0xbf3845b1	-0.7198134
119	0xbeab2183	-0.33424005
120	0xbf614a5b	-0.8800408
121	0xbf00b449	-0.50275093
122	0xbedede08	-0.4352877
123	0xbdcb1275	-0.0991563
124	0xbc33bbc0	-0.010970056
125	0x3ef64977	0.48102924
126	0xbf843e11	-1.0331441
127	0xbf2f1ca0	-0.68403053
128	0xbda230f5	-0.07919494
129	0x3e5ea942	0.21744254
130	0x3efa9e92	0.48949105
131	0xbf75ae10	-0.95968723
132	0xbd79ccb1	-0.060986225
133	0xbe08a250	-0.13343167
134	0xbf16bdf1	-0.5888358
135	0xbf8f6099	-1.1201354
136	0xbe98596f	-0.29755732
137	0x3dfc7584	0.12327102
138	0xbf28df3e	-0.6596564
139	0xbef05675	-0.4694096
140	0xbd72d32b	-0.059283417
141	0xbf328efa	-0.69749415
142	0xbf871a0a	-1.0554821
143	0x3ea62357	0.32448837
144	0xbdb8a340	-0.090155125
145	0x3ecb744b	0.39737162
146	0xbe497f96	-0.19677576
147	0x3e0f83cc	0.1401512
148	0x3f007527	0.5017876
149	0x3e7fbe65	0.24974973
150	0xbf57f10d	-0.8435219
151	0xbf134c86	-0.5753864
152	0xbea7eef9	-0.3279951
153	0xbeb151c5	-0.34632698
154	0xbf780ab9	-0.9689136
155	0x3e0d33a7	0.13789235
156	0x3efc29a6	0.49250525
157	0xbd6ca3e1	-0.057773475
158	0x3e66ad0a	0.22526947
159	0x3f3c1672	0.7347175
160	0xbe6c0574	-0.23048955
161	0x3e3477d1	0.17623831
162	0xbf4f25a7	-0.8091683
163	0x3f07308e	0.52808464
164	0xbec5de5b	-0.38646206
165	0x3eaeb440	0.34121895
166	0xbe44935e	-0.19196841
167	0xbec84f38	-0.3912294
168	0xbebf7038	-0.37390304
169	0x3eabb9cf	0.33540198
170	0x3db32edf	0.08749174
171	0x3eaef7dd	0.3417348
172	0x3d4df445	0.05028178
173	0xbdc092b5	-0.09402982
174	0xbe9dbc0f	-0.3080754
175	0x3d886ba9	0.066611595
176	0x3dcbb222	0.099460855
177	0x3e933684	0.2875253
178	0xbea2dcda	-0.3180912
179	0x3ec22263	0.3791686
180	0x3e82d580	0.25553513
181	0x3ee2cf77	0.44298908
182	0xbea3fe06	-0.32029742
183	0x3edf7edc	0.43651474
184	0xbea43154	-0.32068884
185	0xbd2ca5ff	-0.042150494
186	0x3e056e2e	0.13030311
187	0xbe3dc093	-0.18530492
188	0x3ecabaf2	0.39595753
189	0xbd7f5d44	-0.062344804
190	0xbf9416ea	-1.1569493
191	0xbef7bbf8	-0.48385596
192	0x3e1b2bde	0.15153453
193	0x3e92864a	0.2861808
194	0xbce487b5	-0.027896741
195	0x3f42f5cd	0.7615631
196	0x3f018867	0.5059876
197	0x3f33a1cf	0.70168775
198	0x3dea28e8	0.114335835
199	0x3e07eed6	0.13274702
200	0xbd85c886	-0.065323874
201	0x3e3c268b	0.18374078
202	0x3d8495bc	0.06473872
203	0x3e1de228	0.15418303
204	0xbf0f8581	-0.56063086
205	0xbed86a54	-0.42268622
206	0x3d96dec2	0.073667064
207	0x3e606e09	0.21916975
208	0xbcfdf368	-0.030999854
209	0x3df560ab	0.119813286
210	0x3c22888d	0.009920252
211	0xbf81e2dc	-1.0147357
212	0x3ec1c142	0.37842757
213	0x3c635b24	0.01387671
214	0x3f11abe0	0.56902885
215	0x3e3a729b	0.18207781
216	0xbd53c7f7	-0.051704373
217	0x3f0d0364	0.550833
218	0x3eb90e7e	0.3614387
219	0x3f678e1d	0.9045122
220	0xbe9f7555	-0.31144205
221	0xbf146f7f	-0.5798263
222	0xbf5fff0c	-0.87498546
223	0xbd6104e9	-0.054936323
224	0x3f005548	0.5013013
225	0x3ee8d30c	0.45473516
226	0x3d1dc1b2	0.0385148
227	0xbf19fbfd	-0.6015013
228	0xbe4efb83	-0.20213132
229	0x3e6f7479	0.23384275
230	0xbe5c9db7	-0.21544538
231	0x3e95661c	0.29179466
232	0xbe978bd3	-0.29598865
233	0x3e36b21c	0.17841381
234	0x3bc6a5cd	0.0060622455
235	0x3c7b71d5	0.015346964
236	0x3cf11441	0.029428603
237	0x3ed6edee	0.419784
238	0xbe909002	-0.2823487
239	0x3f8ff55e	1.1246755
240	0xbe17b987	-0.14816867
241	0xbd2e8f95	-0.0426174
242	0xbbb3e202	-0.0054895887
243	0x3e4c5b03	0.19956593
244	0xbedbe416	-0.42947453
245	0x3f1bc33b	0.60844773
246	0xbf6f4114	-0.93458676
247	0xbe6633b3	-0.22480659
248	0xbf209a8b	-0.62735814
249	0xbefc31fb	-0.49256882
250	0xbf18a903	-0.5963289
251	0x3e4dae0f	0.2008593
252	0xbe2c9ea4	-0.16857392
253	0xbef11a1b	-0.4709023
254	0xbe4be9ca	-0.19913402
255	0xbf88c12c	-1.0683951

network.0.bias f4 [64]
0	0x3f5615fd	0.836273
1	0x3f4652b6	0.77469957
2	0x3f81e651	1.0148412
3	0xbe57c639	-0.2107171
4	0xbf1a5026	-0.60278547
5	0x3e077bde	0.13230845
6	0xbe7f65df	-0.24941204
7	0xbf0cc5b1	-0.54989153
8	0xbe7515d7	-0.23934112
9	0x3f1b2bcc	0.60613704
10	0x3ebc63a3	0.36794767
11	0xbf0e4e37	-0.55588096
12	0x3f7330dc	0.9499643
13	0xbedf0bd2	-0.43563706
14	0x3f1f7bbd	0.62298185
15	0xbea7094d	-0.32624283
16	0x3f4835db	0.78207177
17	0xbe33c3a3	-0.17555098
18	0xbeb3209a	-0.3498581
19	0xbe23e44f	-0.16005062
20	0xbed54b7f	-0.4165916
21	0xbf10c9c6	-0.5655788
22	0x3eec33ec	0.46133363
23	0x3f871e03	1.0556034
24	0xbf3b8c06	-0.73260534
25	0x3efc4932	0.49274594
26	0x3d04d5e0	0.03243053
27	0xbdba99c8	-0.09111363
28	0xbed0965b	-0.40739712
29	0xbf037db4	-0.5136368
30	0xbe1d60bf	-0.15368937
31	0x3ea8c4ff	0.32962796
32	0x3e49a886	0.19693193
33	0x3e123e87	0.14281665
34	0x3f88a48e	1.0675218
35	0xbea3a408	-0.31961083
36	0xbe9e595f	-0.3092756
37	0x3e91a0cf	0.28443
38	0x3e5dc18a	0.2165586
39	0x3ee0ae38	0.43882918
40	0x3f4eb923	0.80751246
41	0xbe08a097	-0.1334251
42	0xbf261cb3	-0.6488754
43	0x3f54cbed	0.83123666
44	0x3e36e04a	0.17858997
45	0x3f551374	0.8323281
46	0xbf37dd85	-0.71822387
47	0x3ec3edcf	0.3826737
48	0x3f507bb0	0.8143873
49	0x3e2c34d1	0.16817023
50	0x3f2f01cb	0.6836211
51	0xbc39d61d	-0.0113425525
52	0x3de1c289	0.11023433
53	0x3f4b644f	0.79449934
54	0xbe4e11ae	-0.20123932
55	0xbeebd172	-0.46058232
56	0x3f17860b	0.5918891
57	0x3f72f693	0.9490749
58	0xbf0746a5	-0.5284217
59	0xbe7f3e08	-0.24926007
60	0xbf4005b8	-0.75008726
61	0x3f5b049a	0.85553896
62	0xbebfccbc	-0.37460887
63	0x3e35e8a6	0.1776453

network.2.weight f4 [1, 64]
0	0x3f1f0cea	0.6212908
1	0x3efe899c	0.49714363
2	0x3f082fbd	0.5319784
3	0xbef58f1f	-0.47960755
4	0x3df170f2	0.11789121
5	0x3db497af	0.08817994
6	0x3d28cfea	0.041213907
7	0xbe88bae5	-0.2670509
8	0x3ad20784	0.0016023968
9	0x3eef81fd	0.4677886
10	0x3ec3a9e8	0.38215566
11	0x3ea20f7f	0.31652448
12	0x3f24b39e	0.64336574
13	0xbd271ef8	-0.04080102
14	0x3f075820	0.52868843
15	0x3e95f74b	0.29290232
16	0x3efd0369	0.49416664
17	0x3e5ea058	0.21740854
18	0x3e08f7e9	0.1337582
19	0x3d869db2	0.06573047
20	0x3e03ebed	0.12882967
21	0x3e68c13b	0.22729962
22	0x3ec9f07f	0.39441296
23	0x3f2cd423	0.67511195
24	0x3e0edd15	0.13951524
25	0x3ec7e14b	0.39039072
26	0x3e8350a6	0.25647467
27	0xbd6ca84b	-0.057777684
28	0xbe6e6aff	-0.23283003
29	0xbd37bcda	-0.044857837
30	0xbeedf4c0	-0.46475792
31	0x3ec0a39b	0.3762482
32	0x3e8dfc4b	0.27731547
33	0x3ea0b7dc	0.31390274
34	0x3f276da4	0.65401673
35	0x3d34ac36	0.044109546
36	0xbe75b5ab	-0.23995082
37	0x3e83c3c7	0.25735304
38	0x3db689fd	0.08913038
39	0x3ec06b12	0.37581688
40	0x3f1816f4	0.59410024
41	0x3d800aa8	0.062520325
42	0x3dd2ab88	0.10286623
43	0x3f05bc99	0.522409
44	0x3e5529d0	0.20816731
45	0x3f0d8898	0.5528655
46	0x3e07bd08	0.13255703
47	0x3eb26a62	0.3484679
48	0x3f24c956	0.64369714
49	0x3e6882e4	0.22706181
50	0x3eeed918	0.46650004
51	0xbe4bd001	-0.19903566
52	0x3e8d925a	0.2765072
53	0x3efce267	0.4939148
54	0xbd5c429d	-0.053774465
55	0x3cfbc4ac	0.030733429
56	0x3efa2aca	0.4886077
57	0x3f0f9372	0.5608436
58	0x3e28eb5e	0.16496035
59	0xbdf00d5e	-0.117212996
60	0x3d163575	0.036672074
61	0x3f1cbcf6	0.6122583
62	0xbdad4693	-0.084607266
63	0x3e698c25	0.22807367
