ModelWeights/Pendulum-v1-69420-/actor.weights.pt (torch, 20998 bytes, 5 tensors)

network.0.weight f4 [64, 3]
000000 9b 02 da 3e 2c 80 a1 3d 4f 2f 20 bd 39 b7 db 3e
       0.42580113 0.07885775 -0.039107617 0.42913225
000010 03 38 de 3c cc 73 27 3d 1b 2a 48 3e d9 31 14 bd
       0.027126318 0.040881917 0.19547312 -0.03618035
000020 72 e9 a0 bd 1c 17 d4 40 af 4f 43 40 0b 78 0e c0
       -0.07857026 6.627821 3.0517385 -2.2260768
000030 c7 40 10 3e 72 e0 1c be 36 b5 b0 3d b7 8c 06 3f
       0.1408721 -0.15319994 0.08628313 0.52558464
000040 9d 27 18 c0 93 fe 34 bd 47 d6 55 40 6d b9 04 40
       -2.3774178 -0.044188093 3.3412035 2.0738175
000050 60 40 91 be 8c 9e 06 40 53 56 0e c0 2c e6 8c 3f
       -0.28369427 2.103427 -2.2240188 1.1007743
000060 11 e3 c8 c0 ec d1 8c c1 10 31 31 bf 85 21 d4 c0
       -6.277718 -17.6025 -0.6921549 -6.6290917
000070 1d 2d 73 c1 37 30 a0 3f 3d f9 06 c1 9e 93 95 c1
       -15.198514 1.2514714 -8.435849 -18.697079
000080 1b 76 3b 3d b9 33 38 bd e6 9a 39 bf 93 e1 dd 3b
       0.04576693 -0.0449712 -0.7250198 0.0067712753
000090 70 a2 88 bd 27 47 bb bd 30 e8 82 3b a4 18 ed 3e
       -0.066716075 -0.091444306 0.003994964 0.46307862
0000a0 e8 8b 31 3e 13 fb 44 bd 4d 9e 87 40 92 75 91 3f
       0.17338526 -0.048091006 4.238074 1.1364005
0000b0 cc ac 09 bf 72 ef 7f 3e dd d1 3b 3f 8a 77 b7 bb
       -0.5377929 0.24993685 0.733671 -0.005598967
0000c0 96 ee f6 3e e8 74 f0 3c 63 d5 96 bc 14 90 e0 3e
       0.48228902 0.02935262 -0.018412298 0.43859923
0000d0 74 78 6b 3f d1 b1 c3 3c a4 bd 2e 40 41 aa 44 3f
       0.9198067 0.0238885 2.7303247 0.76822287
0000e0 aa 3d 23 bc 11 3e 8e 3e 83 0a 8f 3d c5 d2 6d 3b
       -0.009963432 0.27781728 0.06984427 0.0036288959
0000f0 b9 e6 82 40 c2 cf ae c0 3a 02 fc c0 c5 a2 66 40
       4.0906644 -5.462861 -7.875272 3.6036847
000100 4f db 4f 40 9f 08 25 3e 5c cd c7 3d b8 4f 7a be
       3.2477605 0.1611657 0.09755966 -0.24444473
000110 e3 1e e1 bc e1 80 24 3e af a7 92 be 97 16 42 bd
       -0.027480548 0.16064788 -0.28643557 -0.047384825
000120 49 47 a8 3e eb 34 84 3e 4f 2a 75 bd fc d3 d2 3e
       0.32866886 0.25821623 -0.0598548 0.41177356
000130 4e 29 8e 3e 49 67 b0 3d ba 45 80 40 2c 32 b7 c0
       0.27765888 0.0861345 4.0085115 -5.7248745
000140 42 7a f0 c0 8a b1 a3 3e 0d 40 33 be 55 1f a3 3a
       -7.514924 0.3197139 -0.17504902 0.0012445251
000150 5f d8 82 40 82 bc ae c0 2b 26 f4 c0 a3 0b f9 3e
       4.0889125 -5.460511 -7.629659 0.4864169
000160 d2 07 25 3f bb 59 ce 3d df 22 47 40 0c 05 81 40
       0.6446506 0.100757085 3.1115034 4.031866
000170 56 f3 ff be fa 88 f6 40 e1 cf 4d c0 f9 69 07 c0
       -0.49990338 7.704221 -3.215813 -2.115843
000180 b6 bb 62 40 f9 99 16 c1 8d 53 a3 c0 08 e2 06 3e
       3.542707 -9.412591 -5.103949 0.13172162
000190 f0 1c 77 bd 02 e3 85 bd 72 6b b7 c0 fe 28 73 3f
       -0.06033033 -0.06537439 -5.731866 0.94984424
0001a0 fb 20 55 3f 43 cc 2e 41 8d 22 26 c0 02 ee 26 c0
       0.8325345 10.924869 -2.5958588 -2.6082768
0001b0 f2 1f 96 3e 75 df f2 be 4a 6a 7c 3a 06 bf 94 3e
       0.29321247 -0.4743611 0.00096288754 0.2905199
0001c0 0d c4 ac 3e da 4b f2 3c e8 3b c0 3e aa 5a cf 3e
       0.33743325 0.029577184 0.37545705 0.4049886
0001d0 e8 62 cd 3c b7 fe 05 bd ac ba 4d be 58 2d 27 3d
       0.025071576 -0.032713618 -0.20090741 0.040814728
0001e0 7b 29 05 40 40 78 ec bf 80 c4 06 be 7c a3 f0 3d
       2.0806568 -1.8474197 -0.13160896 0.11749932
0001f0 06 0c 2c bf d1 6e 19 3c fb c0 2b c1 4f 03 04 c0
       -0.67205846 0.0093648 -10.734614 -2.062702
000200 fe d2 c2 3e 4d dd 78 3d f6 17 cb 3c da 50 bc bd
       0.380516 0.060757924 0.024791699 -0.09195109
000210 86 3b e9 c0 63 94 72 c1 0e 3b f1 3c f7 24 c4 c0
       -7.288516 -15.161227 0.029447105 -6.1295123
000220 a6 52 a6 c0 99 a0 89 3f f4 48 dc c0 18 a9 82 c1
       -5.197589 1.0752136 -6.8839054 -16.332565
000230 15 c0 c7 3f a7 61 11 41 61 88 56 c0 8d 37 bc bd
       1.5605494 9.086341 -3.352074 -0.09190283
000240 ae 84 5f 40 49 21 56 bf 19 d7 87 bc 23 d9 ba 3e
       3.4924731 -0.8364454 -0.016582059 0.36493787
000250 db 3c f8 3d 6f a2 9c bc 4c 17 8f 3e d5 42 4e be
       0.12120982 -0.019120423 0.27947462 -0.20142682
000260 50 93 d1 bc c0 70 84 3f 60 c9 52 bd 4a cb 56 3e
       -0.02558294 1.0346909 -0.051461577 0.20975986
000270 ea 29 7b 3f 3d d1 2e 3f d4 11 68 be 33 a6 7b 3e
       0.9811083 0.6828802 -0.22663051 0.24575119
000280 c9 28 a8 3e d6 6d a2 3d a5 85 96 3e bc 88 ab 3f
       0.32843617 0.07931106 0.29398838 1.3401103
000290 58 db ab 3c 1b 94 18 40 9b e0 53 bf 66 55 39 bd
       0.020978615 2.3840396 -0.82764596 -0.045247458
0002a0 5c 04 e8 c0 66 2b 52 c1 4b 59 10 40 68 ab 99 3e
       -7.250532 -13.135595 2.25545 0.30013585
0002b0 d1 1b 37 be ea ac 6c bd 1f ac ab be 2b 06 fe be
       -0.17881705 -0.05778209 -0.33529755 -0.4961408
0002c0 bd 82 15 3d 44 bc d5 3e d9 8f 09 3e 54 98 82 39
       0.036501635 0.41745198 0.1343378 0.00024909026
0002d0 1e 98 35 3f 52 10 a9 bd 82 f5 4c 3e 67 da a2 3f
       0.7093524 -0.08255066 0.20015529 1.2722901
0002e0 a2 55 b1 bf 08 74 68 40 d6 a1 d1 be 8a 9b 35 be
       -1.3854258 3.632082 -0.40943784 -0.17735115
0002f0 d6 d2 bb bc 82 d5 cc c0 3e ba 84 c1 ad a8 70 be
       -0.022927683 -6.401063 -16.590939 -0.23501845

network.0.bias f4 [64]
000000 09 d6 ab bf 70 3e 81 bf 98 5f 3e bf f8 e6 ec bf
       -1.3424693 -1.009718 -0.74364614 -1.8507986
000010 3c 88 c1 bf 00 6b 3e c0 99 12 ac bf 57 61 66 c0
       -1.51197 -2.9752808 -1.3443176 -3.5996912
000020 7e 40 f9 40 07 39 23 41 8c ce 0d 41 4f 73 97 bf
       7.7891226 10.201423 8.8629265 -1.1832064
000030 1e 55 dc be 5e 68 65 bf e4 35 9e c0 c6 0e c3 bf
       -0.4303369 -0.89612377 -4.9440784 -1.5238883
000040 3a 21 b2 bf c2 63 bf bf 58 7d 8c c0 99 2b 0a bf
       -1.391639 -1.4952319 -4.3903008 -0.53972775
000050 ea 5a ec 40 77 0e b6 c0 c6 c1 2f bf a7 25 67 bf
       7.386098 -5.6892657 -0.6865505 -0.9029183
000060 ba 1b 8b bf 00 3f c5 bf 55 ec f3 40 e2 2e 15 bf
       -1.0867836 -1.5409851 7.622599 -0.5827466
000070 ab 5d e7 40 92 62 dd bf e0 b2 16 c0 91 5b 4a 3e
       7.230184 -1.7295706 -2.3546677 0.19761492
000080 a7 e4 fc 3f 47 a4 21 bf 9e 1b 6d 40 bb 13 97 3e
       1.9757279 -0.6314129 3.7048106 0.2950724
000090 c2 1e 51 bf 03 74 2d bf 39 49 02 c0 81 f3 62 bf
       -0.8168756 -0.67755145 -2.0357192 -0.8865281
0000a0 bb 80 3f c0 c9 f5 96 bf 56 41 2d 41 a1 4b 9b bf
       -2.992232 -1.1793758 10.828451 -1.2132455
0000b0 e2 99 fc 40 1c 76 e0 40 35 d4 20 41 64 8a 07 c0
       7.8937845 7.0144176 10.051808 -2.1178217
0000c0 a7 f1 8c c0 dd 3c 3b bf 7a cf 56 bf 9e f3 1c c0
       -4.4044986 -0.73139745 -0.83910334 -2.4523692
0000d0 87 fc 29 c0 4b 9f a9 bf a4 8f cb bf d3 b9 40 c0
       -2.656038 -1.3251737 -1.5903211 -3.0113418
0000e0 d8 18 0e 41 8f f9 80 bf 24 19 67 bf 84 ec 75 bf
       8.881065 -1.0076159 -0.90272737 -0.9606402
0000f0 47 a9 fa bf 33 da 02 41 7e c9 30 bf e8 43 f1 40
       -1.9582909 8.178271 -0.6905745 7.5395393

network.2.weight f4 [64, 64]
000000 a3 f5 81 3e dd e6 0c be f8 ee b1 bc 29 68 12 c0
       0.25382718 -0.13759942 -0.021720394 -2.2876074
000010 4c 70 fe be ed 5f 33 be 6d f8 11 c0 73 50 30 c0
       -0.4969505 -0.17517062 -2.2807877 -2.7549102
000020 e2 05 bc c0 86 05 0d c0 44 6f 78 c0 e3 5d 61 be
       -5.875718 -2.2034621 -3.881791 -0.22008471
000030 87 a3 fa 3e e0 c4 a7 bd b8 ca 32 bf 3b ff 95 bd
       0.48952886 -0.08191848 -0.69840574 -0.07324072
000040 8e a4 d8 bc fd 29 ee 3e 1b 1b 26 40 87 0d 14 3d
       -0.026445653 0.4651641 2.5954044 0.036145713
000050 55 f9 2a be 5f 86 84 3f 6a ce 1e 3e c3 d0 bc 3d
       -0.16696675 1.0353507 0.15508428 0.09219506
000060 92 f8 a5 3d a8 ce b8 bd c7 06 23 3e 4d d1 81 bd
       0.08104052 -0.090237916 0.15920554 -0.06338749
000070 8b dc 1b c0 77 fd be be fc 4c f7 bf 5e 51 13 c0
       -2.4353359 -0.37302753 -1.9320369 -2.3018413
000080 02 0b 0b 40 bb 81 79 be 93 11 8a 3f 87 09 82 bf
       2.1725469 -0.24365894 1.0786613 -1.0159158
000090 9f 4e 00 3f 31 d8 86 3f ee c8 ad 3f e4 da 80 be
       0.50119966 1.0534726 1.3576944 -0.25167
0000a0 45 0c d6 3e 9a 64 bf be 0f b8 56 40 b1 cf c2 bc
       0.41806236 -0.3738144 3.354984 -0.023780676
0000b0 ab 0e b0 c0 5f df a1 3d 6e 83 80 c0 08 65 ca 3d
       -5.5017905 0.07903933 -4.0160437 0.098825514
0000c0 e2 c4 17 3d 58 39 ec bd c3 18 b5 be 91 c6 5f bf
       0.037052996 -0.11534375 -0.35370454 -0.87412363
0000d0 6c 8f 8b 3f fc 73 76 be a7 59 08 be 66 bb 06 bf
       1.0903144 -0.24067682 -0.1331545 -0.526297
0000e0 ae e9 9b c0 9b 9c f7 be 2b bf bd be f8 db 6b 3e
       -4.8722754 -0.48361668 -0.37059912 0.2303313
0000f0 ac 61 84 3e d0 f9 52 c0 9d ea c5 3e 96 bc d3 c0
       0.25855768 -3.2964973 0.38655558 -6.6167707
000100 ea bc 38 be 95 9d 30 be 6b ed 68 bd 6a bd ba 3c
       -0.18040815 -0.17247613 -0.056867044 0.022795398
000110 d8 53 be be 81 12 52 bf a8 c2 1a bd 54 4b 74 bf
       -0.37173343 -0.82059485 -0.037783295 -0.9542744
000120 f6 27 28 be 24 de 25 be c9 07 a6 bf 35 f9 ce be
       -0.16421494 -0.16198021 -1.2971126 -0.40424505
000130 4a b2 1f be 57 63 74 3c a2 64 37 bd f2 dd 73 be
       -0.15595356 0.014916263 -0.044773705 -0.23815134
000140 00 82 d6 be 39 58 04 be 91 51 3c 3d df 0d 38 bd
       -0.41896057 -0.1292428 0.045976225 -0.044935104
000150 87 26 76 be ba 80 29 be 9e 06 28 be b6 40 a5 bc
       -0.24038135 -0.16553012 -0.16408774 -0.020172458
000160 69 57 38 be 0e d1 1d be 91 b5 b2 bd c6 66 f1 3d
       -0.18002094 -0.1541178 -0.08726037 0.117871806
000170 45 24 5d bf 25 99 54 be 2f 12 6f be 3b 9b ed bd
       -0.8638347 -0.20761545 -0.2334678 -0.116018735
000180 d9 d7 8f bf 32 ef 98 3b eb d6 d6 3d d1 de 63 bf
       -1.1237746 0.004667186 0.10490211 -0.89011866
000190 ee 54 0d b9 2a 55 56 be c8 75 8e bf 96 7b 51 be
       -0.00013478447 -0.20930925 -1.1129694 -0.204573
0001a0 0d 10 0d bc 7f e3 fc be 31 dd e7 be cf c6 db bd
       -0.008609784 -0.49392316 -0.45285943 -0.10731279
0001b0 cd 4d 80 bf 8d 0f 34 be db 41 83 bf 4c 9a a2 bd
       -1.0023743 -0.17584057 -1.0254472 -0.07939586
0001c0 a9 40 0e be a0 e8 8f be 8c 02 a5 bd b4 a7 12 be
       -0.13891853 -0.28107166 -0.080571264 -0.14321786
0001d0 a0 e9 8f bf 6d 10 01 be 38 94 08 bc 0f f2 c4 bd
       -1.1243172 -0.12603922 -0.008336119 -0.096164815
0001e0 47 81 d9 be d2 92 16 be a9 a8 9b bd b7 c6 28 be
       -0.42481443 -0.14704445 -0.07600529 -0.16482054
0001f0 6f 80 43 3b a0 5d 48 be 80 74 91 bd 25 01 80 bf
       0.002983119 -0.19566965 -0.07102299 -1.0000349
000200 65 a8 a1 be 89 25 09 be 12 ba 24 3d a7 aa 90 bf
       -0.31573787 -0.13393225 0.040216513 -1.1302079
000210 70 de 79 be 58 93 03 c0 77 12 1d c0 81 ee 11 c0
       -0.2440126 -2.0558681 -2.454252 -2.2801821
000220 04 a0 92 bf d1 99 0e bf db 4b 9d bf 9e 96 83 be
       -1.1455083 -0.55703455 -1.2288774 -0.2570085
000230 9d 33 f9 bd b0 91 ce 3d af c8 a5 bf cb c1 f3 bd
       -0.121680476 0.100863814 -1.2951869 -0.119021975
000240 d4 59 f4 3d 98 08 e4 bd 0f 3e 56 c0 3a 71 24 3e
       0.11931196 -0.11134452 -3.3475378 0.16058818
000250 7e 7e 90 bf d1 1c 4d c0 e8 63 36 be a2 7c 2d be
       -1.1288602 -3.2048838 -0.17811549 -0.16942075
000260 8c 25 14 be 2f 95 a8 bd 10 ae 65 3f 26 57 99 be
       -0.14467448 -0.082315795 0.89718723 -0.299493
000270 5b 6c b9 bf 0c b7 81 be c7 56 98 bf cd fe cf be
       -1.4486192 -0.25334966 -1.1901482 -0.40624085
000280 66 20 ae 3f 54 83 3b be 06 6f 1f 3d 22 c0 c4 3e
       1.3603637 -0.18311816 0.03892424 0.38427836
000290 b3 41 93 be 76 b8 2d 3f e0 54 a0 be e7 43 99 bd
       -0.28761062 0.6785959 -0.31314754 -0.074836545
0002a0 1a b7 44 c0 ce be 2c be b9 74 89 be be f0 88 be
       -3.0736756 -0.16869661 -0.26846865 -0.26746172
0002b0 88 57 fc bd 87 be d8 be 9e d2 8c bf 2b a2 4b bf
       -0.12321383 -0.4233286 -1.1001775 -0.79544324
0002c0 a2 45 5e bf 6f 6f ec 3c c5 38 1d be a8 2e 7c be
       -0.86825 0.02886173 -0.15353687 -0.24627173
0002d0 74 d2 58 3e c6 73 a9 bd 21 64 5c 3c fa 55 ac bf
       0.21174031 -0.08274035 0.013451607 -1.3463738
0002e0 b2 bf b6 bf 1c 2e 62 be 05 75 66 be 84 39 64 3d
       -1.4277251 -0.22087902 -0.22505577 0.055718914
0002f0 60 b1 92 3d 36 b0 ac 3d c8 c5 65 be a1 44 01 3f
       0.07162738 0.08432047 -0.22438729 0.50495344
000300 1a 98 45 bd 42 b5 96 bd 66 06 6e be c2 17 d1 be
       -0.04824076 -0.07358791 -0.23244628 -0.40838438
000310 8d 47 9e bd ff 90 a5 be 35 9d 64 be 70 d4 ed bd
       -0.07728491 -0.32337186 -0.22325595 -0.11612785
000320 dd 11 d4 bd 49 10 49 be fd 4d f2 bd e9 50 ac be
       -0.1035497 -0.19635119 -0.11831281 -0.3365548
000330 97 e4 56 be a9 f3 76 be 39 2f 4d 3c a9 4d 3c 3e
       -0.20985638 -0.24116386 0.012523466 0.18389
000340 cf af 84 be 9b a2 11 bc cf b5 71 bd d6 17 0b 3d
       -0.2591538 -0.008888866 -0.059011277 0.03395828
000350 bf 4c 2b be 87 5c 59 3e 87 e6 c6 bd 9b 10 92 be
       -0.16728495 0.21226703 -0.09711938 -0.28528294
000360 f9 19 01 3e 64 27 81 bd a4 ee df bd fb a3 96 3d
       0.12607564 -0.06306341 -0.10934189 0.073554955
000370 98 4b 28 be 43 5e 8d be 34 ee b6 bd ad 05 0c be
       -0.16435087 -0.27610978 -0.089321524 -0.1367404
000380 ed f6 0f 3d e2 8e bc be 06 63 79 bd 03 8a 98 be
       0.035147596 -0.3682776 -0.06088545 -0.29792795
000390 ae 56 a2 3d 09 a6 d5 3d cc 35 aa 3d ca 55 47 be
       0.07926689 0.10432059 0.08311042 -0.1946632
0003a0 94 48 8e bc 71 dc 98 be be 03 4f be 04 72 19 be
       -0.017368592 -0.29855683 -0.20216271 -0.149849
0003b0 4f 11 69 be 45 ab e8 bd a3 16 69 3d 47 43 6d be
       -0.22760509 -0.11360792 0.056906354 -0.23170196
0003c0 b7 61 1b 3e 25 c9 c0 bb 0e 53 19 3e f4 9f d5 be
       0.15173994 -0.0058833533 0.14973089 -0.41723597
0003d0 a1 7f c7 be aa a7 1f 3e a5 b1 45 be c2 c9 42 be
       -0.3896456 0.15591303 -0.19306047 -0.19022277
0003e0 0f 4b 7f be 57 79 88 3d c4 63 14 3e 1e c8 0e be
       -0.24930976 0.06663769 0.14491183 -0.13943526
0003f0 91 84 e1 3c 75 05 c4 be 56 2e bd bd fd 86 4e bd
       0.027529033 -0.38285413 -0.092373535 -0.050421704

network.2.bias f4 [64]
000000 02 ed 6f 3e 12 b7 a0 be 24 c8 72 bf fa 3f a0 be
       0.23430255 -0.31389672 -0.9483664 -0.3129881
000010 34 5b 94 be c0 c0 12 bf 61 dc fe be 86 04 89 be
       -0.28975832 -0.57325363 -0.4977751 -0.26761264
000020 ac 2b 2e bf 32 cd 1b be 9e 39 37 bf d4 77 02 be
       -0.6803539 -0.15214995 -0.7157229 -0.12741023
000030 36 88 3e be bb 49 a7 be 61 20 6a be c8 24 a0 be
       -0.18606648 -0.3267344 -0.22863914 -0.31278062
000040 83 96 82 bf 5a 12 94 be 08 8e 80 3f e8 a8 a7 be
       -1.0202183 -0.2892025 1.0043344 -0.32746053
000050 78 72 8b bf fa 8a 8c be a5 45 3f be 39 24 90 40
       -1.0894308 -0.2744978 -0.18678911 4.5044217
000060 af e0 5a bf fd d6 b5 bf a3 38 48 bf ff 08 c6 be
       -0.8549909 -1.4206234 -0.7821142 -0.38678738
000070 db 91 77 be a6 64 9b be e8 c6 9f be 69 dc 83 be
       -0.24176733 -0.30350226 -0.3120644 -0.25754097
000080 d2 f6 85 bf 8a 62 0f bf 72 16 20 bf 91 5e 89 be
       -1.0465949 -0.56009734 -0.6253425 -0.2682996
000090 7a 1b e5 be 18 9c 7c be 76 aa fe 40 2c cb 85 be
       -0.44747525 -0.2466892 7.958308 -0.2613157
0000a0 37 94 0e c0 6e 8d a0 be 56 81 18 bf 2c 3e 51 bf
       -2.2277963 -0.31357902 -0.5957235 -0.8173549
0000b0 6c df d9 bd ce 7d 78 bf 97 78 8a be 0d 7b 63 be
       -0.106383175 -0.9706696 -0.27045128 -0.22214909
0000c0 0b 57 ed be d9 82 0e 3f 7e 5b fe bd fc ea c6 bf
       -0.4635547 0.5566841 -0.124197945 -1.5540462
0000d0 22 7b 8c bf 99 f9 b8 be bc eb 6c be 85 9b f1 bf
       -1.0975077 -0.36127928 -0.231368 -1.8875586
0000e0 9a 35 46 be 91 bf 47 be 60 26 68 bf 25 40 06 be
       -0.19356385 -0.1950667 -0.90683556 -0.13110407
0000f0 5f 64 6b be a1 bb d7 be 92 8c 28 be 03 29 3c be
       -0.22987507 -0.42135337 -0.16459873 -0.1837502

network.4.weight f4 [1, 64]
000000 2c 51 72 bf 66 9f 5d 3f 29 4e d3 bc a9 03 ac bd
       -0.9465511 0.8657135 -0.025794106 -0.083991356
000010 2c 14 38 3e 8b fa 32 be 69 92 01 be ec ba ec be
       0.17976445 -0.17478387 -0.12653507 -0.4623636
000020 6c 38 bb bc c9 2b 86 3d ea 57 22 3d 91 25 fd 3d
       -0.022854052 0.0655132 0.039634623 0.12360681
000030 33 8c 50 3d 6a 37 d5 bb f0 5f d7 3d 8f 56 27 bc
       0.050914954 -0.00650685 0.105163455 -0.010213508
000040 60 a0 c0 3e cc fb f9 3d e5 e3 1c 40 d8 db ce 3b
       0.37622356 0.122062296 2.4514096 0.0063128285
000050 ea fa d5 be 68 35 7a bd c3 92 9d 3c 3f c0 4a c0
       -0.41792995 -0.06108609 0.01923502 -3.1679838
000060 64 46 18 bf 3a 69 03 bf 1d d8 f2 3f ab 2e 57 3d
       -0.5948241 -0.5133244 1.8972203 0.05253474
000070 8e 9f 7c bd 96 bd 41 3e 61 14 ba 3f 4e bb d8 3d
       -0.0616756 0.18919978 1.4537469 0.105826005
000080 04 5b 15 3e 43 c0 35 bc 32 01 8d be fb d2 de bd
       0.14585501 -0.011093202 -0.27539974 -0.10880085
000090 b4 a2 20 3e 12 11 22 3d 72 7a 35 41 f7 2c 81 bd
       0.15687066 0.03956706 11.342394 -0.063074045
0000a0 43 01 ec be f3 71 da 3f c7 88 e8 be cb a1 35 3c
       -0.46094713 1.7066025 -0.45416853 0.011085938
0000b0 24 e9 cb bd ea ae e0 bd d3 55 ba 3d 86 aa 1d be
       -0.099565774 -0.10970862 0.09098401 -0.15397081
0000c0 35 6d f0 3d 50 a9 1d 3f 95 a1 1b 3e 63 73 68 3c
       0.117395796 0.61586475 0.15198357 0.014187667
0000d0 92 bb 43 bf 9c db 46 3d fc 66 f6 3d 0f fb c6 be
       -0.76458085 0.04854928 0.120313615 -0.38863418
0000e0 82 22 0a be 03 62 76 3b 50 56 ae be 1f ca 64 bd
       -0.13489726 0.003759504 -0.34050226 -0.05585682
0000f0 f7 4f 28 3e 00 7d 11 3f 8a e6 93 3c cf ae 34 be
       0.16436754 0.5683136 0.018054266 -0.17644809
