ModelWeights/Pendulum-v1-69420-/critic.weights.pt (torch, 20750 bytes, 5 tensors)

network.0.weight f4 [64, 3]
00000000: 8c0f 3e40 fb0c 99c0 6ca4 5a3e 7bd0 90c0
00000010: c715 d4be e084 e7bd 967a 0ec0 9d24 ed3f
00000020: 0c8f 753f 841c 913f 820f 49bf f2a4 bebd
00000030: e0a8 67c0 4ea5 10c0 a902 79bf d81d de3d
00000040: 1b12 8dbe 2a6d 8bbd f922 2c40 14ac 0a3f
00000050: 1ccd 2ebf ab7e ba3f 1e01 f83f 1a4b d6be
00000060: a4e4 2ec0 fee8 d13f 4d9e 56bf 18a2 2740
00000070: 0236 8cc0 9eb2 1abf daee 893f 0dda 4bbf
00000080: 644b ddbe 6ff2 17c0 3817 f340 81ad 81bf
00000090: 47f7 7fbf fd17 d640 a875 1ac0 8d67 2e40
000000a0: 37f8 03c0 3912 4dbf f3b9 55c0 9a7b 39c0
000000b0: 8e69 16c0 28b6 0dc0 5a61 2ebe b1bd d7bf
000000c0: 3d1c 1340 fff4 1040 7a51 c13f 8315 053f
000000d0: 3c24 263f 8089 95bd f148 593f 1b4d c63f
000000e0: 807d 40c0 7677 38c0 17a5 0ebf 62b4 8c3c
000000f0: c4a2 1840 1821 583f f694 b73d b9c3 6a3f
00000100: 123e ecbe c57c f9be 5e6d 0740 1f8b 8b3f
00000110: 9727 4bbf f20c 803f 2d1e 7d3b a1cb bdbe
00000120: c6fa 3ec0 866b b8bf 2274 f43c d51f 993f
00000130: cabf 18c0 d58f 58bf 841b 0dc0 6bb1 3140
00000140: 4911 113f 05ed 8ac0 ee59 d2c0 cab7 8b3d
00000150: de32 01bf 23ae 2c40 5d42 71be 8e3f 9ebe
00000160: cd6e be3f 3474 37be 4f07 2ac0 ae3b 0bbf
00000170: ff35 a2bd 8a3f c540 c33a 0e3f 200b deba
00000180: dfda adbf f1ba ca3f ac5d bb3d 99f4 9abf
00000190: 2416 1fc0 8971 4f3f a57a f53c 676b f33e
000001a0: fa79 15bb 8f01 2440 ca24 0841 fae5 e83f
000001b0: 903a 7e3f 43bd 633f bc48 63bc c904 91be
000001c0: e88a 9d3e 8679 19bc 00fb 6e40 e1b2 0b41
000001d0: ffa1 7ebf c9ec 7ebf e364 4940 67a6 2f3e
000001e0: b007 3440 f226 11bf 7d23 4fbf 3d20 41c0
000001f0: c9d9 a03f b8bc cb3f 2e72 713f 268a e7be
00000200: 6c7a 72be 9a17 523f 1b55 92bf c020 f3be
00000210: 4a3c b1c0 712a aec0 977b 01bf 5bac 8640
00000220: 20d6 0240 d695 483f 9cfd af40 2a41 7140
00000230: ee5f 0340 fe3b 9f3f d145 f73e 6f41 bfbd
00000240: 2733 3d3f 3b2d ae3d d3e6 6dbe 68f1 e1bf
00000250: 0db7 e040 96cb dc3e aa56 e13c 8e0c b93d
00000260: ddbd e8bb 7bba 0840 c155 903f cb98 04be
00000270: d8f1 89c0 be57 a2c0 901b d4bf c006 7a3f
00000280: 7386 e03e b869 dabc bcea 603d c341 253f
00000290: 75f5 f23d ed18 92bf 9dfe f83f e48e 643e
000002a0: 2d75 08c0 a66c 2e40 9cbf f43e f720 3b3f
000002b0: f88c c7be b2f7 2a3e 1ea8 3f3e 218a 503f
000002c0: 77a3 2d3d 49c3 8ebf fd00 533f dd06 123e
000002d0: c25f 013e 1a3e 2abf d8ab e3be f2e7 e73f
000002e0: f878 15bf 1618 49bf ea2d efbf 6d2f a740
000002f0: c47e 23bf ca96 9d3f fc43 9e3f 3ab7 9bbc
2.969699 -4.7828345 0.21351784 -4.5254493 -0.41422865 -0.11304641 -2.226232 1.8526798
0.959214 1.1336827 -0.7853929 -0.093088046 -3.6196823 -2.2600894 -0.97269684 0.10845536
-0.27552876 -0.06807931 2.6896346 0.5416882 -0.6828172 1.4569906 1.9375341 -0.41854173
-2.732705 1.6399229 -0.838353 2.6192684 -4.3815928 -0.604288 1.0776017 -0.79629594
-0.4322158 -2.374172 7.5965843 -1.0131074 -0.9998669 6.6904283 -2.4134312 2.7250702
-2.0620248 -0.8010593 -3.3394744 -2.898169 -2.3501925 -2.214243 -0.17029324 -1.6854764
2.2985985 2.2649534 1.510299 0.5198595 0.6489904 -0.07301617 0.84876925 1.5492281
-3.00766 -2.8822913 -0.5572066 0.017175857 2.3849344 0.844255 0.08963959 0.917049
-0.46141106 -0.48728004 2.1160502 1.0901831 -0.79357284 1.000395 0.0038622722 -0.3706942
-2.984056 -1.4407814 0.029840533 1.1962839 -2.3867059 -0.8459447 -2.2048044 2.7764537
0.56667 -4.341433 -6.5734777 0.06822164 -0.5046824 2.6981285 -0.23560472 -0.30907863
1.4877564 -0.17915422 -2.656696 -0.5438794 -0.07920455 6.164006 0.55558413 -0.0016940571
-1.3582419 1.58383 0.09148726 -1.2105895 -2.4857264 0.81032616 0.029965708 0.4754288
-0.00228083 2.5625951 8.508982 1.8195183 0.9930811 0.88960665 -0.013872322 -0.28323963
0.3077004 -0.009367352 3.7340698 8.731172 -0.99465936 -0.99580055 3.1467826 0.17153321
2.8129692 -0.5670005 -0.80913526 -3.0175927 1.2566463 1.5916967 0.9431485 -0.45222586
-0.23679513 0.82067263 -1.1432222 -0.47485924 -5.5386095 -5.442681 -0.5057921 4.2085395
2.0443192 0.7835363 5.499708 3.7696023 2.05273 1.2440183 0.48295453 -0.09338652
0.7390618 0.08504721 -0.23232584 -1.7651796 7.022345 0.43124074 0.027507145 0.09035598
-0.0071027116 2.1363819 1.127617 -0.12948911 -4.310772 -5.0732107 -1.6570911 0.9766655
0.43852577 -0.026661739 0.05491136 0.6455347 0.118632235 -1.1413857 1.9452702 0.22320133
-2.1321518 2.7253814 0.47802436 0.73097175 -0.38974738 0.16696051 0.18716475 0.8146077
0.04239222 -1.1153346 0.82423383 0.1426043 0.12634185 -0.6650101 -0.44467044 1.8117659
-0.5838771 -0.7855238 -1.8685887 5.2245393 -0.63865304 1.2311642 1.2364497 -0.019008268

network.0.bias f4 [64]
00000000: e9fd 0d3f bf29 2440 a23c 4540 0636 9cbf
00000010: 4cbd 913f 3f51 1cbf 264b d8c0 d92c 9dc0
00000020: e90a f93f 312a 88c0 326f 38c0 6a31 5cc0
00000030: 0153 4cc0 92b7 4ac0 0f25 06be 575a b03f
00000040: 0f6c 46be f4c1 d2bf 65e9 6dc0 9b82 3e40
00000050: cff3 48c0 b33e 58c0 77ad 7dc0 d227 46c0
00000060: 98bc f23f 5b4f d5c0 c60e 5140 de07 85c0
00000070: bb32 9dc0 4656 90c0 7a1e e73f 9c97 21c0
00000080: f19a 3240 0eaa 8140 603c 04bf 6176 c03f
00000090: 6c42 2dc0 32d9 84bf fc7a fbbe 5f82 2840
000000a0: f543 31c0 6398 9ec0 6e7d 30c0 7ba1 93c0
000000b0: b24a 15c0 6527 ad3e 2d80 8ac0 5412 1ec0
000000c0: e7b5 47c0 4e26 0ac0 ddc3 5bbe e3bf 55c0
000000d0: cc18 ea3f 622b f3bf 92f1 05c0 c8d8 0040
000000e0: 67a6 4740 8066 efbf 4239 a0bf c553 2ec0
000000f0: 2a80 9dc0 84da 9ac0 4977 8a3f 3c3a 59c0
0.5546556 2.565048 3.0818257 -1.2203987 1.1385894 -0.6106147 -6.7591734 -4.9117246
1.9456455 -4.2551503 -2.8817868 -3.440516 -3.1925662 -3.1674542 -0.13100074 1.377757
-0.19377159 -1.646544 -3.7173703 2.9767215 -3.139881 -3.3788269 -3.9637125 -3.0961804
1.8963804 -6.665937 3.2665267 -4.1572104 -4.9124427 -4.5105314 1.8056176 -2.5248785
2.7907069 4.0520086 -0.51654625 1.5036126 -2.707179 -1.0378783 -0.49117267 2.6329572
-2.7697728 -4.956102 -2.7576556 -4.613462 -2.332684 0.33819118 -4.3281465 -2.4698687
-3.1204774 -2.158588 -0.21461435 -3.3398368 1.8288817 -1.8997614 -2.0928693 2.0132313
3.1195314 -1.8703156 -1.2517474 -2.723863 -4.921895 -4.8391743 1.0817653 -3.3941793

network.2.weight f4 [64, 64]
00000000: 53f1 8fbf ec51 d93f 89a0 77bf 14d5 c1bf
00000010: f794 8cbe 013d fabe 404c eabd a245 c53d
00000020: 2896 84bf 07f7 0dbe fa53 86be b54d 9bbf
00000030: 6c6d 7dbf ce9f 2fbf d938 60c0 00d1 88bf
00000040: c469 17bf 30dd 3ebf 3874 34be 8251 97bf
00000050: acb0 86bf c13c 4dbe a87d 83bf 95ee 92bf
00000060: f6a8 5fbf 7ff8 79bf 9c03 a2bf c811 483e
00000070: cf07 2f3a d268 823d cee7 5d3f 5c2e b93f
00000080: 8a5b 8dbf 9f35 4bbf 4690 dfbf 6254 16c0
00000090: e88e b3be 65e1 b33d 40ca a73f b201 05c0
000000a0: 353a 26c0 3afc 33bf 3eef 4fbf aa11 34bf
000000b0: ca11 08bf f859 3fbf ee4f ca3f 10e7 d53b
000000c0: a8fe 923e 82ae f1bf cf6b ba3d af92 5cbe
000000d0: 2aef b0bf 2e06 f23c 737a 80bd dde2 7cc0
000000e0: 434c 8cbf 333d 90bf ce61 e0bd 9a06 c5bf
000000f0: da44 813d 4de0 17bf 71bd d1bd 2842 923e
00000100: 3284 c4bd c325 cfbd 6307 2ebe c7f7 8dbd
00000110: b9b2 2ebe b8ef 60be 7b62 c3bd 3e99 74bd
00000120: 027d 8fbe b819 4ebe 86f0 51be 3e6e 16be
00000130: bf3e c3bd 9250 3ebe a875 923c de5d b1bd
00000140: eaaa 3ebe 7cbf e9bd 45e0 60bd 1e95 96be
00000150: c1d1 70be 39e6 1cbe da37 6abe 33bb 94be
00000160: 68d6 d7bd a959 77be 3433 40bd ff95 97be
00000170: 3cac 19be 54ac 30bd c743 96be ec88 a3bd
00000180: f0ef 00be fe68 a0bd 04f3 1ebe d5c7 edbd
00000190: f851 00be 5ee2 64be 00c4 96bd 1fee 62be
000001a0: 1cc1 3fbe b6e7 b1bd 6b31 c2bd 1f06 12be
000001b0: 90d9 7fbe 3ee5 f9bd 2441 13be 46dd 75be
000001c0: 49c0 56be 1c27 96be 0ed6 94bd 9ac6 993d
000001d0: 0778 8fbe 59df debd 9246 64be fea4 29bd
000001e0: d803 22be 20a7 8cbd 925f 30be 7745 83be
000001f0: 8f81 8cbe 7a36 c0bd 7add 79be 4b2e ebbd
00000200: f27c a3bf d75b 6ebe 55a8 e33d 68a1 6d3e
00000210: 204a eabe 03a5 acbe 406d eabe 2120 aa3c
00000220: 6798 423e 8f44 80bc 13f9 a5bd cb27 d6bf
00000230: dd21 5cbe 3500 99bf 9e53 90bf 12a6 d23d
00000240: f65f 14bd dd29 6cbe 6eba 7cbe 49b2 033e
00000250: 7817 1c3e 82ff 33be 5983 d43c 9569 07be
00000260: e16c 71be a00e 5cbe 8d55 e93d 1113 b4bc
00000270: 457f d53d d759 9e3d 203f 1fbe 6423 a4bd
00000280: ac47 3bbd 1501 75be 5ca4 8cbf 9705 5bc0
00000290: 7d01 cebd f68d ffbb 5aa2 a9bd 7bb1 10be
000002a0: 608a 36be 2cb2 03bf fb1d cabe 122f 79bf
000002b0: e377 b4bf dbc7 fbbe cf95 fdbc ce97 b03d
000002c0: 5fc4 823e 2f38 33c0 f727 c5ba d230 f5be
000002d0: 080c 8dbf 81a7 57be be27 cebe 40ef 8dbe
000002e0: 06e5 073e 9f52 c3be 3cca 2abe 15b9 34bf
000002f0: 2062 933c 2f25 a8bf d68c 6b3e 23e8 58be
00000300: 4453 82be 6114 42be c92f 99be f8a6 d9bd
00000310: 8bd8 c7bd 00cd 1cbe 6647 81bd cbb2 6bbe
00000320: bf9a 91be bffa 73be 0067 96be 0aaa 89bd
00000330: 57e4 76be 62a9 56be 4b25 3bbe e4c1 8ebe
00000340: dcd8 85be 6530 7dbd 14e4 8fbe e0fb 82bd
00000350: 0d76 8ebe bdbc 46be b8cd 12be ae74 29be
00000360: 23f3 67be 78d9 81be a24a 8fbd f894 bb3d
00000370: 78b8 8dbe 4809 05be d418 94be 293a 8abe
00000380: facc a4bd e962 1fbe 0bc3 63be 4d76 04be
00000390: 45e2 2ebe 48b8 31bd 462a e3bd cbe4 45be
000003a0: 5c4a a5bd 723c 88be f9c1 7bbe 6888 95bd
000003b0: b0bf 4fbe 2e04 85bd ed1d 47be 85f0 00be
000003c0: f02b 92bd a9b9 59be 071d 40be 215f 12be
000003d0: eec4 94bd 9325 35be d8db bdbd 42f5 98be
000003e0: 149b 3fbe e7bb 5abe d57c 7fbe d758 59be
000003f0: d656 e5bd b08b 5bbe 86c7 0fbe 57ec 14be
-1.1245521 1.6978126 -0.9672933 -1.5143151 -0.274574 -0.48874667 -0.11440325 0.09632422
-1.0358324 -0.13863765 -0.26235944 -1.2133089 -0.9899509 -0.6860322 -3.5034697 -1.0688782
-0.5914576 -0.74556255 -0.17622459 -1.1821749 -1.0522666 -0.20042707 -1.0272722 -1.147906
-0.8736719 -0.976448 -1.2657351 0.19538033 0.0006676884 0.06367649 0.8668183 1.4467273
-1.104356 -0.79378694 -1.7465904 -2.3489003 -0.35069966 0.08783225 1.3108597 -2.0782285
-2.5973027 -0.7030674 -0.8122443 -0.70339453 -0.53152144 -0.74746656 1.5805643 0.006527789
0.28709912 -1.888138 0.09102594 -0.2154033 -1.3822987 0.029543962 -0.06273355 -3.9513466
-1.0960773 -1.1268677 -0.10956155 -1.539264 0.063119605 -0.5932663 -0.10241211 0.28566098
-0.09595527 -0.10114624 -0.16995005 -0.069320254 -0.17060365 -0.21966445 -0.09540268 -0.059716456
-0.2802506 -0.20126998 -0.20501909 -0.14690492 -0.09533452 -0.18585423 0.017878368 -0.08660482
-0.18619886 -0.11413476 -0.05490138 -0.29410642 -0.23517515 -0.15322198 -0.22872868 -0.29049072
-0.105389416 -0.24155296 -0.04692383 -0.29606625 -0.15007108 -0.043133095 -0.29348585 -0.079851
-0.12591529 -0.07832526 -0.1552239 -0.116103806 -0.12531269 -0.22351977 -0.07361603 -0.22161148
-0.18726009 -0.086867735 -0.09482082 -0.14260148 -0.24985337 -0.122019276 -0.14380318 -0.2401019
-0.20971788 -0.29326713 -0.0726739 0.07508583 -0.2802126 -0.10882444 -0.22292545 -0.041417114
-0.15821779 -0.06867814 -0.17223957 -0.25638935 -0.27442595 -0.093853906 -0.24400893 -0.11483439
-1.2772505 -0.23277222 0.11116091 0.23206103 -0.45759678 -0.33719644 -0.45786476 0.020767273
0.1900345 -0.015657691 -0.08104148 -1.6730894 -0.21497293 -1.1953188 -1.1275518 0.10285582
-0.036224328 -0.23062845 -0.24680492 0.12860979 0.15243328 -0.17577937 0.025941538 -0.1322387
-0.2357669 -0.21489954 0.11393271 -0.021981748 0.10424665 0.07731979 -0.15551424 -0.08014563
-0.04572265 -0.23926194 -1.0987659 -3.4222162 -0.100588776 -0.0077989055 -0.08282919 -0.14130203
-0.17826223 -0.51443744 -0.39475998 -0.9733745 -1.4099087 -0.49175915 -0.030955223 0.086227044
0.25540444 -2.8003042 -0.0015041818 -0.4788881 -1.1019297 -0.21059991 -0.40264696 -0.27721596
0.1327096 -0.38148972 -0.16678709 -0.7059491 0.017991126 -1.3136348 0.23002943 -0.21182303
-0.25454152 -0.18953086 -0.2991927 -0.1062755 -0.09758099 -0.15312576 -0.06312446 -0.23017423
-0.28438374 -0.23826121 -0.29375458 -0.067218855 -0.24110542 -0.20963052 -0.18275945 -0.27882302
-0.26142013 -0.06181373 -0.28103697 -0.063956976 -0.2782444 -0.19407935 -0.14336288 -0.16548416
-0.22651343 -0.25361228 -0.06996657 0.09159273 -0.276798 -0.12991822 -0.28925192 -0.26997498
-0.08046909 -0.15565075 -0.22242372 -0.12935753 -0.17078502 -0.043388635 -0.110920474 -0.19325559
-0.080708236 -0.26608616 -0.24585713 -0.07301408 -0.20287967 -0.06494938 -0.1944501 -0.12591751
-0.07137287 -0.2126223 -0.18761073 -0.14294101 -0.07264124 -0.17690115 -0.092704475 -0.29874617
-0.18711501 -0.21360742 -0.24949963 -0.21225296 -0.11198203 -0.21440005 -0.14040956 -0.14543281

network.2.bias f4 [64]
00000000: 97f6 963e eb1c 68be 936f cc3e 7b43 44be
00000010: e0f5 e7bd 4bf2 9c3f a436 323e 1e5a 97bd
00000020: 60f1 823f 848b 93be c421 8dbf 2a7f bcbd
00000030: 8895 8d3f 6760 9bbe c060 c83f 0d3f 71be
00000040: 4c83 43be 7857 81bf 17b6 28be b6e6 823e
00000050: cfba a33f 5cb8 83be e145 84be e3c7 19be
00000060: 811e d6bd 8f05 a43e 732c c4be 2f10 50be
00000070: f1b0 24be e631 b7be 8e8c 86be 463e 923e
00000080: cc5f d1bd 359b 903e ed40 0240 6880 c5bd
00000090: ef2f 04be cee5 893e 742d 89bf e08d 073e
000000a0: cc2b f5bd 2fed d8bd 28f3 7ebe ea9a 863e
000000b0: 5316 0a3f f5a4 99bf 4be2 283f a3c2 b640
000000c0: 9bd5 3cbe f0f7 94be 00db 1e3e 7d59 d83d
000000d0: d59d 89be fada 99be 76f3 2cbe 1abb fe3e
000000e0: ae44 8bbe 28ef 0e3f 7420 8bbe 7434 24bd
000000f0: 647b 87be f1b0 c53e ebab bb3e bc72 56be
0.29485008 -0.22667281 0.39928874 -0.19166367 -0.11326194 1.2261442 0.17403656 -0.07390235
1.0229912 -0.2881738 -1.102593 -0.09203942 1.1061258 -0.30346987 1.5654526 -0.23559208
-0.19093055 -1.0104818 -0.16475712 0.25566643 1.2791384 -0.25726593 -0.25834563 -0.15017657
-0.10455037 0.3203549 -0.38315162 -0.20318674 -0.16083123 -0.35780257 -0.2627911 0.28563136
-0.1022335 0.28243414 2.0352128 -0.09643632 -0.1290891 0.2693314 -1.0716996 0.13237715
-0.11971244 -0.10592114 -0.24897444 0.26290065 0.53940314 -1.2003466 0.65970296 5.7112594
-0.18440859 -0.2909541 0.1551323 0.105639435 -0.2687823 -0.30049878 -0.16889748 0.49752122
-0.27200836 0.55833673 -0.27173197 -0.040089086 -0.26461327 0.38611558 0.366546 -0.20942205

network.4.weight f4 [1, 64]
00000000: b0df 91be f45c 29be c104 443d 2b72 e2bd
00000010: 3e4b c7bd 9b04 3c3e 5d55 703d bd8c b1bd
00000020: eee0 89bd bb22 a8bd 263d 45bd cce7 2ebe
00000030: 4fda 0a3d 87d3 d8bd 2a80 af3e b5be 3b3f
00000040: 651b 0ebe f0d4 6abf 814d 34be 9ae4 2abe
00000050: fcfe 42be 3b62 e4bd 5540 11be 16a9 b5bd
00000060: c69d 8ebe e4bb 8cbe 1b8f 8ebe 32e0 d8bd
00000070: ff00 14be 6c6f 393f 0ec1 97bd 2795 9bbc
00000080: f352 0c3e 9502 d93d 250a 183f bbd3 a8bd
00000090: 0968 35be 52fc 00bd 817b 6ebf 2cba 013f
000000a0: a5dd dcbd 655a 393e ff3d d6bd 2203 71be
000000b0: c09e 143e 3321 6cbf 8485 9bbe 4f0a 1fbf
000000c0: 145f 10be c6b6 abbd 0b1d ce3d 3f47 993c
000000d0: 0bab 30be f6b1 e1bd eafa 30be 052c 323d
000000e0: bc4d 1ebe b53e 893c 0dca 1bbe f386 30be
000000f0: a91c 0abe dae5 bf3d 6ecf 4cba eecf bdbd
-0.28490973 -0.16539365 0.047856096 -0.11056932 -0.09731148 0.18361132 0.05867516 -0.08669422
-0.06732355 -0.08209749 -0.04815402 -0.17080611 0.0338996 -0.10587221 0.3427747 0.7333787
-0.13877638 -0.91731167 -0.1760769 -0.16688767 -0.19042581 -0.111515485 -0.14184697 -0.08870141
-0.27854747 -0.274871 -0.27843556 -0.10589637 -0.14453505 0.7243564 -0.07409869 -0.01899202
0.13703518 0.105961956 0.5939048 -0.082435094 -0.17715468 -0.03149063 -0.931572 0.506747
-0.10784463 0.18100889 -0.104610436 -0.23536351 0.14513683 -0.9223816 -0.30375302 -0.62125105
-0.1409877 -0.08384471 0.10064133 0.01871073 -0.17252748 -0.110202715 -0.17283216 0.04349901
-0.15459341 0.016753534 -0.15213795 -0.17238979 -0.13487495 0.093700126 -0.0007812892 -0.09268175
