ModelWeights/Acrobot-v1-69420-/actor.weights.pt (torch, 39304 bytes, 8 tensors)

network.0.weight f4 [64, 6]
000000 a9 27 c7 3e f2 c6 44 be cb 6c 84 be 5d 57 01 3e
       0.38897446 -0.19216517 -0.25864252 0.12630983
000010 5b bd b8 3d ae 9f 99 be 29 4e cb 3e 10 d1 c4 3d
       0.09020492 -0.30004638 0.3970807 0.09610188
000020 36 89 42 3e 43 2e aa be 5e 85 25 3e 9d c5 76 be
       0.18997654 -0.3323842 0.16164157 -0.24098821
000030 f8 48 ae bd 55 06 df 3c 4d 90 7f 3e 9c b9 e7 3e
       -0.085100114 0.027224699 0.2495739 0.45258796
000040 f4 24 c2 be ea 59 6b 3d a5 ec 48 be 2f 27 b5 3e
       -0.37918818 0.057458796 -0.19621523 0.35381457
000050 b4 2e 80 be b2 15 b7 3e 29 b2 aa be 2a f3 50 3e
       -0.25035632 0.3575874 -0.3333905 0.2040526
000060 e6 d0 bc 3e ca d2 69 be 3c 95 19 3d 7e a6 c9 3e
       0.36878127 -0.22834316 0.037495837 0.39384836
000070 5c 08 31 be eb b6 23 3e 54 43 3c bd 36 e2 74 3e
       -0.17288345 0.15987746 -0.045962647 0.23914418
000080 cf ae 14 3e 0d cb f4 3c c1 30 1e 3e 87 58 5b be
       0.14519809 0.029881978 0.15448286 -0.21420489
000090 66 d3 24 3a f3 5e 98 3e d7 dd ad 3d 27 c2 49 3e
       0.00062876043 0.2975994 0.08489578 0.1970297
0000a0 65 79 d9 bd 97 b8 0a 3f 78 ec 5c be 6a fa 28 be
       -0.10618857 0.5418791 -0.2157458 -0.16501775
0000b0 69 08 a8 3e de cd 07 3d a1 ef 92 bc 94 18 d2 bd
       0.32818916 0.033155315 -0.01793653 -0.10258594
0000c0 0b c8 ce 3d 71 22 48 3e 93 b7 0b 3e 86 20 10 3e
       0.10096749 0.19544388 0.13644247 0.14074907
0000d0 69 38 df 3d aa a7 9c 3d 51 e0 db bd 9c 21 3d be
       0.10899431 0.07649167 -0.10736144 -0.18469852
0000e0 43 ce 41 3d e1 b6 50 3e eb 4b e7 3d eb a8 71 be
       0.047315847 0.20382263 0.11293777 -0.23599593
0000f0 7e f5 58 be 35 df 36 3e fa 25 e1 be 8c b0 c6 be
       -0.21187398 0.17858584 -0.43974286 -0.3880657
000100 d5 bd 45 be 7f 3b 3b bd 75 70 ef 3e 2d 68 93 be
       -0.19310696 -0.045711037 0.46765485 -0.28790417
000110 fe 11 9e bd 03 7e 82 3e 00 af 9d 3e eb 0a c7 be
       -0.077182755 0.25486764 0.30797577 -0.38875517
000120 8e e3 e8 be 90 6c a3 3e 14 7b 19 be 99 65 26 3e
       -0.4548611 0.31918764 -0.14988357 0.16249694
000130 f6 e2 25 be 80 d5 2a be 86 fe fe 3d e9 f1 33 bd
       -0.1619986 -0.16683006 0.1245089 -0.043931875
000140 2a 06 92 3c ed 9b a4 3e 77 6d 8e 3e 6c e9 e9 be
       0.017825205 0.32150212 0.2781789 -0.456859
000150 04 54 80 3e a2 d4 b4 bd 61 a9 94 3e cb 04 a4 bc
       0.250641 -0.08829619 0.29035476 -0.020021817
000160 b3 01 65 3e 1a a3 e9 bd 5f 77 c7 3e 8c f7 1b bd
       0.2236393 -0.11408062 0.3895826 -0.038077876
000170 4f 7c 2e bc 8a bb 97 3e a5 43 27 3e 79 f6 07 3e
       -0.010649755 0.29635268 0.16334398 0.13277616
000180 f9 3f 29 3e f9 39 93 3e 45 14 91 bd a3 63 86 bd
       0.1652831 0.28755167 -0.07083944 -0.06561973
000190 c7 da 1a 3e e8 0c 7a be 20 ed 91 3e 25 56 fa 3c
       0.1512252 -0.24418986 0.28501225 0.030558655
0001a0 16 09 e0 3d f1 51 7d 3d ca 1d ea 3c 92 fa 9b 3e
       0.10939233 0.061845724 0.028578658 0.30464607
0001b0 a9 89 a8 be de 69 b6 3d 01 54 d6 bd 1d f1 14 be
       -0.32917526 0.08906911 -0.10465241 -0.14545102
0001c0 83 87 89 3e b8 82 80 3e b0 9a 58 3e a5 1f 88 3c
       0.268612 0.2509973 0.21152759 0.016616652
0001d0 bf 26 cd 3e c8 53 5f 3c 72 c2 4d 3e 2a 0f 01 3f
       0.40068623 0.013630815 0.20093706 0.50413764
0001e0 f7 18 fc 3d 2e 04 93 be 14 0e 6f be 4b 14 9f 3e
       0.12309449 -0.28714126 -0.23345214 0.3107017
0001f0 d6 7c f5 bd 0d bd 88 bc e2 30 fd bd 29 07 f1 bd
       -0.11986701 -0.016691709 -0.12362839 -0.11768944
000200 0b 94 4c 3d ca 28 47 be 47 5e 32 3d b2 2f c9 3e
       0.049945872 -0.19449154 0.04354694 0.392942
000210 52 34 5a 3e c5 4b 71 be 0d bf 8d 3e e8 70 89 3e
       0.21309021 -0.2356406 0.27684823 0.26843953
000220 71 a4 84 be 1e 5a 7d be 50 2e 57 3e dd 0c 00 be
       -0.2590671 -0.24741408 0.2101376 -0.12504907
000230 6d bd 91 be e1 b4 97 3e 50 ab 45 3e b9 e0 9f bd
       -0.28464833 0.29630187 0.19303632 -0.07806534
000240 37 b1 5a be ad 64 49 3e 66 54 66 3e 00 dd 07 be
       -0.21356665 0.19667311 0.22493133 -0.13267899
000250 7a 14 b1 bb fc 89 ff 3d db d3 94 3d ba 3b 1c be
       -0.0054040523 0.1247749 0.07266971 -0.15257159
000260 94 2f c8 bc 2a ff 21 be 5c 68 1d be ce 85 8f 3e
       -0.02443675 -0.15819994 -0.15371841 0.28031772
000270 4c 21 e9 3c 04 42 c1 3e b1 02 fb 3c ab fe 27 3e
       0.02845826 0.37745678 0.030640932 0.16405742
000280 54 3a 51 bd 55 a3 fe 3e 57 2b cf be 55 47 a0 3d
       -0.051081017 0.49733987 -0.40462753 0.078261055
000290 ad 5d 8f bd 31 e3 2f 3e 35 db a1 bd 69 15 d9 be
       -0.07000289 0.1717651 -0.079031385 -0.42399147
0002a0 bd ef 9f bd 13 14 8f be 78 aa 2a be 00 1e a8 be
       -0.07809398 -0.27945003 -0.16666591 -0.32835388
0002b0 30 18 a4 be a2 c3 e4 3d 83 aa bf 3e 12 be ae 3e
       -0.32049704 0.111701265 0.37434778 0.34129387
0002c0 d5 21 f1 3e 16 47 b7 3e 37 44 1a 3e 49 c3 4e bd
       0.47096124 0.35796422 0.15065084 -0.050479207
0002d0 a0 29 dd 3d b8 6a 97 3e 53 b2 b2 be 5c f7 cb bd
       0.10798955 0.29573607 -0.34901676 -0.099592894
0002e0 c1 39 23 bc 55 45 d7 be a0 3d 87 3e 3b 15 8f be
       -0.0099625 -0.42045084 0.26414204 -0.27945885
0002f0 0b 1f bd bd 38 07 44 be d5 f7 c6 be e5 79 51 bc
       -0.092344366 -0.19143379 -0.38860956 -0.01278541
000300 0d c5 fb bd 6d c5 03 be d1 99 90 be 5d e8 c4 be
       -0.12293444 -0.1286828 -0.28242353 -0.3845853
000310 75 45 22 3e 7c d8 d9 3e 4b 46 38 3e 99 f0 35 be
       0.15846808 0.42547977 0.17995565 -0.17767562
000320 34 7a 0f be d5 3c 68 3e e8 3c 91 3e 9b cb 96 be
       -0.1401146 0.22679456 0.2836678 -0.29452214
000330 04 f3 dd 3e 0b 56 03 3e f2 c0 91 be 0a 36 cd be
       0.4334947 0.12825792 -0.28467518 -0.4008029
000340 0d 05 8c 3d c4 31 31 be da 4f 2e 3e 02 f9 9d 3d
       0.06836901 -0.1730414 0.17022648 0.0771351
000350 fc 67 9d 3e d1 0e c4 bd ba d1 4e be c7 74 c4 be
       0.30743396 -0.095731385 -0.20197192 -0.38370344
000360 5c 8b f3 bc be 0e c1 3d b7 2f 88 3e 1d d6 90 3e
       -0.029729538 0.0942664 0.26598904 0.28288355
000370 9b 51 82 be 6f 59 c4 3e e1 68 a7 be 0d 06 24 3d
       -0.25452885 0.38349482 -0.32697204 0.040044833
000380 05 b7 90 3e 18 cc 65 3d 27 08 8f be ad 0b a5 be
       0.28264633 0.056102842 -0.27935907 -0.3223547
000390 ae 32 d0 bd 1b 7a be 3e 90 63 a2 3e 63 58 8f be
       -0.101659164 0.37202534 0.31716585 -0.2799712
0003a0 d3 ab be be 5b a6 18 3e b6 d4 3e 3e 9d bf bf bc
       -0.37240466 0.1490721 0.1863583 -0.023406798
0003b0 33 03 3c 3d 6b f6 99 3e c9 93 26 be 6b 70 3b 3b
       0.04590149 0.30070814 -0.16267313 0.0028600942
0003c0 b0 59 e9 3e aa 9b bf 3e a5 56 b2 3e bc d1 a9 3e
       0.4557624 0.3742345 0.3483173 0.33167827
0003d0 ef be 50 3e 7f 9e 83 be 93 6e 9a be 35 b2 1c be
       0.20385335 -0.2570686 -0.30162486 -0.15302356
0003e0 f4 66 32 be e1 0c 11 3d 7f a9 76 3d c1 0e b3 be
       -0.17422086 0.035412673 0.060220238 -0.34972194
0003f0 9f f3 ac be 6d 2d 94 be cc e1 cc 3e 8f 75 e4 bd
       -0.33779618 -0.28940907 0.4001602 -0.11155235

network.0.bias f4 [64]
000000 ac 3b ae 3d c7 e4 73 3e 40 1b a6 be b7 77 40 bd
       0.08507475 0.2381774 -0.32442665 -0.04698917
000010 a7 56 0e 3e 9c 7b a5 3e 0d 28 6e bd c5 0a 08 3e
       0.13900243 0.3232087 -0.058143664 0.13285358
000020 c4 e5 db bd ff bf 2f 3e dd e6 94 be b9 fe 38 bd
       -0.10737184 0.17163084 -0.29082385 -0.045164797
000030 53 65 8b bd 89 29 4e bd f4 47 ad 3e d9 d8 d1 bc
       -0.068064354 -0.05033258 0.33843958 -0.025616096
000040 56 80 b2 3e 83 94 22 be 4f 3b e6 bd 08 9e 13 3e
       0.34863538 -0.15876965 -0.11241781 0.14415753
000050 1f 23 aa bc 39 ba 8d be 11 2e 81 be 41 10 bc 3e
       -0.0207687 -0.2768114 -0.25230458 0.3673115
000060 66 6d 45 3e 3c 7b 29 be 3d 46 f9 3e b2 79 a5 3d
       0.19280013 -0.16550916 0.486864 0.08079852
000070 b0 8b c5 3e 05 2d a0 3e 21 d9 8d be 4e a6 62 3e
       0.38583136 0.31284347 -0.2770472 0.22133753
000080 b2 c4 bb be 43 1e 86 be b1 75 97 3e f2 0f d4 be
       -0.36673504 -0.26194963 0.2958198 -0.41418415
000090 14 8f 28 be 76 a4 73 be 88 4a 66 bd 44 39 7d bd
       -0.1646083 -0.23793206 -0.056223422 -0.06182219
0000a0 6d cb 1f be 1c 0a 07 be 7e c9 02 3e 26 fb 6f 3d
       -0.15604945 -0.1318745 0.12772176 0.058589123
0000b0 84 2b 89 3e 7a 5f 93 bc 7d f7 0b bd 7d b1 48 be
       0.26791012 -0.017989863 -0.03417157 -0.19598956
0000c0 e2 0c 84 3e 40 fa ea 3d fc ca 14 3d 6c 7c af be
       0.2579108 0.11473513 0.036326393 -0.34274614
0000d0 6c de 48 be 47 b1 43 3e b8 2b 11 be 32 3d 95 be
       -0.19616097 0.19110595 -0.14176834 -0.2914825
0000e0 c4 79 39 bd a5 76 60 bd b4 a8 bf 3d 3e 34 91 be
       -0.04528214 -0.05480065 0.093583494 -0.2836017
0000f0 cd 76 9f 3d 40 48 3f 3d 38 ce 62 bd e2 fb 93 be
       0.07786331 0.046699762 -0.055372447 -0.2890311

network.2.weight f4 [64, 64]
000000 0d 87 af bd 94 28 7b bd f7 eb 51 3d 48 cf b8 bd
       -0.08570681 -0.061317995 0.051250424 -0.09023911
000010 75 40 1d 3c 20 e7 81 bd e4 80 2e 3c fc 92 fa 3d
       0.009597887 -0.06342912 0.010650847 0.12235066
000020 8d 22 ce 3d 11 dc b9 3a b7 05 bf bd cb da 8e 3d
       0.10065184 0.0014179965 -0.09327262 0.06975325
000030 35 d1 06 be dc ef 9c 3d 30 a3 91 3d 94 1f 5e bd
       -0.13165744 0.07662937 0.07111204 -0.054229334
000040 23 1d 9e 3d f0 53 30 bc 6e 6f 33 bd 36 e1 d7 3d
       0.07720401 -0.0107622 -0.04380744 0.105410025
000050 b9 83 25 bd 0d d7 a0 bc 60 d6 91 3c 8b ed bd 3b
       -0.040408824 -0.019633794 0.017802417 0.0057961396
000060 91 d0 6c bd 87 f8 a6 3d 88 a9 06 be 8e dd 84 bb
       -0.057816092 0.081528716 -0.13150609 -0.0040547317
000070 87 0e 9d bd 7c 5b 93 3d e1 c4 3a bd af 42 82 3d
       -0.076687865 0.07195184 -0.045597915 0.06360375
000080 0a 66 d5 bd 60 46 89 bd 02 19 f0 3d 90 04 e8 3d
       -0.10419853 -0.06702876 0.1172352 0.11328995
000090 e5 43 85 bd d2 b6 0d be 82 fb 18 bb 0a 43 16 bd
       -0.065070905 -0.13839272 -0.002334327 -0.036685027
0000a0 61 03 c0 3d 8d aa b2 3d 4c f1 d7 bd f1 de bb 3d
       0.093756445 0.08723936 -0.105440706 0.09173382
0000b0 b1 ce 12 bd 09 37 06 bd 90 2b 30 3d 20 e0 87 3d
       -0.035841648 -0.03276733 0.043010294 0.06634545
0000c0 38 3b ac 3d df 0e 61 3d dc ce 85 bd 47 cb 8f bd
       0.084097326 0.054945823 -0.06533596 -0.07021194
0000d0 98 25 92 bd 08 86 14 be 76 81 63 3d ee 6c 02 be
       -0.07136077 -0.14504254 0.055543385 -0.12736866
0000e0 c5 7e 2e bd e1 22 22 3d 41 ae 9c 37 ce 27 45 bd
       -0.042601366 0.039584044 1.8677792e-05 -0.048133664
0000f0 55 45 c7 3d c0 e7 f4 3d 9a 3b c6 3d 13 29 c0 3d
       0.09730021 0.11958265 0.09679337 0.09382834
000100 66 b7 f7 3d 22 a3 e5 3d 38 40 33 be 9f 2b 88 bd
       0.12095527 0.11212756 -0.17504966 -0.06648945
000110 5a a3 d9 bc 51 18 4a 3e 15 9a e9 bd 8d c3 10 3e
       -0.02656715 0.19735838 -0.11406342 0.14137097
000120 00 10 3b bc c6 1c 5d 3e 66 17 77 bd ee 42 01 3e
       -0.011417389 0.21593007 -0.06032505 0.12623188
000130 77 c2 ae 3d bf 79 25 3e 85 3d 0a 3e 46 75 35 3e
       0.08533185 0.16159724 0.1350003 0.17720518
000140 1c 89 28 3d 93 dc 3f bd 61 ab fc 3d 9f 54 35 3c
       0.041146383 -0.046841215 0.123373754 0.0110675385
000150 dd ba 60 bd c4 39 e5 bc a0 50 b3 3d d2 62 21 3d
       -0.054865707 -0.027981646 0.087556124 0.039400883
000160 d6 46 5c 3c 97 2c d4 bc ac ed b0 bc 55 52 18 3e
       0.013444623 -0.025900168 -0.021597706 0.14875157
000170 6b 03 89 bd f7 18 5c 3d d6 88 82 bd 93 7a 1f be
       -0.06690105 0.053734746 -0.06373756 -0.15574102
000180 fd d4 91 bd 6a 5f 60 3e b2 7e d6 3c 3c 1c 97 bd
       -0.071207024 0.21911398 0.02618346 -0.07378432
000190 a7 40 49 bd bf 4f e0 3b 5a fa d5 bd f8 4a 59 bd
       -0.049133923 0.006845444 -0.104481414 -0.05305001
0001a0 5a a5 55 3d c8 4a 57 3e ba 2e 19 bd 92 f3 01 be
       0.052159645 0.2102462 -0.037398078 -0.12690571
0001b0 bf 66 7a 3c f9 75 87 3d 03 aa 73 3e 86 66 73 3c
       0.015283286 0.066142984 0.23795323 0.014855986
0001c0 be c9 d2 bc e8 df 0e 3e 64 b8 0d 3e b7 d2 a0 3d
       -0.025730964 0.13952601 0.1383987 0.07852691
0001d0 e8 3b 8a bd 59 9f 34 3d 6a e9 2b be ae c8 b2 bd
       -0.067497075 0.04409728 -0.16788259 -0.08729683
0001e0 9c 75 14 be 5e 7d 10 3e dc 2d 26 3d 3d cd 12 bd
       -0.1449799 0.14110324 0.04057108 -0.03584026
0001f0 84 a3 98 3d fa cb 6d 3d 53 47 d2 3c 3c ab b0 3d
       0.07453063 0.058055855 0.025668776 0.0862641
000200 30 be d2 bd 56 52 83 3c 2d 2c 95 3d 8d e8 b8 bd
       -0.10290182 0.016030472 0.072838165 -0.090287305
000210 42 1c 01 be 95 c9 33 3d 39 57 3b be 3f 80 15 3d
       -0.12608436 0.043893415 -0.18294992 0.036499258
000220 5e 84 e9 bc 20 bf 33 3d 6a 4a 9a 3d 43 78 15 3e
       -0.0285055 0.043883443 0.075337246 0.14596657
000230 02 4a 7b 3d fb 9e 18 bd d9 67 db 3c c1 82 b4 bc
       0.061349876 -0.03726099 0.026782917 -0.022035005
000240 71 4a 2c 3d 63 c5 e1 3d 34 4f 23 3d 34 ce 04 be
       0.04206318 0.11023977 0.039870456 -0.12969285
000250 0a ba 58 bd 3f 21 a0 3d 7c d7 27 be f2 34 20 3d
       -0.052911796 0.07818841 -0.16390795 0.039112993
000260 28 13 ee bc 9e 16 11 bd f8 b4 65 be 29 0e ae bd
       -0.029061869 -0.03542196 -0.22432315 -0.084987946
000270 0c f5 88 bd f6 2a 44 3c ed e3 0b be 4c 9b fb 3c
       -0.06687364 0.011973133 -0.13661166 0.0307137
000280 53 4b 35 bd e2 85 90 bd 18 3d f5 bd ef b2 9c 3b
       -0.044261288 -0.07056786 -0.11974543 0.0047820727
000290 e6 d5 24 be 8b 30 10 3d d8 ad aa b9 8e b3 f8 3c
       -0.16097221 0.035202544 -0.0003255445 0.030359056
0002a0 5a be 46 3d 8a 32 94 3d 70 0d a4 3b ac 75 47 3d
       0.048521377 0.07236202 0.0050064847 0.048696205
0002b0 5c 69 2b 3d 4d ff ba bd 4c 46 9f 3d 42 c7 08 3d
       0.041848525 -0.09130726 0.0777708 0.033393152
0002c0 9d 03 c9 3d a6 a0 79 bc f1 a9 8a 3d 39 88 0b 3d
       0.09815142 -0.0152360555 0.06770695 0.03406546
0002d0 cf eb 18 be 9c 39 29 be 57 13 8d bd 50 e1 83 3a
       -0.14933704 -0.16525882 -0.068884544 0.0010061655
0002e0 1e 96 83 3d 3d 24 52 3d 33 65 d3 bd 0c ad e0 3d
       0.06425117 0.05130409 -0.103220366 0.10970506
0002f0 f5 ee 6e 3d ca 12 e8 bd f6 3e 06 be d4 2c f3 3d
       0.058333356 -0.11331709 -0.13109955 0.11873785
000300 ee fb 9f bd 1c 20 ea 3b 4e f1 d2 bb 6d cc ca 3d
       -0.07811724 0.007144941 -0.006437457 0.099022724
000310 17 9b cd bd 3e 77 86 3c 8c 49 2e bd f1 2f ea 3d
       -0.10039347 0.016414281 -0.04255061 0.11434925
000320 28 d8 c5 bc 59 b0 90 bd 47 1c a9 bd de 5b a8 bd
       -0.024150923 -0.07064886 -0.082573466 -0.08220647
000330 13 94 e0 bd a0 22 98 bc 35 24 b7 3c 40 9d bd 3d
       -0.10965743 -0.018571198 0.022356132 0.09258509
000340 ad 2e 00 be f8 c8 08 be e2 7a 8d 3d 64 6b 4f bc
       -0.12517805 -0.13357913 0.06908204 -0.012659881
000350 7f 4e e2 bc 78 22 4a 3d 0a 9a aa bd 58 02 26 3d
       -0.02762532 0.04934928 -0.08330162 0.04052958
000360 61 cc 9a bd 4c 18 22 3d 2c e3 9d bd 5b 96 03 be
       -0.075585134 0.039573953 -0.07709345 -0.12850325
000370 50 95 42 3c d6 bc f6 3c 90 ed 4f bd 28 95 a0 bc
       0.011876419 0.03011934 -0.050763667 -0.019602373
000380 e9 8b 6a bd c3 71 f1 ba fd fe 19 bc 1a c5 3c 3c
       -0.057262335 -0.0018420744 -0.009399173 0.011521602
000390 ac b4 35 bd 95 e4 90 bd 1a fb a2 bc b6 c5 98 3d
       -0.044361755 -0.070748486 -0.019895125 0.07459585
0003a0 94 05 61 3d dc c7 d4 bd 42 c7 8a bd c9 98 2c 3d
       0.05493696 -0.10389683 -0.06776287 0.042137895
0003b0 29 d0 e7 bd fc 4e cd bd 4e 1f 82 3c 96 c3 9a 3d
       -0.11319 -0.10024831 0.015884068 0.07556836
0003c0 1b c6 be bd a8 bb 6b 3d 89 6a e1 3c ae 66 cc bd
       -0.09315129 0.05755201 0.02751662 -0.09980522
0003d0 d4 6d 21 bd 58 a7 2a 3d 0f 4f 93 bb d7 b5 85 bd
       -0.03941138 0.041663498 -0.0044955085 -0.06528824
0003e0 93 97 b4 3d 4e 80 34 3c cc 32 dd 3c ac 59 4b 3b
       0.08817973 0.011016918 0.02700176 0.003102879
0003f0 c4 73 cb bd 73 5d a2 3c de 5e 8b 3d 7b a5 84 bc
       -0.0993419 0.01981995 0.06805204 -0.016192188

network.2.bias f4 [64]
000000 62 1f 05 3e 43 85 d5 3d 0e 5f 5d bd d1 41 50 3b
       0.13000253 0.10425808 -0.05404573 0.003177751
000010 04 7d 3d bd 4a 92 b6 bd a4 ed 77 3d fb 9c 90 bb
       -0.046261802 -0.08914621 0.060529366 -0.004413245
000020 1b e9 fd 3d b9 9c 92 bd ff ed 80 3d 15 e0 d9 3d
       0.12397977 -0.07158799 0.06295394 0.106384434
000030 b9 60 b9 3d b1 3a 79 bd 92 46 f1 3b f7 88 15 3e
       0.090516515 -0.060846988 0.007363149 0.14603029
000040 1e b7 db bd c2 ae 31 bd 37 ae db bc 06 fb 72 3d
       -0.10728286 -0.043379553 -0.02681647 0.059321426
000050 1a 14 b7 3c 05 96 3b bd e4 0d 03 be 8a 8b 58 3d
       0.022348452 -0.045797367 -0.12798268 0.05286745
000060 51 a2 04 be 90 7d 74 bc ef 34 e7 bc 2e 93 fd bc
       -0.12952544 -0.014922515 -0.028223483 -0.03095397
000070 b4 b0 95 bd 68 d7 2d 3e 2f dd 92 3c fa 88 04 3e
       -0.07309094 0.16976702 0.017927734 0.12942877
000080 a0 40 83 bd fa 6b 8d bd dd d1 fc bd 81 1d c3 3d
       -0.064088106 -0.069053605 -0.12344716 0.09527112
000090 d4 42 c4 bc b9 2b f0 bc b2 e2 b1 3d f0 ca 99 bd
       -0.023957647 -0.029317724 0.08685817 -0.075094104
0000a0 63 df ad bd 13 51 25 3d 30 29 b0 3d e9 24 56 3d
       -0.08489873 0.04036052 0.08601606 0.052281294
0000b0 de 0b d4 bd 4b 18 01 be da 68 a0 bd d4 7d cf 3d
       -0.10353826 -0.12606923 -0.07832499 0.10131422
0000c0 84 ce de 3d 11 f7 82 3d 84 7a 92 3c 21 57 b3 3d
       0.108792335 0.063947804 0.017880686 0.08756853
0000d0 f8 76 61 bd aa b6 00 3e 16 ba e8 3d f3 0a 6e 3d
       -0.055045098 0.12569681 0.11363618 0.05811591
0000e0 55 f1 33 3d ce b3 5c 3d e8 00 a7 3d cf b4 dc bd
       0.043931324 0.053882413 0.0815447 -0.10776674
0000f0 ee 4e c2 3c d5 fe e8 3d 3d ed 79 bd a1 f6 8b bd
       0.023719277 0.1137673 -0.061017264 -0.0683415

network.4.weight f4 [64, 64]
000000 4e 1d a0 bd c8 c6 79 bd 66 d4 99 3c 6b 1d a8 3d
       -0.078180894 -0.06098059 0.018778037 0.08208736
000010 93 47 97 3d 8d 3f be 3d 78 c0 53 3d 5f ff 33 bd
       0.073866986 0.09289465 0.051697224 -0.043944713
000020 a2 b1 bd 3d a5 c9 a9 3d d8 ff 2a 3d 04 5f 9b 3b
       0.092623964 0.08290414 0.041747898 0.0047415514
000030 1e ca de bd 93 a6 f6 bd 63 61 c9 bd fe e1 9c bc
       -0.108783945 -0.1204349 -0.09833028 -0.01915073
000040 3a 18 37 3c 37 71 1d bd 98 7a 0e 3e 0c 2f 27 bd
       0.01117521 -0.03843805 0.13913953 -0.04081635
000050 13 f5 94 3d df 10 91 3d d5 8d fe bd 2a c6 d9 3d
       0.07273307 0.07083296 -0.12429396 0.106335
000060 aa 20 ab 3d cb 67 7e bd d1 0f 5e bd 2b 81 96 3c
       0.083558396 -0.062110703 -0.054214302 0.018372139
000070 b7 c3 32 3c 2a e8 92 3d 88 27 15 3e d2 0d 8a bd
       0.01091092 0.07173188 0.14565861 -0.06740917
000080 88 cb 39 3d 8d 5e 5a 3c 88 f4 b0 bd 05 a1 b0 3c
       0.04536012 0.013328207 -0.08640391 0.021561155
000090 5d 42 d1 bb 7e 54 ad bb 1e d3 87 3d 4f c7 9e bd
       -0.006386085 -0.0052896133 0.06632064 -0.07752859
0000a0 2a d8 a2 bc cf 76 a5 3c 6c 83 27 3e be d2 0e 3e
       -0.019878466 0.020198254 0.16358727 0.1394758
0000b0 9d 71 32 3d f5 1f fe bc 93 21 3a bd 1b 45 d2 3d
       0.04356538 -0.031021098 -0.045442175 0.10267087
0000c0 a6 09 3c 3d a0 f6 08 3e 74 3b f6 3c 37 96 d0 bd
       0.04590764 0.1337533 0.030057646 -0.10184901
0000d0 6b fa eb 3d fd 82 81 3d 0c 53 d8 bd 3e 4e b9 bd
       0.11522373 0.06323812 -0.10562715 -0.09048127
0000e0 6e 9b 40 3c 05 53 21 bd c0 25 a4 bc 00 53 a0 3d
       0.011755807 -0.039385814 -0.020037532 0.07828331
0000f0 f3 a7 16 bb 06 86 7d 3c 2c 66 9f 3d 08 1a 32 3c
       -0.002298829 0.015473848 0.077831596 0.010870464
000100 bc 3d dc bd 81 ee fe bd f1 c0 43 bc af 87 22 3c
       -0.107539624 -0.12447835 -0.011947856 0.009920045
000110 fc 0d b7 3d 40 a6 79 3c d9 88 55 3c 88 50 fa bc
       0.08938214 0.015237391 0.013033115 -0.030555978
000120 6b 88 f5 bd 67 dc f4 bd a6 e4 34 bd 1f 40 c6 bc
       -0.1198891 -0.11956101 -0.04416337 -0.024200497
000130 56 71 df 3d 6a c9 ea 3d ff 79 89 3d 08 50 94 3d
       0.10910289 0.11464198 0.06712722 0.07241827
000140 06 ec e0 bd 6a fc a3 bc 52 83 2e 3d e7 2b d8 3d
       -0.10982518 -0.020017821 0.042605706 0.10555249
000150 ae f9 bc bd ef 81 46 bd d5 60 bf 3d 89 2d 51 bb
       -0.0922731 -0.048463758 0.09344641 -0.003191801
000160 69 f2 a1 bd 54 bc f0 bd 68 de 81 bc c1 f8 5f bd
       -0.07907564 -0.11754671 -0.015853122 -0.05468059
000170 54 e9 dc bd 27 a2 ec bc 90 96 20 3d 67 9f ba 3b
       -0.10786691 -0.028885914 0.039206088 0.005695272
000180 e1 6d bc 3d dc b8 b8 3d 80 9d b0 3d c9 7d b7 bd
       0.09200645 0.09019634 0.08623791 -0.089595385
000190 5f f4 73 3c 4a d4 1c bd 3b 7d c6 3d 71 58 50 3d
       0.014889806 -0.038288392 0.096918546 0.050865594
0001a0 c2 03 90 bd c1 f9 cd bd 50 44 c3 bc 89 64 75 bd
       -0.07031967 -0.100574024 -0.023836285 -0.05991033
0001b0 20 78 3f 3d 7d 01 0b 3d 2e 1f 51 bd ed 48 03 be
       0.04674542 0.033936966 -0.051055126 -0.12820788
0001c0 86 bb a4 3d 72 01 b2 3d 6e 0e cc bd 22 29 ed bd
       0.0804358 0.08691682 -0.0996369 -0.11580111
0001d0 ff ff 15 be 7e d2 bf bb d0 3e 89 bc a8 b6 cf bd
       -0.14648436 -0.00585395 -0.016753584 -0.10142261
0001e0 52 96 96 3c 5c da 86 3d 9b 5f d9 bd 47 59 c3 ba
       0.018382225 0.065846175 -0.106139384 -0.0014903926
0001f0 8f c7 b1 3d 1d b8 9d bd 7a 1e c8 bd e5 89 7b 3d
       0.08680641 -0.077011324 -0.09771438 0.061410803
000200 d1 10 da bd e4 d3 84 bb af 1d d4 3d 04 2f d3 3d
       -0.10647739 -0.0040535796 0.10357224 0.10311702
000210 f5 ca ed 3d 40 c2 e6 3c 09 a3 4b 3d 4d b2 ae bd
       0.116109766 0.028168797 0.04971603 -0.08530102
000220 a4 e6 66 bd ea cf d8 3c b2 01 96 3d 66 a4 e3 3d
       -0.0563723 0.026466329 0.07324542 0.11115341
000230 da 22 ef 3d 70 6e cd 3b 2e 00 f7 3d 24 5c 70 3c
       0.11676569 0.0062692687 0.12060581 0.014670406
000240 0a 0d e9 3d 26 f7 e8 bd 12 a0 f2 bd 59 34 32 bd
       0.1137944 -0.11375265 -0.11846937 -0.043506954
000250 30 fd 7d bc 54 ce 9b bc 10 74 5d 3d 4a 3d 1e bd
       -0.015502259 -0.019019283 0.054065764 -0.03863267
000260 5c bb 45 bd 89 66 38 bd 44 9f 25 bd db c3 f6 ba
       -0.048274383 -0.04501966 -0.04043509 -0.001882668
000270 72 90 f7 3d 3e b3 cd bd 40 56 70 bd b5 0d 9c bd
       0.12088098 -0.10043953 -0.058676004 -0.07619802
000280 10 a3 b2 bd f3 14 f4 3d ca a0 26 3d bb 71 8e 3d
       -0.08722508 0.11918058 0.040680684 0.06955286
000290 bd 54 01 be 66 bc 67 bd 80 0e ca 3d a1 b6 7d bc
       -0.12629981 -0.056576155 0.09866047 -0.015485437
0002a0 d0 75 8d 3d 34 90 32 bd ad df a0 bc 4c 51 0e 3d
       0.069072366 -0.043594554 -0.019637907 0.0347455
0002b0 05 79 c4 bc 9f 4e 9f bc 7f 61 97 3d 4c c5 e7 bc
       -0.023983488 -0.01944667 0.07391643 -0.02829232
0002c0 e3 14 8a bd ed 2d db bd 86 70 18 bd 37 5f 69 bd
       -0.06742265 -0.10702119 -0.037216686 -0.05697557
0002d0 8f a3 b5 3c 16 52 c4 bd 3f 1a 93 3c 26 ed 16 3d
       0.022172717 -0.09585969 0.017956851 0.036847256
0002e0 a6 e6 ac bd cc 09 34 3d ed 27 da bc c6 4f 54 bc
       -0.0844243 0.043954656 -0.026630366 -0.012958473
0002f0 b3 5b 22 3d 8d f4 80 bd f9 c6 f7 3d 9e b8 de 3d
       0.039638232 -0.06296644 0.12098498 0.10875057
000300 86 0e 99 3d 73 d0 ac 3d c4 50 bd 3d a1 48 9d 3d
       0.07473473 0.08438196 0.092439204 0.076798685
000310 bf a9 a4 3c 88 c3 00 be 02 ee f7 3c 32 26 a8 3c
       0.020100472 -0.12574589 0.030264858 0.020526025
000320 3b de 63 3e 79 d5 88 bd d5 09 3c 3d d6 c3 a5 bb
       0.22252743 -0.06681342 0.045907814 -0.005058746
000330 41 9e a4 3d c8 75 0f bd 14 7f 81 3d 50 9f 0e bd
       0.08037997 -0.035024434 0.06323066 -0.0348199
000340 bc 79 30 3d b7 30 ce 3d ca b4 2c 3e 91 11 4b 3d
       0.043084845 0.10067885 0.1686584 0.0495773
000350 7d b2 c9 bd 26 71 23 3e 1c 33 1c 3d 43 90 c9 3c
       -0.09848497 0.15961131 0.03813468 0.024604922
000360 6f 5e b2 3c 8c 91 84 bd b8 a0 c5 3d e3 70 04 3e
       0.021773545 -0.06473073 0.09649795 0.12933688
000370 ed ef 18 bc 19 1c b3 bd 0b 6b 20 3e 58 48 58 bd
       -0.0093345465 -0.087455936 0.15665834 -0.052803367
000380 a5 b4 92 bc 90 8a 3e 3c 20 59 9b bb ee fd b6 bc
       -0.017908404 0.011629716 -0.004740849 -0.02233788
000390 fd 86 d5 3d c7 b7 5e bd e4 52 82 3d db cf 46 bd
       0.104261376 -0.054374482 0.063634664 -0.04853807
0003a0 6b 99 b0 bd 76 d4 43 3e d3 b9 fe 3c d5 3b ce 3d
       -0.08623012 0.19124016 0.031094467 0.10070006
0003b0 9e 35 31 bd 35 95 73 bd 5f bf b3 bc 95 a2 aa bd
       -0.043264024 -0.059468467 -0.021941839 -0.08331791
0003c0 29 91 51 3e e1 49 22 3e b2 92 ad bd e1 d7 d0 3c
       0.2046553 0.15848495 -0.084752455 0.025493564
0003d0 0b 66 68 3d 07 6b 56 3d 75 da 68 bd a3 a5 8c 3b
       0.05673794 0.052348163 -0.05684896 0.0042922064
0003e0 99 94 ee bc 10 6d af 3c 75 7d e4 3d c0 8e 24 3d
       -0.029123591 0.02141431 0.111567415 0.0401752
0003f0 28 71 41 bd ec 63 92 3b d3 c6 e4 bd 7b 6c 70 bd
       -0.047227055 0.004467478 -0.11170735 -0.058697205

network.4.bias f4 [64]
000000 c9 bd 01 3a 70 5b ce 3a f1 63 13 bc 9b 71 11 bd
       0.00049492397 0.0015743803 -0.008995996 -0.035508733
000010 18 1d 02 3e bf 36 99 38 a3 f3 b3 bd bb b1 0f 3e
       0.12706411 7.305806e-05 -0.087867044 0.14032643
000020 b3 bc d9 bc a5 19 e6 3d a3 7e c5 3d f0 08 9a bd
       -0.026579237 0.1123536 0.09643295 -0.07521236
000030 b5 53 69 3c 53 3a a9 3d 73 ad 85 bd 52 55 12 bd
       0.014241149 0.082630776 -0.065272234 -0.0357259
000040 d9 62 58 3c ff 36 05 3d ce 63 fd 3d 23 f2 cb 3d
       0.013207161 0.03252315 0.12372552 0.09958293
000050 13 75 9a 3d 28 87 8c 3d b5 ae 31 3d 80 30 87 3d
       0.075418614 0.068617165 0.043379504 0.066010475
000060 51 01 d2 bc e1 37 8f bd 0b 68 d5 3c c0 dc 5f 3d
       -0.025635393 -0.0699308 0.026050588 0.054653883
000070 c9 2a df bc 31 63 46 3d 17 6e 77 bd 26 9d d5 3d
       -0.027242081 0.04843444 -0.060407724 0.10430364
000080 6c eb ba 3d 8d a6 9b 3d ed 92 a4 bd 33 65 78 3d
       0.091269344 0.076001264 -0.08035836 0.060643386
000090 54 d8 16 bd 2d 69 58 bd 54 b8 7a 3d c2 14 9b bd
       -0.0368274 -0.05283468 0.061210945 -0.075723186
0000a0 96 37 c0 3d fc 61 c5 bd 76 f0 d0 3c f0 ef 03 be
       0.09385602 -0.0963783 0.025505286 -0.12884498
0000b0 a9 90 e1 3d 72 28 ed bd b9 b9 bf 3c d4 9c dd 3d
       0.1101392 -0.1157998 0.02340399 0.10820928
0000c0 ac 89 9d bd 1b 85 5a bd 08 1c 0c bd 5a b6 8c 3d
       -0.076922745 -0.053349596 -0.03420642 0.06870718
0000d0 be dd a1 bd 09 45 dc bc 93 73 e7 bc a3 3b a4 3d
       -0.07903622 -0.026888387 -0.028253352 0.08019187
0000e0 1f 03 03 bd 9c 66 06 3e f8 67 64 bd 54 91 dd 3b
       -0.0319854 0.1312508 -0.055763215 0.006761709
0000f0 7b 88 37 bd 13 9b 06 bc 32 86 25 3d bd 78 ef 3c
       -0.044807892 -0.0082156835 0.04041118 0.029232377

network.6.weight f4 [3, 64]
000000 7a f9 83 3d c1 6b 8e bd 1a f2 82 3d 64 05 09 3e
       0.06444068 -0.06954146 0.063938335 0.13380963
000010 ca b6 bc bd 6c fc 0e bd 2d 7f 3e 3e 39 9a 06 be
       -0.09214552 -0.034908697 0.18603201 -0.13144769
000020 18 c0 9b bd a4 24 c7 bd 45 8a fc 3c 54 5a b1 bd
       -0.07604998 -0.097237855 0.03082765 -0.08659807
000030 e2 96 93 bc 43 65 28 3d 40 be e9 3d 41 cc 47 be
       -0.018016282 0.041112196 0.114132404 -0.1951151
000040 8d f0 ab 3d d8 69 ee 3c 80 33 52 3d bd 0e ab bd
       0.08395491 0.029103205 0.051318645 -0.083524205
000050 d5 51 8f bd 4c 23 d6 bc 8a 19 d0 bd 2f 51 3b 3e
       -0.0699803 -0.026139878 -0.10161121 0.18292688
000060 3d f5 86 bd 33 ea 32 be 90 d5 41 3c 56 9a c8 bb
       -0.06589744 -0.17472152 0.011830702 -0.006121914
000070 b6 6a c9 bd cf c7 5c 3d d3 42 8f 3d b9 48 2a 3d
       -0.098348066 0.05390149 0.069951676 0.04157326
000080 22 89 62 3e 11 c9 35 3d 69 ba d8 bc 6c 55 57 3d
       0.22122625 0.044381205 -0.026456075 0.0525717
000090 55 95 34 be 9d 92 c0 bd ce bf 66 bc b1 bf 89 3d
       -0.1763509 -0.09402964 -0.014083816 0.06726015
0000a0 e2 7d b3 3d ed 3c 7d 3d 5b 44 1a 3e c5 c4 88 bd
       0.087642446 0.06182568 0.15065138 -0.06678156
0000b0 2c e4 0b 3e c7 1a 69 bb e9 8c 8a 3d 95 2d b4 3c
       0.1366126 -0.003556894 0.06765158 0.021994391
0000c0 83 dd 7a bd c1 6a 9a 3b cf c6 cb bd e7 e1 2c 3e
       -0.061246406 0.004712433 -0.09950029 0.1688305
0000d0 da 95 8a bc 48 2b 89 bd 74 c9 e2 bc 31 e3 ef 3d
       -0.016917158 -0.06697708 -0.027683951 0.11713255
0000e0 31 50 2a bd 61 96 23 be 9f 5b 1e 3c 37 79 90 3c
       -0.041580383 -0.15975334 0.009665399 0.017635925
0000f0 b8 13 9a bc de a3 a0 3d bc 13 93 3d 31 70 48 3e
       -0.01880823 0.07843755 0.071814984 0.19574048
000100 21 89 19 be 75 80 ef bc b7 1b ec bd ea 9f 2d bd
       -0.14993717 -0.029236058 -0.11528724 -0.042388834
000110 54 61 ca bd 1e 7b e5 3d 53 b6 0e 3d 22 ad 17 be
       -0.09881845 0.11205123 0.034841847 -0.14812139
000120 02 98 5a bb 8d 5f 94 bd c1 8f bf bc 7b 73 01 be
       -0.0033354764 -0.07244787 -0.023383977 -0.12641709
000130 76 d8 a7 3c ce b9 e9 bc 06 51 29 3d 39 83 17 be
       0.020488959 -0.028530981 0.041337036 -0.14796151
000140 51 ea b2 3d d1 70 4c 3d 6c 51 d8 bd 06 65 45 bd
       0.087360986 0.049912278 -0.10562405 -0.048192047
000150 bb 56 f8 3c 27 17 d3 bd 9a 14 13 be 67 ee 73 3d
       0.030314794 -0.1030715 -0.14363328 0.05955353
000160 7a 5b 3b 3d 36 25 03 be 0b 07 d4 3d 8a 17 e2 bd
       0.045741536 -0.12807164 0.10352906 -0.11039646
000170 e9 36 55 bd 4a 8b 85 3d 51 de f6 bd 7a 98 11 bd
       -0.05205432 0.06520708 -0.12054122 -0.035545804
000180 f8 55 2a be c8 c4 a1 3c 3c 9f b3 bc f1 02 7b 3d
       -0.16634357 0.019747153 -0.021926515 0.061282102
000190 ad 61 68 3d 9f fc e2 bd 6c 9d e5 3c 23 13 24 bd
       0.056733776 -0.1108334 0.028029166 -0.040057313
0001a0 e7 8e 42 39 e4 7e 92 3c 7a f5 4e 3d a0 83 99 bd
       0.00018554517 0.017882772 0.050527073 -0.074958086
0001b0 c3 4e 46 3d 6f 1f 25 be c0 ee 06 bd 07 d9 0a ba
       0.048414957 -0.16125272 -0.032942533 -0.0005296622
0001c0 d5 0c ee ba c3 db e1 bd 50 bf 2c be 7b 58 41 3d
       -0.0018161783 -0.11028244 -0.16869855 0.047203522
0001d0 dd 1f 3d 3d 35 29 af bc d4 0b a9 3d 44 b4 82 bd
       0.046172965 -0.021381954 0.08254209 -0.06382039
0001e0 40 e5 a1 bd 29 67 23 bd 6a c8 06 be f0 be b0 bc
       -0.07905054 -0.039893303 -0.1316239 -0.021575421
0001f0 6a 52 99 bd 96 1c db bd ab 84 d0 bd 4f ab 44 bc
       -0.07486422 -0.10698812 -0.101815544 -0.012003734
000200 44 4e 20 bd 3d 10 05 bd 6e 48 3d 3d b9 16 0f be
       -0.03913714 -0.03248619 0.046211652 -0.13973512
000210 a7 b7 0a 3d 0d 01 ad bd 46 a8 a7 bd 6d 14 57 3e
       0.03386655 -0.08447466 -0.081863925 0.21003886
000220 69 80 05 3d ec d9 0b 3e db 76 e9 bd 66 45 e2 bd
       0.032593165 0.1365735 -0.11399623 -0.11048393
000230 46 8f 0d 3e ff 87 12 bd d0 d3 33 bd 91 ba 11 3e
       0.13824186 -0.035774227 -0.043903172 0.14231326
000240 55 be 6d bd 58 e2 02 3d c7 ab 0c be 54 11 f2 3d
       -0.058042843 0.03195414 -0.13737403 0.11819711
000250 ec c1 c6 3c bd ea 82 3d b8 08 8f 3d 19 0d b3 bd
       0.024262391 0.06392429 0.06984085 -0.087427326
000260 d2 e5 27 3e ae 80 d3 3c d6 64 91 bd 64 c0 14 be
       0.16396263 0.025818195 -0.07099311 -0.14526516
000270 5d ee 16 3e 5b 1b 04 3e 9c 0a c4 3d 8d f0 28 3e
       0.14739366 0.1290106 0.09572336 0.16498013
000280 91 89 19 be 07 37 00 3d fa 90 a2 bc 99 20 8e bb
       -0.14993884 0.03130248 -0.01984452 -0.004337382
000290 40 b2 4a 3e 16 50 1a 3e 78 7c 81 3d 44 70 fc 3d
       0.1979456 0.15069613 0.06322569 0.123261005
0002a0 ca 9d 01 bd 0c b8 f2 bd c3 f5 45 3d d5 ea 46 bd
       -0.03164462 -0.118515104 0.04833008 -0.048563797
0002b0 f8 34 8d bd 89 b2 36 3e 86 48 01 be a7 2d 9c bd
       -0.068948686 0.17841543 -0.12625322 -0.07625895
0002c0 1b 9c a9 3d f6 26 a3 3d 37 73 23 3e 46 df d8 bd
       0.08281728 0.079664156 0.1596192 -0.10589461
0002d0 7e f2 a9 bd e8 66 80 3d 27 1e c2 3d a9 f1 28 be
       -0.08298205 0.06269628 0.09478407 -0.16498436
0002e0 da b2 fb bd 32 50 37 3e 23 21 32 3e 42 82 46 bd
       -0.122899726 0.17901686 0.17395453 -0.048464067
0002f0 ab a6 4f 3e 21 16 5e bd a8 1f 97 bd 0c ec ea bd
       0.20278423 -0.054220323 -0.07379085 -0.114708036

network.6.bias f4 [3]
000000 f7 16 88 bd cf 88 18 bd 65 24 68 3d
       -0.06645005 -0.037239846 0.056675334
