ModelWeights/Acrobot-v1-69420-/critic.weights.pt (torch, 38804 bytes, 7 tensors)

network.0.weight f4 [64, 6]
00000000: 7cfc b7be a79a 1c3f 180c 613e ea63 0ebf
00000010: 2c53 c63d a240 013e f35b 453d cdbd a8bc
00000020: 53eb 9bbe 71ed 90be 2c41 343e 8ede a93e
00000030: 07a6 a93e c237 093f 9a88 7e3e 6bbc 65be
00000040: 71a8 1ebd 24b8 d3bd 6079 bbbe 95aa bdbe
00000050: fbd5 7a3e 9604 963d 6291 b63e b4ba 813d
00000060: 65e4 aabe 19af bf3e 62f0 e0be 5863 2cbf
00000070: 9263 1bbe 3543 4fbe bff5 4d3e 66d6 c4be
00000080: a7a3 bbbe 949d 9d3e f71f a9be f578 98be
00000090: de37 343e 793b c73e 6fe6 903e ca07 c93e
000000a0: 03ae 703e 43a8 9f3e af38 62be c350 593c
000000b0: 784b dbbe 7f13 c13e af60 193e 1592 6cbe
000000c0: 2572 a5be 10d5 e8be f790 6c3e c125 25be
000000d0: dd99 a0be df7f 0bbe ecb6 f53e 5bf2 7fbe
000000e0: 154d 9f3e c679 1d3e aa74 34be 0930 f7bd
000000f0: f56e d33e 930a 8d3e cae5 34bd 2beb 593b
00000100: bbf0 843e 8206 d83c 5575 d9bd 3beb dc3e
00000110: bad0 75be 2d86 abbe 4a27 133e 8805 a63e
00000120: 05ec ddbe beec 29be 946b 923e b264 86bd
00000130: c9f5 a53e a597 a73d 02bf 2abe 2de9 d2be
00000140: 0751 1bbf 4c24 a8be a1c3 e93b 9383 483c
00000150: 6037 efbe d2a4 1d3e 8e8c 2dbe be92 b6be
00000160: 38d1 bebe 746a 783d cbd7 963e dcdc ef3d
00000170: a6af 5dbe 531b 673e 4225 28bd 583b 75be
00000180: fbbd 623e 285f 03bf 2e3f bb3e 869b bd3e
00000190: 0ae3 823e 93a5 0ebd 6970 85be ded3 76be
000001a0: adf4 9f3e cd12 33be fd90 0a3e 799e 193e
000001b0: b657 293e be88 e53e 06c3 7ebe 17d7 a03e
000001c0: 186d 723e d4ec 973e 355b b93e 7075 bdbe
000001d0: a13c ad3e a5fb fcbe 495a 443e 31e8 b23e
000001e0: 7145 49be cabb ebbe dc46 d83d 7719 57be
000001f0: 0ff2 d1be 4109 b8be 57bf 16be a701 9cbe
00000200: e16b e2be 992d ea3e bfa4 93bc 49cd 16bd
00000210: 96a4 943e d2b0 903d 1d93 c13d 60d9 49bf
00000220: cce2 f8bd 58ae e03d ab8c d43d 3496 013e
00000230: 3eac 5cbd 87c8 cc3e dd20 953e 4b35 f13d
00000240: 3be8 72bd 6b42 113f eb95 b7bd 4b68 2ebf
00000250: 03e5 fe3d c256 253e 2c98 63bd 49a0 3f3e
00000260: a2c8 013f 7a05 8dbe e0d8 5fbe 85ef b5bd
00000270: c512 5ebe f517 b6be 9777 443e 481f e6bb
00000280: 8c23 8abe 6173 c43e df68 e93e f76b 00bf
00000290: dbb8 4f3e 4cac 443e 4f73 803e bc79 323e
000002a0: 5f18 ca3e 039f f7be c3c3 e03e efb5 d23e
000002b0: 578e 66be 911c 613e 9cb0 05be 7c41 6abe
000002c0: b94a 0c3e 734c 2abf edee 6bbe 61b4 153e
000002d0: 5074 1dbe 5d70 043f 2c8e f2bc 17f7 eabe
000002e0: 982c 7fbe fe1c 813c e3a3 d23e 2a3d 3b3e
000002f0: 80cb f13d 00e0 a13d e1c7 98be a206 7cbd
00000300: 775b 083f bdb7 e93e abec cfbe ca2e 86be
00000310: 2802 db3d cb1e f53d f8e5 e63d b326 8dbc
00000320: 3b12 8f3e a45b aabe 70bc 82bd 44ea 01be
00000330: bb4e 073d 1c50 d53e f647 0fbf 3216 9abe
00000340: 155f ddbd db27 193c 81b6 fe3d 92fb e53e
00000350: 610a a0be 83e6 abbe 6061 e93d 8544 3ebe
00000360: de14 cabe 99f1 c83e 3645 e4be a577 14bf
00000370: e239 d43e 696d 093d f495 fe3e dda1 b43e
00000380: 77c8 cdbe 56a0 0f3e 2912 b13d 1148 4fbe
00000390: 8ca5 2bbd 8e73 d9be e10a 623c 85a0 733e
000003a0: 8106 173e 74b5 68be 32e5 743d a9df dcbe
000003b0: 82bc 11be 5ec1 ef3d bb51 2b3e c277 8fbe
000003c0: cb41 5f3e 10c7 7a3e 52eb c1bd 23cc 4abf
000003d0: 25d7 f93d 5890 ba3e 841b ac3e b10e 0a3f
000003e0: 7420 eebe 06f1 03bf 7ffa 0a3e caf3 843e
000003f0: f354 42bf 9ea2 12bd 9851 f2be 1a08 083e
-0.35934818 0.6117348 0.2197727 -0.55621207 0.096838325 0.12622312 0.048183393 -0.020598317
-0.30452976 -0.28306153 0.17602986 0.33177608 0.3313448 0.53600705 0.24856797 -0.22435157
-0.038734857 -0.103378564 -0.3661604 -0.37044206 0.2449569 0.073250934 0.35657793 0.06334439
-0.33377376 0.37438276 -0.43933398 -0.67339087 -0.15174702 -0.20240481 0.20113276 -0.38444823
-0.36648294 0.30784285 -0.330322 -0.29779783 0.17599437 0.38912562 0.28300807 0.39263755
0.2350388 0.3118306 -0.22091936 0.013263884 -0.42831016 0.37710187 0.14978288 -0.23102601
-0.32313648 -0.45475054 0.23102175 -0.16127683 -0.31367388 -0.13622998 0.4799112 -0.24994795
0.31113496 0.15378484 -0.17622629 -0.12069709 0.4129559 0.2754713 -0.044164456 0.0033251743
0.25964913 0.02637029 -0.106180824 0.43148217 -0.24005404 -0.33500805 0.14370456 0.32426095
-0.4334413 -0.16594216 0.285977 -0.06562175 0.32414082 0.08183221 -0.16674426 -0.41193524
-0.6067051 -0.32840192 0.0071339165 0.012238401 -0.46721935 0.15394905 -0.16948149 -0.3565883
-0.37268996 0.060648397 0.29461512 0.117120475 -0.21649036 0.22569017 -0.041051157 -0.23948419
0.22142784 -0.5131707 0.3657164 0.37032717 0.25563842 -0.034825873 -0.26062325 -0.24104258
0.3124136 -0.1748764 0.13531871 0.15001859 0.16537365 0.44830889 -0.24879083 0.314141
0.23674428 0.29672873 0.36202398 -0.3700366 0.3383532 -0.4941074 0.19175066 0.34942773
-0.19655396 -0.4604171 0.1056039 -0.21005808 -0.4100499 -0.3594456 -0.14721428 -0.3047001
-0.4422293 0.45737913 -0.018022893 -0.03681687 0.2903182 0.07064976 0.09451888 -0.7884731
-0.12152633 0.109707534 0.10378393 0.12654954 -0.0538752 0.3999674 0.29126635 0.11777743
-0.059303503 0.5674197 -0.089641415 -0.6812789 0.12446024 0.16146377 -0.055565044 0.18713488
0.50696766 -0.2754324 -0.21860075 -0.08883575 -0.21686848 -0.35565153 0.19186245 -0.007022772
-0.26980245 0.38369277 0.45587823 -0.5016474 0.2028536 0.19206351 0.25087973 0.1742925
0.3947172 -0.48363504 0.43899354 0.4115443 -0.22515236 0.21983553 -0.13055652 -0.22876543
0.1370038 -0.665229 -0.23040362 0.1461959 -0.15376401 0.5173395 -0.029608808 -0.4589164
-0.24919355 0.015760895 0.4114066 0.18285051 0.11806393 0.07904053 -0.29839996 -0.061529763
0.53264564 0.45647994 -0.4061025 -0.26207572 0.10693771 0.11968764 0.11274332 -0.017230367
0.27943596 -0.3327304 -0.06383598 -0.12687021 0.033034068 0.4166268 -0.5596918 -0.3009506
-0.10809151 0.009347881 0.124371536 0.44918495 -0.31257918 -0.33574304 0.11395526 -0.18580826
-0.39469045 0.39246824 -0.44584054 -0.57995063 0.4145041 0.033551607 0.4972378 0.35279742
-0.40192005 0.14026007 0.08646042 -0.20242335 -0.041905925 -0.42470974 0.013796539 0.23791702
0.14748575 -0.22725469 0.05978889 -0.4313939 -0.14232066 0.11706804 0.16730396 -0.28021055
0.21802442 0.24489999 -0.09468712 -0.7921774 0.12199239 0.3643825 0.33614743 0.5392867
-0.46509135 -0.5153965 0.13572119 0.25967246 -0.7591087 -0.035799615 -0.47327876 0.1328434

network.0.bias f4 [64]
00000000: 5875 1a3e 19f4 933e 520d 9abd 1076 52be
00000010: 7d30 f43d 3b29 4abe 41e3 31be f25a babe
00000020: b5db c33e 9453 af3e ba05 10be 070e cd3e
00000030: d5a9 96be 0e45 1a3e f1c4 d7be 76dd 16be
00000040: 319e 81be fc03 963c 77e2 bdbe deb1 263d
00000050: e32a c5be 1b42 ac3e dcfa 1fbe e3b2 833e
00000060: df93 403d 38ba f13e c34e b3be 3cca d7bd
00000070: 8b20 ba3e 7698 90be e0d6 dd3d 985e f83e
00000080: 378c 7bbe 678c e33e 90ec 68be 7c72 eabd
00000090: c705 83be 9d52 f5bd ecb9 9e3e de02 043f
000000a0: 57ab 50be 21f3 913c 527d cebe 6d2b 223d
000000b0: ba68 bf3e c887 90be 3b37 ca3e 6bab b93e
000000c0: 946e ed3e 6f0e f93e d445 7e3d 8eb2 173d
000000d0: a5ba 2ebe 3ae4 473e 933d c5be 7ae4 693d
000000e0: 6b94 42be a4e9 a3be 9d3b d03e 254d 423d
000000f0: 1149 05bc d47e 8c3e d297 053f daa8 f73e
0.15083826 0.2889717 -0.07522072 -0.2055285 0.11923311 -0.1974229 -0.17371847 -0.3639751
0.3825356 0.34243453 -0.14064685 0.40049765 -0.29426447 0.15065405 -0.42142442 -0.14732918
-0.25316003 0.018312447 -0.3708684 0.04069697 -0.38509282 0.33644184 -0.15623039 0.25722417
0.04701602 0.47212386 -0.35021028 -0.1053662 0.36352953 -0.28241318 0.10832 0.4850967
-0.24565206 0.44443056 -0.22746491 -0.114476174 -0.25590345 -0.11978648 0.31001222 0.51566875
-0.20377861 0.017816128 -0.40329987 0.039592195 0.37384588 -0.28228593 0.39495263 0.36263594
0.46373427 0.48643824 0.062078312 0.037035517 -0.17063387 0.19520655 -0.3852354 0.057102658
-0.1900193 -0.3201419 0.4067048 0.047436852 -0.008135096 0.27440512 0.52184784 0.4837101

network.2.weight f4 [64, 64]
00000000: 1983 bbbd a411 a6bd bb23 013d c4e8 7bbd
00000010: df14 bfbd aac2 92bd 3a79 103c f05e 3bbd
00000020: 5819 943d e6b6 40bd ee94 e3bd a7b1 a4bd
00000030: 8128 923d e7d1 f33a f017 cebd 9491 53bd
00000040: 803b 853b 68c8 f33c d68d eebd 7eea c1bd
00000050: 40eb 193d 063b e5bd 231a e73d 3880 dfbd
00000060: 8f6b e73d 28dd 5cbd 29cb eebd 2620 843c
00000070: 1147 82bd 5c67 493c c97e 983d 569b 32bd
00000080: fa2c c6bd 5555 2a39 e4db 01be e8ee 05bd
00000090: d880 973c 00a0 08b8 399d 87bd a359 efbc
000000a0: faf8 8ebd 3056 673c 2884 22bd 906c cf3c
000000b0: 4739 8b3d a43c ab3d ac3b 98bd ea83 05be
000000c0: f278 0cbc ff7d 89bd f7f9 abbd 5534 663c
000000d0: 53b1 ae3c 5077 34bc 79f3 a63b b4d5 b73d
000000e0: fd6f c2bd f974 973d 1b07 d6bd e6bd 4abc
000000f0: 2475 a9bd 9099 ecbc 9934 6b3d 3bca ab3d
00000100: a187 cfbd 06c5 22bc 7cc5 1f3b a64f 0fbe
00000110: 5cc9 093e 1dbf 24bd 6dcd abbc af8e c7bc
00000120: 3f1e 513d cd64 1e3d c1b1 bb3c 0a0e 2c3b
00000130: bf4f 0ebe b07a 623d be97 e9bd e5c9 b43d
00000140: f0ed f43d 4186 c83d 7326 60bd d894 163d
00000150: 1db8 08bd 5c3e a33d 02b0 dabd 302b 2f3d
00000160: 3199 413e 9975 2a3e eabc 4dbd 24b7 8a3c
00000170: b72d 573d e969 44bc 5758 293d 8dd2 083c
00000180: c51a 1c3e 7e9f 08bd 633f 7b3e 7f90 7d3d
00000190: db4f 7cbe 03e9 0ebd 5793 b83d 053e babd
000001a0: d008 8abd a169 af3c 652a e1bd 4b52 acbd
000001b0: 015a 163e 6eb7 813d 3e36 9dbd a725 e93d
000001c0: 5fe9 a03c 5279 0e3e aa22 bebd b0f7 883d
000001d0: dacf a5bd 4f6f 703d 9582 38bd 1c5a 0c3e
000001e0: 82aa 98bd 8723 9cbd 2b62 ad3d d28b b03d
000001f0: fdf6 253d 12c2 c03c bb0f 083e 8967 30bd
00000200: 0683 28bc bec8 1cbd 076d 063d ad26 003e
00000210: 82fe ac3d 1f57 dfbc 0cca 90bd df1c 983d
00000220: 803f c23d 61d3 f03c c71b c6bd 7652 c9bd
00000230: 75e5 713d 99ef 0a3e deba 67bd 2df2 43bd
00000240: 1343 e83d 5310 a2bd 5f3f afbd 0472 fb3d
00000250: c2b2 35be 1333 a33b 28b0 973d 72a8 ba3d
00000260: 3cd3 9b3c c213 243e f81d b63d 8891 8fbb
00000270: d546 f73d 97f0 523d 6857 bf3c d898 ac3c
00000280: 46ec 113e f032 a83d 9a34 443e 21e6 1a3e
00000290: f95c a9bc 99ad 4c3d 9165 7b3d 3d04 e43d
000002a0: 3343 4d3d 537f 1ebd 806d e0bd c310 f4bc
000002b0: 9ccc 93bd c97a 393c 9483 f93d ee4a 113e
000002c0: 39af 783c f0f1 a93d e56e 0c3d 06a9 3a3c
000002d0: 39b8 36bc cee4 263e 84f4 26bd bd35 96bd
000002e0: 93e3 e1bd 2f07 133d a626 183e 3918 73bd
000002f0: 0499 1c3e d20e 193e 94f7 18bc d4c1 ae3d
00000300: cc81 c9bb b278 22bc 1ae3 df3d f6af 18be
00000310: be52 b93d 58cc 91bd 434d db3c b2c4 50bd
00000320: 9eeb 8e3c 2ff0 683e 953b 32bd 6c49 c33d
00000330: e4e1 a2be 9585 3f3e 0713 83be c4a1 ad3d
00000340: 5dcd 733c 6bfd c1bb d06c 0fbd b9cd 693c
00000350: e349 9bbd 3d80 4c3e 463b d5bc 8503 b1bc
00000360: 9d20 1f3e 5170 81ba abd8 3fbd 90d5 bd3d
00000370: 7dc6 a93d 913f 88bd 22b8 ddbd 8b4c 213e
00000380: cecc 003d 42c5 ef3c 68cd 5e3e 77ce 23bd
00000390: 4db0 9dbe 5939 993d 1140 c8bd fd44 6cbd
000003a0: a75f c83d 7b7b cebc 644c 77be efdd 9cbb
000003b0: 744c aebd 69cf 4cbe 2d10 14bd e2bf c53d
000003c0: f261 183e 2a31 4e3e 7474 94bd a827 b93d
000003d0: f9fe 53bd 1a73 3dbc 8587 dbbd 6d2c a53d
000003e0: 17e3 70bd 35f0 11bd ec4b d63d fa9e 2abd
000003f0: 5748 843d 7512 bd3d 7660 ea3d 0cba 95bd
-0.09155864 -0.081088334 0.031528216 -0.06150128 -0.09330153 -0.071660355 0.008817965 -0.045744836
0.072313964 -0.047049426 -0.111123905 -0.08041697 0.07136632 0.0018601984 -0.100631595 -0.051652506
0.004065931 0.029758647 -0.11648147 -0.09468554 0.037577868 -0.111928985 0.11284282 -0.10913128
0.11299812 -0.05392185 -0.116598435 0.01612861 -0.06361211 0.012292709 0.07446057 -0.04360517
-0.09676547 0.00016244252 -0.12681538 -0.032698542 0.018494055 -3.257394e-05 -0.06621785 -0.029217547
-0.06981082 0.01411967 -0.039676815 0.025320321 0.06798034 0.08361176 -0.074332565 -0.13038602
-0.0085737575 -0.06713485 -0.083972864 0.014050563 0.02132479 -0.011014774 0.005094942 0.089763075
-0.09494016 0.07395358 -0.10450574 -0.012374377 -0.08274296 -0.028881818 0.057423208 0.08388182
-0.10133291 -0.009934669 0.0024379184 -0.13995227 0.13455719 -0.040221322 -0.020971978 -0.024360029
0.051054236 0.03867035 0.022911908 0.0026253485 -0.13897608 0.055292785 -0.11405896 0.08827571
0.119594455 0.09791232 -0.054724168 0.036763042 -0.03337871 0.079708785 -0.10678102 0.042765796
0.18906094 0.16646422 -0.05022899 0.016933031 0.05253383 -0.011988142 0.041344013 0.0083509805
0.15244587 -0.03335523 0.24535899 0.06190538 -0.24639837 -0.034890186 0.09012478 -0.090938605
-0.06739962 0.021412672 -0.10994414 -0.08414134 0.14682771 0.063338146 -0.076763615 0.11384135
0.01964253 0.13913468 -0.092839554 0.06687868 -0.08096285 0.058699902 -0.045046408 0.13706249
-0.07454397 -0.07623964 0.0846599 0.086204186 0.04051875 0.02353004 0.1328725 -0.04306749
-0.010285145 -0.03827738 0.03281882 0.12514754 0.08446981 -0.027263222 -0.070697874 0.07427382
0.09484768 0.029397668 -0.09673267 -0.09830181 0.059056718 0.13567962 -0.056574695 -0.04783838
0.113409184 -0.0791327 -0.08557009 0.12277606 -0.17743972 0.0049804538 0.07406646 0.0911416
0.019021623 0.16023162 0.08892435 -0.0043813623 0.12074057 0.051498976 0.023357108 0.021068975
0.14250287 0.082128406 0.19160691 0.1512685 -0.020674216 0.049970243 0.06137616 0.11133621
0.050112914 -0.038695645 -0.109583855 -0.029793149 -0.072167605 0.011320778 0.121833 0.1418874
0.015178495 0.08298099 0.034285445 0.011392837 -0.011152321 0.1629822 -0.040760532 -0.073344685
-0.110297345 0.035895523 0.14858493 -0.059349272 0.15292746 0.1494706 -0.009336371 0.085330635
-0.006149506 -0.009916471 0.10931988 -0.14910874 0.09048985 -0.071190536 0.02677024 -0.050968833
0.017446335 0.22747873 -0.043513853 0.095354885 -0.31812966 0.18703301 -0.25600454 0.0847812
0.014880505 -0.0059201024 -0.03501588 0.0142702395 -0.07582452 0.19970794 -0.02602924 -0.021608124
0.15539785 -0.0009875392 -0.04683749 0.092692494 0.08289812 -0.06652749 -0.10826136 0.15751855
0.031445317 0.029268865 0.21758044 -0.039991822 -0.3079857 0.07481641 -0.09777845 -0.05768298
0.09783869 -0.025205364 -0.24150234 -0.0047871987 -0.08510676 -0.20000996 -0.03614824 0.09655739
0.14881113 0.20135942 -0.07248774 0.09040767 -0.051756833 -0.011563087 -0.10719208 0.08065114
-0.05881032 -0.03562947 0.104637 -0.041655518 0.0645911 0.09232036 0.1144418 -0.07310876

network.2.bias f4 [64]
00000000: 92a3 da3c 6049 ba3d 2057 f03d dfd2 1a3e
00000010: 37d1 003e 16f3 8ebb af62 ab3d 7e6a de3c
00000020: d7cb e13b d52a 2b3e d730 c03d 2218 fb3d
00000030: 0df4 033e 2e6a f93c 5f3f ea3d 984d 893d
00000040: 20c7 243e e9b0 493e 20df 3e3e 4b16 9a3c
00000050: e9db cd3d 8a84 9a3d 7101 48bd 4839 bdbc
00000060: 2557 773e c345 2ebe 2d76 063e 8835 073d
00000070: 12f3 653e 0879 b8bd 6bca 113e 580f 853d
00000080: 2280 993e e513 8cbd 39c4 a83d db3e 19bd
00000090: 89dd 403e 5f72 903d ea90 d93d 96ed 373e
000000a0: dff7 2c3e fda8 973d a321 c9b9 db20 413e
000000b0: 840a dbbd e266 363e 9898 303e 44d7 a93d
000000c0: b8f9 103e b4e1 ecbd e3c0 e4bc c99a a1bc
000000d0: 2b50 f3bd c76b 033e 747b d43d 3a16 ffbd
000000e0: b6f4 8f3d 9f45 943d 6ee9 ff3d c084 463e
000000f0: 2747 b23d ad6e c8bc 77bb 993d 2d45 a9bd
0.026689325 0.090960264 0.11735368 0.15119503 0.12579809 -0.004362474 0.08368432 0.027150389
0.0068907547 0.16715558 0.093843155 0.12260462 0.12886067 0.030446138 0.11437868 0.06704253
0.16091585 0.19696392 0.18639803 0.018809458 0.1005171 0.07544811 -0.0488295 -0.023098603
0.24154337 -0.170188 0.13131018 0.033010036 0.22456005 -0.0900746 0.14237373 0.06497067
0.2998057 -0.06839732 0.082405515 -0.03741346 0.18834509 0.070530646 0.10623343 0.17961726
0.1689143 0.07405279 -0.0003836277 0.1886019 -0.10695365 0.17812684 0.1724571 0.08293012
0.1415776 -0.11566487 -0.027924007 -0.019727128 -0.11880525 0.12834083 0.10375109 -0.12455411
0.07029097 0.07239842 0.12495695 0.19386578 0.087049775 -0.024466837 0.07506459 -0.08265147

network.4.weight f4 [64, 64]
00000000: 883e 0cbd 8a55 b0bc 2354 643d b052 633e
00000010: 3bc2 ac3d da61 ae3d 3dbc a6bd f3d2 3e3e
00000020: 66c4 c73d f9e1 1d3c a90e cabd c8c1 5abd
00000030: de76 333e 7c09 f2bc c7fe 12bc e1e0 1f3c
00000040: edb8 c43d a4ed 44bd 9026 163e 098f 1e3e
00000050: 97f4 093e f8ab 6f3e c354 3dbe ca14 a33d
00000060: 02f5 0d3e 8dd6 9bbd fb34 7cbd 8295 e73d
00000070: 5daa 9d3d 9804 0d3e b9b0 ad3d 29ca 85bb
00000080: 611a 943d 7395 8dbd c736 093d 36ec f8bc
00000090: e224 913d 6a43 52bc ea77 123c 93d5 9a3d
000000a0: a29e c13e 1b18 e83d d842 da3d 8539 97bd
000000b0: d213 9fbd 6ab8 e73d 946e 02bd 6270 f23d
000000c0: 6e40 833d 44f0 65be df79 ef3d 161b 163e
000000d0: 224e 52bd eeea 84bd f739 813d ee47 febd
000000e0: 11f5 573d 3960 8f3d 8335 db3d 8364 2c3e
000000f0: 4752 a0bd 33d2 873d 2b7c 76bc 92bc 0a3d
00000100: 1052 72bd d787 b2bd 6153 4cbd 703d e7bd
00000110: dbe4 2b3d bba2 2c3d 37a6 e1bd 800a 24bd
00000120: fbe1 73bb 4b20 833d 96fc a83d 9bb7 5d3d
00000130: 58ef a43d 2e04 e3bd 9caf 5d3d b923 dabd
00000140: 1915 03be 1305 97bd af05 a23d df07 4c3c
00000150: 6e00 07be 5b39 ce3d 512e b6bd 0983 58bd
00000160: 3904 d9bc 119d bb3c a27f 17bd 5691 78bb
00000170: 1152 b9bd c507 9a3d be7a ddbd b458 bcbd
00000180: d371 663c e77a 44bd 8f9e b63d 65c9 6a3d
00000190: 63ef 5e3d fb20 ba3d f528 ec3b d328 d33d
000001a0: 3ac8 fdbb 1142 953b 0f89 61bd 4d6f ae3d
000001b0: 1cf2 afbd a7f6 bbbc 3889 c4bd 079a dabd
000001c0: 7d2e fbbd b61e 033d 6ddd 0cbe 9039 a5bd
000001d0: 8333 7fbc f2a8 8a3d abec b43d 0116 cd3b
000001e0: 8cc4 903d a80d 47b9 f454 323d 6806 b5bd
000001f0: eb33 a13c e845 debc 66e2 e03d dc3f 0ebd
00000200: 374e efba 6303 00be d9da 04bd 8bb1 5b3d
00000210: 19b9 d33d 2d42 253d ff77 99bd 8a1d ccbd
00000220: 3a53 32bd 6d12 5e3d 22eb 9ebd 4caf dd3b
00000230: 3140 01be 8b16 743d 5bb3 313c 2bed 04be
00000240: 79c1 c0bd 4111 9c3d 7f96 b7bc cb26 01bc
00000250: 4b79 f1bc 1611 03be d702 a63d d8e3 bdbc
00000260: a3ac 133d 4f73 cd3d ad86 d1bd 255e fcbc
00000270: 5b54 713d f685 80bd 8e50 ccbd 7f39 59bd
00000280: d2c6 87bd a8bf 663d bbf1 293d 2b97 40bd
00000290: c908 35bd 5d2c 6bbd 3f05 a4bd cc16 933d
000002a0: 49c3 dd3d 5b2c ccbd 5cf0 0dbd 6791 2b3d
000002b0: 176d 253c 3647 b6bd bcb6 973c e73b 93bd
000002c0: c19d c6bd 6ef1 883d f1d8 0a3d 0e37 ebbd
000002d0: 8848 79bd b5a6 d7bd d70b 9c3d 11eb 0b3d
000002e0: 66de af3d d7e5 01be ee38 fcbb 6021 bbbd
000002f0: 72f0 75bd 004b 86bb 3673 e83d 5570 99bd
00000300: 3400 ffbd 683d 5c3d cc79 f8bd d035 54bd
00000310: f001 07bc 80db c73a a41a e4bd 0813 5bbd
00000320: 6442 2f3d eeff a4bd e823 70bd 7016 c4bd
00000330: 5882 a4bd 069c ea3d 007d d33c 5ed4 9bbd
00000340: 7a06 b9bd fa9e d7bd da1d f13d c805 833d
00000350: 9841 f0bc 6a86 813d e8fd 7c3d e051 42bd
00000360: 6c08 7bbd 563e e13d dccc 05bd 0062 09bb
00000370: b8b0 113d 5cee d53d 0815 1cbd 4aa5 d3bd
00000380: 4053 143b 2a9e eebd a61a a8bd 3e92 a73d
00000390: e2b7 bebd 5087 7ebd 4032 443c 28d9 d7bc
000003a0: 6ce6 4abd b8f9 bf3c 10bc 773c e274 fd3d
000003b0: 980b 31bd de36 85bd b022 48bd c03f 5bbb
000003c0: 1842 7cbd 4c56 9b3d f01a 87bd 9ce2 1ebd
000003d0: aa07 a53d 38ff de3d e01b 123d c2a5 a7bd
000003e0: 2833 d0bd d095 13bd 246e a2bd 4862 37bd
000003f0: da2c c03d 8cfd 023d 9855 fcbd 402c af3c
-0.034239322 -0.021525163 0.0557443 0.22199512 0.08435484 0.085147575 -0.08141372 0.18635158
0.09754257 0.009636396 -0.098660775 -0.05340746 0.17525813 -0.029545538 -0.008971876 0.009758205
0.09605584 -0.048078194 0.14663148 0.15484251 0.1347221 0.23405445 -0.18489365 0.079629496
0.13862994 -0.07609282 -0.061573964 0.11307813 0.0769851 0.13771284 0.08480973 -0.0040829373
0.07231594 -0.06913271 0.033499505 -0.030386072 0.07087113 -0.012833456 0.008939723 0.07560267
0.3781634 0.11332723 0.10657281 -0.07384018 -0.07767452 0.11314471 -0.031843737 0.118378416
0.06408773 -0.22454935 0.11693167 0.1465877 -0.051344045 -0.06490122 0.06309884 -0.12416063
0.052723948 0.07000775 0.10703566 0.16835217 -0.07828193 0.06631889 -0.015044252 0.03387124
-0.059160292 -0.08717316 -0.049884204 -0.11291015 0.0419663 0.04214738 -0.11018031 -0.040049076
-0.0037213552 0.06402644 0.08251302 0.054130178 0.08053464 -0.110847816 0.054122552 -0.10651345
-0.12801017 -0.07374015 0.0791124 0.0124530485 -0.13183758 0.100695334 -0.08895553 -0.05285934
-0.026491271 0.022902044 -0.036986955 -0.0037928424 -0.09048856 0.07521013 -0.10814427 -0.09196606
0.014065224 -0.04796877 0.089169614 0.05732097 0.054427516 0.09088322 0.007207031 0.10310521
-0.007744816 0.004554995 -0.05506235 0.08517323 -0.085911006 -0.022944761 -0.09596485 -0.1067391
-0.12264726 0.03201171 -0.13756342 -0.0806762 -0.015576246 0.06770505 0.08834203 0.0062587266
0.07068738 -0.00018983206 0.04353805 -0.088391125 0.019678077 -0.027132943 0.10980682 -0.03472887
-0.0018257563 -0.12501292 -0.032435272 0.053636115 0.10338039 0.040346313 -0.074935906 -0.09966572
-0.043536402 0.05421679 -0.07759692 0.006765282 -0.12622143 0.05959181 0.010845984 -0.12981097
-0.09411902 0.076204784 -0.02241063 -0.007882784 -0.029476782 -0.12799487 0.081060104 -0.023179933
0.03605331 0.10031759 -0.102307655 -0.03080661 0.05891834 -0.06275551 -0.09976302 -0.05303335
-0.06629719 0.05633512 0.041490298 -0.047019165 -0.04419783 -0.057415355 -0.08008813 0.071820825
0.10828263 -0.09969398 -0.034653053 0.041886713 0.01009681 -0.08900301 0.018519752 -0.0718916
-0.09698058 0.06686674 0.033898298 -0.1148511 -0.060860187 -0.10529844 0.07619446 0.034159724
0.08587341 -0.12685333 -0.0076972162 -0.09137225 -0.06004376 -0.004098296 0.113501 -0.07492129
-0.124512106 0.0537695 -0.12132606 -0.051809132 -0.008240208 0.0015247911 -0.11137894 -0.053484946
0.042787924 -0.08056627 -0.058627993 -0.09574592 -0.080326736 0.1145554 0.02581644 -0.07608865
-0.090344384 -0.10528369 0.11773272 0.06397587 -0.029328153 0.063244656 0.06176558 -0.047441363
-0.06128733 0.10998218 -0.032666072 -0.0020962954 0.035568923 0.10445854 -0.038105994 -0.10334261
0.0022632629 -0.11651261 -0.08208208 0.0818219 -0.093124166 -0.062140763 0.011974871 -0.026348665
-0.049536154 0.023434505 0.015120521 0.12375809 -0.043223947 -0.06504606 -0.048861206 -0.0033454746
-0.06158647 0.07584819 -0.06596935 -0.03879033 0.080581024 0.10888523 0.035671115 -0.08185913
-0.10166007 -0.036031544 -0.07931164 -0.044771463 0.09383555 0.031980082 -0.12321013 0.021383405

network.4.bias f4 [64]
00000000: 7970 2bbc 1671 0abc 9223 873d 6648 89bd
00000010: f818 983c 9ccc b7bd ad24 5e3d a127 0d3d
00000020: 4f20 933d 3ccc 1a3e ba8b 08be 0a16 84bd
00000030: 267c ef3a 02a7 163e 667d 183e c6e1 b9bc
00000040: bed7 123e 1989 4f3e 4d20 493d c4cf 26bd
00000050: 24f3 383d cbdc 51bd d34c 923d d569 5c3d
00000060: 929e f3bd a240 2a3e b29a 353e b7ea c13d
00000070: 3c09 99ba c329 19bd cda9 653d 73a5 09be
00000080: 1f1f 7b3d 3c43 913d af45 c1bc aa7e 913c
00000090: cdf1 123e e6aa 463d ee3b fcbd 69f8 5bbd
000000a0: b395 753d 2175 9a3d 160e 64bd 5617 ba3d
000000b0: be80 153d 5460 cc3d 44d3 9a3b 4602 803d
000000c0: d65c 85bd 4ee8 60bd 2a50 e9bd f074 0a3e
000000d0: ece7 fc3c 0881 74bd 132c dcbd 5a59 9ebc
000000e0: 9286 f93d 6c86 963c f66d 1abd 9dde 08be
000000f0: d784 a03d fab6 1dbe fde7 e2bd 9160 443d
-0.010463827 -0.008449813 0.065985814 -0.06703262 0.018566594 -0.08974573 0.054234196 0.03446162
0.07183897 0.15116972 -0.13334551 -0.06449516 0.0018271252 0.14712146 0.14891586 -0.022690665
0.14340112 0.20267142 0.04910307 -0.040725484 0.045153752 -0.051235955 0.07143559 0.053811867
-0.11895479 0.16626218 0.17734793 0.094685964 -0.0011675726 -0.037393343 0.056070138 -0.1344202
0.061308976 0.07092902 -0.023592798 0.017760593 0.14350052 0.048502825 -0.12316118 -0.0537037
0.059957217 0.07541872 -0.055677496 0.09086482 0.03649973 0.09979311 0.004724892 0.062504336
-0.06511848 -0.054909043 -0.11392243 0.1352117 0.030872308 -0.059693366 -0.10750594 -0.019329716
0.121838704 0.018374644 -0.037702523 -0.1336617 0.07837837 -0.15401831 -0.110794045 0.047943655

network.6.weight f4 [1, 64]
00000000: db7d 06be af59 843c 3fb4 1a3c 4651 ef3d
00000010: e8e7 18bd 70fc bd3d 8508 9ebd 154f 323e
00000020: d689 28be 4d45 98bd 0080 ec3c d9e3 9f3d
00000030: 1309 023c a8da 1cbe 66fe 12be dd4a 213c
00000040: 9bdd c6bd 4f7a 2fbe f987 78bd 982e dc3d
00000050: e418 25be a4b6 1d3e e8b7 a9bd 7701 debd
00000060: 3313 bf3b 9420 d4bd 9e99 acbd 0aa8 b73d
00000070: 0f24 28be 4f03 5c3d 4890 18be f9b0 8a3d
00000080: 794f 1dbe 4a8d 2f3c c98f 8e3e f3a3 4b3d
00000090: 1c8d e4bd ac4c 173d 329f ce3d 806e 0ebe
000000a0: b0ea 1e3d abf9 633c 994c b6bd 9806 fcbd
000000b0: 5f77 3e3d ce42 583c e4bd 9fbd b7a4 42be
000000c0: 0343 403d 0234 fbbd e78d fbbd 01a8 60bd
000000d0: 6952 1abe 6e3c 8c3d 1550 dd3d 28ab 113d
000000e0: d01d 1dbe 0314 c13d 6628 7fbb 19b6 dc3b
000000f0: f04c a33d bf2c a1ba 00d2 bd3d 560c b7bd
-0.13133948 0.016156046 0.009442388 0.116854236 -0.037330538 0.09276664 -0.07716469 0.1741298
-0.1645883 -0.07435093 0.028869629 0.0780713 0.007936734 -0.15317786 -0.14354858 0.009844509
-0.09710237 -0.17136501 -0.06067655 0.107510746 -0.16122776 0.15401703 -0.082870305 -0.10840123
0.005831146 -0.10357776 -0.08427738 0.08967598 -0.16420005 0.053714093 -0.14898789 0.06772036
-0.15362348 0.010714838 0.27844074 0.0497169 -0.11159727 0.036938354 0.10088958 -0.1390934
0.038798034 0.013914506 -0.089013286 -0.12305945 0.04650056 0.013199521 -0.07799891 -0.19008146
0.046938907 -0.12265779 -0.12282925 -0.05484772 -0.150705 0.068474635 0.1080629 0.035563618
-0.15343404 0.09427645 -0.0038933991 0.006735575 0.07973659 -0.001229666 0.0926857 -0.089379
