ModelWeights/LunarLander-v2-69420-/critic.weights.pt (torch, 56538 bytes, 9 tensors)

network.0.weight f4 [64, 8]
000000 db 3f c4 bd 37 36 1b bd 73 e1 93 be 10 48 fb bd
       -0.09582492 -0.0378935 -0.28882942 -0.12269604
000010 5b f0 9d 3e f3 c6 bc 3e e7 3a c8 3d d2 ab 29 3d
       0.3084744 0.36870536 0.0977686 0.041423626
000020 cc b9 e7 bd d9 16 b6 3e 64 a2 9b 3e 91 be 4a 3e
       -0.11314735 0.35564306 0.30397332 0.19799258
000030 36 1e d7 3e 22 3c df 3d 26 6b 8f bd f7 1c b2 bd
       0.42015237 0.10900141 -0.07002859 -0.08696931
000040 38 09 95 be 23 50 92 3e 18 a1 5b 3e 7d 10 33 be
       -0.29108596 0.28576764 0.21448171 -0.17486759
000050 79 84 be 3e 58 62 f5 bd 8b 1d ce bb 86 8f 4d 3e
       0.37210444 -0.11981648 -0.006290143 0.20074281
000060 09 d7 95 bd 80 ff a8 be 72 45 9f be 53 fe 8c 3d
       -0.07316405 -0.3300743 -0.3110767 0.06884446
000070 ab 7a bc 3d 58 dc 62 3e b3 fb d7 bc 62 13 0d 3b
       0.092030846 0.22154367 -0.026365137 0.0021526446
000080 c1 cd d9 bc 88 b5 ff 3d ef 61 f1 3d c9 7a 52 3d
       -0.026587369 0.12485796 0.117862575 0.05138663
000090 09 55 95 be 35 83 97 be 4f 6a 64 3d 75 b4 90 3d
       -0.2916644 -0.2959229 0.055765446 0.070656694
0000a0 9b de 61 3e 8d 24 f2 bc f7 d5 b3 bc a6 ed 13 3d
       0.22057573 -0.029558444 -0.021952612 0.03611531
0000b0 cc 33 b1 be 71 fc 5a be b8 c5 0a bd e3 c1 39 3d
       -0.3460983 -0.21385361 -0.033879966 0.04535092
0000c0 8b de 82 3e 55 69 9c be 12 fb ef 3d 96 34 0e 3b
       0.25560412 -0.30549112 0.1171781 0.0021698824
0000d0 6e 20 97 be b1 01 40 be 5c 0e de 3e 91 57 e0 3e
       -0.2951693 -0.18750645 0.4337033 0.43816808
0000e0 b7 79 8c be ce d1 5a 3e bd 63 b1 be 9f 27 37 be
       -0.2743661 0.21369097 -0.34646407 -0.17886208
0000f0 38 f4 3d be c7 50 a2 be e4 a4 0b bd 73 72 64 3e
       -0.18550193 -0.31702253 -0.0340928 0.22309284
000100 00 ff 40 3b f9 e9 5f be 32 58 05 be c0 a1 6e be
       0.0029448867 -0.21866597 -0.13021925 -0.2330389
000110 fb 0f d6 3e 7e d6 0f 3e 18 c4 b1 be e9 9b 98 3a
       0.41809067 0.14046666 -0.3471992 0.0011643145
000120 bf 68 af be 02 35 3d 3e e3 56 90 3b f1 4e b9 be
       -0.34259602 0.18477252 0.004404889 -0.3619304
000130 9a 08 75 be 27 09 e4 3d e1 df 08 be 2e ce 43 be
       -0.23929062 0.11134558 -0.13366653 -0.1912162
000140 3d 88 48 be 16 53 03 3e 0d 55 8b be 54 a5 bc be
       -0.19583221 0.12824664 -0.27213326 -0.36844885
000150 5b 58 7a be 05 fc ab 3e 10 d9 e1 3d 16 85 3e be
       -0.24447767 0.33590713 0.110277295 -0.18605456
000160 79 65 59 bd 5e 91 55 3e b1 06 7e bd 41 20 1d be
       -0.053075287 0.20856234 -0.0620181 -0.15344335
000170 a0 9f c4 3e a9 42 0d be 72 24 e5 bd c4 bb a5 3e
       0.38403034 -0.1379496 -0.11188592 0.32369816
000180 c9 8d 87 3e f4 4e 3b be 86 d0 aa 3e 47 b7 4a 3e
       0.2647536 -0.18291837 0.33362216 0.19796477
000190 db 4b a7 be 09 78 22 be 4f b5 6a 3e e1 59 9e bd
       -0.3267506 -0.15866102 0.22920726 -0.07731987
0001a0 32 4b ad 3e f7 64 b5 3e 50 d8 80 3e 84 cd 93 3e
       0.33846432 0.35428593 0.25165033 0.28867733
0001b0 25 4a b5 be 1d 55 0d bc cc 9e 5a be bc 17 ae be
       -0.3540813 -0.00862625 -0.21349639 -0.34002483
0001c0 85 54 6d bd 99 bc 85 be 85 96 06 be 70 c6 3c 3e
       -0.057941932 -0.2612045 -0.13143356 0.18435073
0001d0 c4 42 2a 3e 3d 5e 2f 3e e5 6f 54 3e 7b 77 e3 bd
       0.16627032 0.17125793 0.2074581 -0.111067735
0001e0 86 a9 2e be 1f 2d c0 3b 6f af 9b 3e 75 65 03 3e
       -0.17056856 0.005864754 0.30407283 0.12831672
0001f0 29 8a 2f bd 2c 46 91 be 06 04 bd 3e 54 7b 16 be
       -0.04285637 -0.2837385 0.36917132 -0.14695483
000200 29 a2 9b bd 6f 6c 8c bd 19 b0 f2 3d 07 e9 e4 be
       -0.07599289 -0.068566196 0.11849994 -0.44709036
000210 60 7f a0 3e f2 c6 9c be a3 da 8d 3d 98 41 e2 3d
       0.3134718 -0.30620533 0.06926467 0.11047667
000220 d1 a7 85 3e 56 e8 9b 3d be 9b b4 be 8f 69 dd 3c
       0.26104596 0.07612674 -0.35275072 0.027027873
000230 b5 99 bc 3d d2 96 1c 3e e5 fb 8e 3d 68 34 79 bd
       0.09209005 0.15291908 0.06981639 -0.060840994
000240 dc 91 a2 bc 4c be e0 3d fe f7 b2 3e 99 96 64 be
       -0.019844942 0.10973796 0.34954828 -0.22323073
000250 36 00 23 3e a5 61 cb bd 7f f1 c1 be 63 46 40 3e
       0.15918049 -0.099307336 -0.3787956 0.1877685
000260 fb d1 8e be 6a d1 30 be ef 7a 9b be 17 ad d3 be
       -0.27894577 -0.17267385 -0.30367228 -0.41342995
000270 12 84 cc 3e d5 7c 71 bd 3e f0 38 3e 77 e4 16 3b
       0.39944512 -0.05895694 0.18060395 0.002302436
000280 1d c0 07 3e 4e ab 49 bc b7 5e 86 be 02 5a ff be
       0.13256879 -0.012308909 -0.26244137 -0.49873358
000290 65 65 9d 3e 39 0c b8 3d 37 14 24 be 2c 20 2f be
       0.3074142 0.08986706 -0.16023336 -0.17102116
0002a0 de fc a2 bd ef fc d7 3b 35 d3 3d be 09 1a e6 bb
       -0.07958387 0.0065914313 -0.185376 -0.0070221466
0002b0 40 10 8c be d8 30 81 be 77 94 4a 3e ff 19 d3 3c
       -0.27356148 -0.25232577 0.19783197 0.025769232
0002c0 d2 f5 e6 bd aa 00 57 3e ec 8b 03 bd 84 17 c7 3d
       -0.11277355 0.20996347 -0.03211586 0.09721282
0002d0 9d e6 4f 3e f9 b8 44 3d a0 0a 38 be 60 dc f4 3d
       0.20302816 0.048027966 -0.17972803 0.11956096
0002e0 cd de 98 be ed 56 82 3e 3c 03 25 be 5c 24 47 3c
       -0.29857484 0.25456944 -0.16114515 0.012154665
0002f0 21 bf cd 3d 02 a5 d3 bd 34 17 aa 3e 17 7e e4 bd
       0.100462206 -0.10334207 0.33220828 -0.11156862
000300 b1 6d e2 3d 12 ea 8f 3e 9d 6b 32 be 48 32 5d 3e
       0.11056078 0.2810827 -0.17423864 0.21601212
000310 e8 c5 43 3e f6 e0 92 be 88 4f 93 3e f2 1f ad bc
       0.19118464 -0.28687257 0.28771615 -0.021133397
000320 52 40 b3 3e 63 4e e2 3d 85 54 31 3e 23 61 00 bf
       0.3501001 0.11050107 0.17317398 -0.5014822
000330 88 76 bd bd 45 e1 8a bd 0e 23 2b bc 04 df b2 3e
       -0.09251124 -0.06781248 -0.010445369 0.34935772
000340 a2 46 e6 bd 34 0d 85 be 76 7b c2 be 1f a0 b6 3c
       -0.11243941 -0.25986636 -0.37984818 0.022293149
000350 e1 71 68 3e 8c 2c 91 bd d2 db 69 bc 23 31 3f 3e
       0.22699691 -0.07088575 -0.014273601 0.18671088
000360 b4 ad 9b 3e 00 53 83 3c 94 c2 62 3e d3 98 1a bd
       0.30405962 0.016030788 0.22144538 -0.0377434
000370 ba aa c6 3e 24 a1 70 3e 97 e8 2f 3e f4 08 5e 3e
       0.3880213 0.2349897 0.1717857 0.21683103
000380 46 f7 9f 3e 19 c3 85 bd eb 8e 1f 3e 39 4a 71 be
       0.31243342 -0.065313525 0.15581863 -0.2356347
000390 8e 63 83 bb 31 61 9e 3e 36 7d 8c bd 56 3b 74 be
       -0.0040096706 0.30933526 -0.068598196 -0.2385076
0003a0 ee 0a 8a 3e 87 d6 95 bd 29 4a c6 3e 10 79 dc 3d
       0.26961464 -0.073163085 0.38728455 0.10765278
0003b0 c5 bf 3a 3e 3e fe b2 3d 7a 93 d3 bd 10 7f 2c be
       0.18237217 0.08739899 -0.10330863 -0.16845345
0003c0 cf f5 8a be 3a c0 e3 bb 99 64 c4 be f8 69 d0 bd
       -0.27140662 -0.0069504054 -0.38358 -0.10176462
0003d0 6e 62 b0 be 2f 65 0a 3e 95 83 86 3e 90 0a 9c 3e
       -0.34450096 0.13515161 0.26272264 0.3047681
0003e0 86 01 59 be cc fa d7 bb 72 ab 8c be a1 7d 43 bd
       -0.21191987 -0.0065911766 -0.27474552 -0.04772723
0003f0 8b ca f0 39 e5 dc 65 3d a3 3e cc 3d f6 fb 8d 3d
       0.00045927273 0.056118865 0.099728845 0.06932823

network.0.bias f4 [64]
000000 e9 6e 5b be df 16 ed bd ff 9f bb 3e 23 e8 af 3e
       -0.21429028 -0.11576628 0.36645505 0.34356794
000010 6f 46 8e be 3c c2 ff 3c 37 a9 91 3e 75 a9 34 3e
       -0.27788112 0.031220548 0.28449413 0.17642768
000020 12 24 23 be 11 63 9a 3e 2f a9 c6 3e ec fe 72 3e
       -0.15931728 0.30153707 0.38800952 0.23730057
000030 2d 4c 88 3e df 04 8e be 54 93 b2 3e 3f 4c b0 3e
       0.26620618 -0.2773809 0.34878027 0.3443317
000040 60 c3 86 3e c5 f7 7c 3d 5d f6 f4 3b f5 ed 6e be
       0.26320934 0.06175973 0.007475658 -0.23332961
000050 7e 81 aa 3e a9 7c 3a be e6 61 ab be 64 f7 b0 3e
       0.3330192 -0.18211617 -0.33473128 0.34563744
000060 c4 ab a9 3d 8f 05 6c 3e 0a 7c 5f be 71 c0 9a bd
       0.08284715 0.23048995 -0.21824661 -0.075562365
000070 5d 36 89 bd ac b2 89 be a1 81 2b be f4 0b 3f bc
       -0.06699822 -0.26894128 -0.16748668 -0.011660565
000080 5d 29 22 be 21 8f 27 3c e7 c5 87 3d af 10 45 3e
       -0.15836091 0.010226996 0.06629544 0.19244646
000090 ef 10 08 3e 9a 9f b6 3e 43 12 77 3d 9e 95 9f 3e
       0.1328771 0.3566864 0.06032015 0.31168836
0000a0 e1 f4 f8 bc e2 99 3b 3e d7 4d 8e be 30 89 5e be
       -0.030390205 0.1832042 -0.27793762 -0.2173202
0000b0 21 7f 2a bd 21 08 8a be a5 35 cd 3e 73 6b 50 3e
       -0.041625146 -0.26959327 0.4007999 0.20353489
0000c0 a8 cf 26 be 81 da 8a bb 2d a9 33 be dc 7d dc 3d
       -0.16290152 -0.0042374735 -0.17545004 0.10766193
0000d0 7f 79 ba 3e 59 93 ae 3d 48 bc c2 be d3 bd 2a bd
       0.3642082 0.08524198 -0.38034272 -0.041684937
0000e0 90 c6 af 3d aa 03 2c be 9b 46 8d 3b 30 39 0c 3d
       0.08582795 -0.16798273 0.0043113953 0.034234226
0000f0 4f 79 1f be f7 e1 7f 3e ef de b6 3d db 61 ab 3d
       -0.1557362 0.24988542 0.0892924 0.08368274

network.2.weight f4 [64, 64]
000000 e6 a8 ab 3d 11 32 88 3a ae 60 f0 bd fb a1 30 3b
       0.08381824 0.0010390898 -0.1173719 0.0026952017
000010 bf e7 26 bc d5 f0 01 3e bf 5a 3c 3e c2 01 e8 3d
       -0.0101870885 0.12689526 0.18393992 0.1132846
000020 7e 7b 0f 3d 79 8c c8 bd d2 8b 21 bd 82 3e cf bc
       0.03502988 -0.09792418 -0.039439984 -0.02529836
000030 c3 cc b5 3d 86 65 a2 bd c1 60 73 3e fe 51 a2 bd
       0.08876946 -0.0792952 0.23767377 -0.07925795
000040 f1 74 28 3c 56 26 cb bd e2 9d 5a 3d 3b ae 09 3e
       0.010281787 -0.099194214 0.053373225 0.1344537
000050 11 a2 c9 bd 2f 2c c7 3d 12 b6 c8 3d 66 a8 be bd
       -0.09845365 0.09725224 0.09800352 -0.09309463
000060 2a 23 f9 3c ba 64 f3 3c 4a 65 54 3e 86 74 fe bc
       0.030412275 0.029711116 0.20741764 -0.031061422
000070 66 bf 87 3c b6 26 eb 3c 34 ae a3 3c 3b 34 85 bc
       0.016570758 0.028704982 0.019980527 -0.016260257
000080 42 a4 f6 3d 9f d8 e7 3d cc f1 d6 3d ed c5 48 3e
       0.120430484 0.11320614 0.10495338 0.19606753
000090 0d ac f3 3d be 3f 36 bc c2 1a 9c 3d c7 b3 d1 3d
       0.118980505 -0.011123596 0.07622291 0.10239368
0000a0 93 ec 10 3e 37 ed e0 3d 08 1a 80 bd b5 2e 12 3d
       0.14152746 0.10982745 -0.06254965 0.035689075
0000b0 c9 c8 97 3d df 30 ca 3d 43 81 1b 3e 40 94 09 bd
       0.074113436 0.09872603 0.15186028 -0.033588648
0000c0 8a bc c6 bb a1 c6 4d 3e 57 e3 7e bd 17 a3 fb bd
       -0.006064956 0.20095302 -0.062228527 -0.12286966
0000d0 75 2c f0 3d e4 95 9b bd ec 1a c2 bd 51 64 08 3e
       0.117272295 -0.07596949 -0.09477791 0.13319518
0000e0 ae 6e 22 3e 0f 2b 0a bc a7 5f dc bc 57 7b 2d 3e
       0.15862533 -0.0084331175 -0.02690108 0.16941582
0000f0 2c 79 96 3d 61 a2 63 3e 9d 8a bc 3d 92 98 e1 bc
       0.073473305 0.22229911 0.09206126 -0.027538572
000100 fb 3d bd 3d 33 76 0b 3d 86 2f 0c be 1a 84 2e bd
       0.092403375 0.03404827 -0.13690004 -0.04260645
000110 35 8d c9 ba 1c c8 c9 3d 94 57 19 3e cb 40 56 bd
       -0.0015377166 0.09852621 0.14974815 -0.052307885
000120 3f 20 8d 3d d6 42 4c bc 59 08 d0 bd 86 b7 8a bd
       0.06890916 -0.012467107 -0.10157842 -0.067732856
000130 6b fd 85 3e 7e e6 d7 3d b2 91 1b 3e 21 d8 59 bd
       0.26169905 0.1054201 0.15192297 -0.053184632
000140 c6 14 c6 3d 64 81 53 3b 70 91 1d bd 0c a3 f3 3c
       0.09671931 0.0032273168 -0.038468778 0.029740833
000150 6a b1 d0 3c d6 86 f9 3d 33 8d a8 bd 8c 44 65 bd
       0.025475223 0.12183921 -0.082300566 -0.055973575
000160 54 44 51 3d dd 23 00 3e 39 e6 ed 3b e7 46 ae 3d
       0.051090553 0.12513681 0.0072601107 0.08509617
000170 3f 92 27 3e a2 b8 30 bd 55 3d b9 3d f7 a0 a4 bd
       0.16364382 -0.04314483 0.09044901 -0.08038514
000180 df ae 6e 3d 9d 1e ab 3d cc 89 37 3b f0 48 0c 3e
       0.05827224 0.083554484 0.0028005717 0.13699698
000190 bf 4d 45 3d 1f b4 cd 3d 0e 8e 0d 3e b8 3b ac 3d
       0.048169848 0.10044121 0.13823721 0.08409828
0001a0 21 f6 70 3d 3b ad e7 bc d1 f3 b8 3c 05 33 0c bd
       0.058828477 -0.028280845 0.022577198 -0.034228344
0001b0 d2 2e 50 bb 91 66 ce 3d 78 14 c8 3d 45 f1 76 3d
       -0.0031766188 0.10078157 0.09769529 0.060288686
0001c0 46 e8 5d bd c7 d2 09 3e e2 cc 83 3d fe 23 b2 3c
       -0.05417659 0.13459311 0.06435563 0.021745678
0001d0 a8 8f 87 3c c4 a5 68 bc d6 bb 91 bd 72 c6 ac 3c
       0.016547993 -0.014199678 -0.07115905 0.02109072
0001e0 93 51 b8 3d 7c 63 f8 bc 1c 75 bf 3c 29 44 b1 3d
       0.08999934 -0.030320875 0.023371272 0.08655579
0001f0 36 f0 5b 3d 29 a6 ba 3d a3 11 8e bc 5a 17 2d 3d
       0.05369588 0.09113724 -0.017342394 0.042258598
000200 53 03 a0 bc 0e 4d 4f bd 74 bf 44 3c 1c e3 78 bd
       -0.019532835 -0.050610594 0.012008537 -0.060763463
000210 e0 5c eb bd 7e 69 76 3d 06 d4 49 bc 32 e6 2a 3c
       -0.11492324 0.0601592 -0.012318617 0.010430859
000220 aa 6d bb 3c 74 e7 0f bc 0f e6 f7 bc c5 a0 f5 bc
       0.02287944 -0.00878321 -0.030261068 -0.029983887
000230 a7 76 eb bd 64 54 9a 3a 74 e3 aa 3d c6 a3 41 3d
       -0.114972405 0.0011774418 0.083441645 0.047275327
000240 f1 57 35 bc b7 03 dd 3d e9 47 63 bd f8 26 10 bd
       -0.01106833 0.10791724 -0.0554885 -0.035193413
000250 9a 4b 0c be e7 05 72 3d ae b3 03 be a4 8d f4 bd
       -0.13700715 0.05908766 -0.12861511 -0.11941078
000260 5b d7 8a bd f3 ea b2 bc 0a cc 85 3d 98 38 01 be
       -0.06779357 -0.021840548 0.06533058 -0.12619245
000270 4f 5e d8 3d a4 10 b4 3d 9c d8 55 b9 b6 be 3a bd
       0.10564863 0.087922364 -0.00020393956 -0.045592032
000280 bd 16 0b 3d 88 d1 d0 3c 01 85 a0 3d 37 d2 2b 3d
       0.03395723 0.025490537 0.078378685 0.041948523
000290 45 77 a7 3d 24 ac f4 bd 12 08 12 3d 1a 48 a8 bd
       0.08177046 -0.11946896 0.035652228 -0.08216877
0002a0 b1 a7 90 3d 7e ed 82 3d 97 07 60 3c 51 cc 4b bd
       0.070632346 0.06392954 0.013673685 -0.0497554
0002b0 75 fc 1d 3d bc 16 aa bd f8 ab a9 3c 78 da 79 3d
       0.03857084 -0.083051175 0.020711884 0.060999364
0002c0 a9 fe 06 be 28 72 68 3c 24 18 20 3d e3 2c 11 3d
       -0.13183083 0.014187373 0.039085522 0.035443198
0002d0 55 42 a4 3d 91 9b 5f 3d 3a 31 9a 3d e2 c4 be bd
       0.08020464 0.05459172 0.075289205 -0.09314896
0002e0 ae 2e 18 bd 49 0a 01 be 8a 75 b1 3d 9a 94 15 bc
       -0.037153892 -0.1260158 0.08664997 -0.009129668
0002f0 b7 60 55 3d 37 e7 b2 bd 5d a9 26 3d 50 18 54 3d
       0.052094188 -0.08735507 0.04068886 0.051781
000300 55 f4 84 3d fd 65 8d 3c 77 ff d8 3d d9 81 68 3d
       0.06491915 0.017260546 0.10595601 0.056764457
000310 55 4b 41 3d 5d 2a 5c bd ee 93 14 3e ac 08 c5 3d
       0.047190983 -0.05375134 0.14509556 0.09620795
000320 02 e9 9c 3d 96 30 f7 3c a8 8b d9 3d 99 0e 0c 3e
       0.0766163 0.030174535 0.106223404 0.13677444
000330 28 f2 e0 bd 9e ea 5a 3d cc 1d 05 be 32 5b a2 3b
       -0.10983688 0.053446405 -0.12999648 0.004954719
000340 14 dd 16 3e c3 86 a4 bc af f0 8b 3d 44 7a 39 bb
       0.14732772 -0.02008379 0.06833016 -0.0028301636
000350 fc a4 a9 3d 85 cf fc 3d db 59 be bc 26 84 f9 3b
       0.082834214 0.12344269 -0.023236206 0.0076146303
000360 33 ef 77 bd b7 b9 ef bc 51 f6 ab bc 56 38 22 3e
       -0.060530853 -0.02926336 -0.020991476 0.15841803
000370 d8 55 07 3d 84 76 0c bd 22 45 23 3d 67 61 c0 bd
       0.03304085 -0.034292713 0.039860852 -0.09393578
000380 c8 3b f7 3d 91 cc 21 bd 62 7d d1 3b 07 a7 67 bd
       0.12071949 -0.03950173 0.0063931206 -0.056555774
000390 83 b6 22 3e 41 e7 17 3e 99 ee dc 3b 96 63 ac 3d
       0.15889935 0.1483431 0.0067423102 0.08417432
0003a0 d1 72 cc ba ff 4d 61 3d 5b 55 fc 3d 29 4c 2f 3e
       -0.0015598183 0.055006023 0.12320968 0.17118897
0003b0 f9 d2 a6 3e dc 8e 30 3e 66 88 02 3b d9 73 8a 3d
       0.32582834 0.17241997 0.0019917726 0.067603774
0003c0 c0 9f 40 bd 1b 7c 48 3e 8b 38 30 3e 56 30 cd 3c
       -0.04702735 0.19578592 0.1720907 0.025047462
0003d0 91 ef 99 3d a8 2e 28 3d 19 e4 b3 3d bc df a2 3e
       0.07516397 0.04106012 0.087837406 0.3181132
0003e0 6e 5a 0b 3e 83 69 54 3e 47 54 6a 3e 9c 38 bd 3b
       0.13608715 0.20743375 0.22883712 0.0057745706
0003f0 57 b5 db 3c f8 31 d0 3b 46 80 e6 bc ef 08 fb bc
       0.026819868 0.006353613 -0.028137337 -0.030643908

network.2.bias f4 [64]
000000 75 90 fd bc 5e 93 ed bd e1 9e 60 bd 70 40 08 3e
       -0.030952672 -0.11600374 -0.05483902 0.13305831
000010 a9 fe 07 be 3a df 6e bd 22 c3 c0 bd 2d 0c 9f bd
       -0.13280739 -0.058318354 -0.09412219 -0.07765994
000020 9e e3 65 bc 9a cd b4 bd 2d 0a 25 bd 17 d7 98 bd
       -0.014031319 -0.08828278 -0.040292908 -0.074629
000030 53 cc 0b 3e 2a 4e 5d 3d a0 34 e2 3d 23 77 17 bd
       0.13652162 0.05402962 0.11045194 -0.036978852
000040 65 2e c6 3d 75 7a 95 3c 16 f2 d1 bc 39 de 3a bb
       0.09676818 0.018246869 -0.02562813 -0.0028513803
000050 03 56 bc bd 0c 2f 8f bd a2 d6 cc 3d 70 39 a2 bd
       -0.09196093 -0.06991395 0.100018755 -0.079211116
000060 bd a9 30 3e 98 be 27 3d f9 7c fa 3d a2 90 fe 3d
       0.1725225 0.04095325 0.12230868 0.1242993
000070 50 24 66 3d e1 f8 03 be aa ee c6 3c 76 4a da bd
       0.056186974 -0.12887909 0.024283726 -0.106587335
000080 57 6f 15 3e e1 65 de 3d 04 cc e6 bb 0b 59 7e 3d
       0.14593254 0.108592756 -0.0070433635 0.062096637
000090 cd b3 c1 bc 16 8a 57 3d a9 18 15 38 3d 7c 50 3c
       -0.023645306 0.052621923 3.5547335e-05 0.012724933
0000a0 92 fe ae bc 78 8b 5d 3c cf b7 b3 bd 14 da c9 3d
       -0.021361623 0.0135220215 -0.08775293 0.09856048
0000b0 ed 3d 65 3d 11 41 be 3d 55 c4 1a bd 1c 8d 7a bd
       0.05596726 0.09289754 -0.037784893 -0.06116973
0000c0 66 54 20 3e 2c 6d f5 3c f3 bc 14 3e 67 e8 76 3d
       0.15657195 0.029959284 0.14525203 0.06028023
0000d0 19 39 0b 3d 92 43 c4 3d 1b 84 be 3c 15 ed 03 bd
       0.03399 0.095832005 0.023256352 -0.03220852
0000e0 9d a0 79 bd e7 4b 47 3e 77 3a 3c 3e cb 41 d3 3d
       -0.06094419 0.19462548 0.18381678 0.103152834
0000f0 ce 2f 22 3d 1f 6b 05 3e e8 cf df 3c 1c 59 2d 3d
       0.03959637 0.13029145 0.027320817 0.04232131

network.4.weight f4 [64, 64]
000000 af dc 39 bd 76 9f b2 3d 05 6d 7d 3d d9 b6 91 bd
       -0.045376476 0.08721821 0.061871547 -0.071149535
000010 f5 25 ac bd b0 6f a8 bd 0c 77 df bd 75 99 e1 3d
       -0.08405677 -0.08224428 -0.10911378 0.11015598
000020 55 31 e4 bc 6a 47 23 3d bc 2a 01 3d ca 3d 95 3d
       -0.027855555 0.039863028 0.031534895 0.07287176
000030 33 84 ba 3d b2 d0 ae 3d d7 c9 87 3d 3a d2 ba bd
       0.09107246 0.08535899 0.06630295 -0.09122129
000040 0c 06 8f 3d 76 af b3 bc 29 8b cd 3d a7 a6 c3 bd
       0.06983575 -0.021934252 0.10036308 -0.09553271
000050 3a 43 24 3d 47 cf be 3d 4b 3d c8 bd 33 a6 de bd
       0.040103175 0.09316879 -0.09777316 -0.10871544
000060 c4 58 d0 bc fa 59 8e 3d 94 8f 10 be f8 9a 35 3d
       -0.025432952 0.069507554 -0.1411727 0.044337243
000070 6b 58 f0 37 b2 83 0c be 91 6c a8 3d 44 87 6f 3d
       2.8651402e-05 -0.13722113 0.082238324 0.05847861
000080 75 32 e6 bd 61 52 f9 bd e8 dc bc bd c9 7a ca 3c
       -0.11240093 -0.12173916 -0.09221822 0.024716752
000090 c7 b5 f3 bd 92 c9 f5 bd 61 4c e1 bc 2f 6d de bd
       -0.11899906 -0.12001337 -0.02750224 -0.10860669
0000a0 4c 78 e0 3c e8 c8 cb bd 49 d8 2c 3d e1 32 c0 3c
       0.027401112 -0.09950429 0.042198453 0.023461761
0000b0 42 13 f9 bd 78 97 e7 3c 3e b1 48 3c 0e ef de 3d
       -0.12161876 0.028270468 0.012249289 0.1088544
0000c0 2e 6d 97 3d 6f 87 9d 3b 00 4a ce bd 6e c0 12 3d
       0.07393871 0.0048074047 -0.10072708 0.035828047
0000d0 0f f2 df 3d d4 09 5f bd 78 39 bf bd 1e b8 db bd
       0.10934841 -0.054452732 -0.09337133 -0.10728477
0000e0 07 ad d5 3d 6f b9 ec bd b2 b0 b4 3c 9d 22 57 3d
       0.10433393 -0.11558806 0.022056911 0.052523244
0000f0 db 01 ce 3c db 5d 82 3d 36 53 02 be 6d 35 34 3d
       0.02514737 0.06365558 -0.12727055 0.043996263
000100 7b 61 aa 3c a6 43 85 bd 78 ca 04 bd c0 52 39 3c
       0.020798435 -0.065070435 -0.03241965 0.011311233
000110 08 11 a0 3c ea fc 06 be 00 15 b2 3b c0 24 da bc
       0.019539371 -0.13182417 0.0054346323 -0.026628852
000120 11 17 9a bd 78 ca a2 3d fa 9e c7 bd 72 9f 83 3c
       -0.07523931 0.07948774 -0.09747119 0.01606724
000130 f5 ed ec bc fa 5a ac 3d fb 46 90 3d ca a8 e1 bd
       -0.02892206 0.0841579 0.070447885 -0.11018522
000140 80 b6 7f 3d ea 13 fe bd df 40 5a bd 0a 36 ef bd
       0.062429905 -0.12406142 -0.053284522 -0.11680229
000150 e8 03 88 3d e4 c0 a1 3d 17 36 ce bd 2f 4b 8c 3d
       0.0664137 0.07898119 -0.100689106 0.06850278
000160 04 6e cb 3d c0 97 17 3d 66 83 3e 3d 0c 7a 0c bd
       0.09933093 0.037009954 0.04651203 -0.03429608
000170 13 06 00 be 87 a2 ac 3d 7e 97 6c bd 78 dc 87 bd
       -0.12502317 0.08429437 -0.05776166 -0.06633848
000180 4b 74 d9 bd 42 10 d7 3d 6f 22 4e bd 3c bf d7 3c
       -0.10617884 0.10501148 -0.050325807 0.026336305
000190 0f aa e2 bd dd 4c ba 36 e7 fe 8f 3d 70 8f ce bc
       -0.11067592 5.55218e-06 0.07031041 -0.02521488
0001a0 bd b9 9b bd 6c 3b 2d bd a8 f7 c7 bd 64 13 32 bd
       -0.07603786 -0.042292997 -0.097640336 -0.043475524
0001b0 91 03 ba 3d 25 77 b7 bd d2 56 c1 3d fc 78 4a 3d
       0.090827115 -0.08958272 0.09440388 0.049431786
0001c0 c5 ca 53 bc a0 bb a1 3d 71 af c7 bd 5d 3b ca bb
       -0.012926762 0.07897115 -0.0975026 -0.0061716274
0001d0 30 7b 75 3c 50 ea 7d 3c 5d 47 01 3d 7f 0d 96 3d
       0.0149829835 0.015497759 0.031562198 0.07326793
0001e0 2e 53 8b bd 73 dc bc bc 64 e4 e4 bd ea b0 f0 bd
       -0.06802975 -0.023054337 -0.111763746 -0.11752494
0001f0 82 ea f5 3a a4 6a 03 bd a9 02 aa 3d 54 8a cb bd
       0.0018761905 -0.032084122 0.08301289 -0.09938493
000200 0a 8b 96 bc 1f 43 b7 3d 8e 05 76 3b 06 f2 ab bb
       -0.018376846 0.08948349 0.0037539932 -0.0052473573
000210 6a d9 c8 3d 34 f4 9d bc ac 07 9b 3d 85 2e c9 bd
       0.098070934 -0.019281484 0.07569823 -0.09823326
000220 5e 10 e9 bc 66 31 02 3e d5 d2 85 bd ee 08 ad bd
       -0.028450187 0.12714157 -0.06534354 -0.08448969
000230 87 0d 77 3d d2 95 c4 3d 50 de 12 3e cf 6f 23 bd
       0.060315635 0.095988885 0.14342618 -0.03990155
000240 2c b4 a6 3d f1 65 bf 3d 7c 2d 3f 3c bd a9 b3 3c
       0.08139834 0.09345616 0.011668559 0.021931523
000250 69 66 84 3d 59 8c 15 bd 23 78 2d 3d dc 15 a9 bd
       0.06464846 -0.0365108 0.0423509 -0.082561225
000260 00 77 de 3d 13 44 b5 bd d7 ff c4 3d eb 03 d8 bc
       0.10862541 -0.08850875 0.0961911 -0.026369056
000270 36 ad 51 bc b5 32 b8 bd cf 54 b7 3d 0a fb 72 3d
       -0.012797644 -0.089940466 0.08951723 0.05932144
000280 a0 6f 2b 3e 28 05 c1 bb 0b 85 0d 3e f7 61 0a 3e
       0.167418 -0.0058905073 0.13820283 0.13513933
000290 3e 81 c6 3d b8 54 a9 3d c3 48 bd 3b 75 bb 9f bd
       0.0969262 0.08268112 0.005776496 -0.077994265
0002a0 89 99 01 3e 14 d5 97 bc 65 36 53 3d 96 8e 8b 3c
       0.12656225 -0.01853422 0.051565547 0.017035764
0002b0 a8 89 03 3d 72 a5 12 3e 68 61 c1 bd c6 67 33 3c
       0.0321137 0.14320925 -0.09442407 0.0109500345
0002c0 7a 1b d8 3d 0b 44 09 3e 3c 39 d1 3c c7 05 a0 3d
       0.10552116 0.13404863 0.025539987 0.07813602
0002d0 b5 2e fd bd 6d 2e e7 3d 03 2b ac 3c 5c e9 39 3c
       -0.12362424 0.11288152 0.021016603 0.011347141
0002e0 38 e9 dd 3d ed f1 1f 3e 09 f4 b9 3d 16 e5 d2 bd
       0.108354986 0.15619631 0.09079749 -0.10297601
0002f0 06 49 74 3d 7b b5 e0 3c 8a e6 e0 3d cc 1b 74 bc
       0.059639953 0.027430287 0.10981472 -0.014899205
000300 53 ec c4 3c 39 0e a4 bc 10 5c 7d bd c3 d1 e6 3d
       0.02403847 -0.020026313 -0.061855376 0.112704776
000310 3f 28 0b 3e ee 25 12 bd 37 33 28 bd d5 28 bf 3d
       0.13589571 -0.035680704 -0.041064467 0.0933396
000320 a1 59 a2 3c 89 12 d9 3d e6 81 43 3d b1 33 d8 3d
       0.019818129 0.105992384 0.047731303 0.10556734
000330 5e 48 82 3d 76 2e a4 3c b4 aa 13 3e e9 3d 22 3d
       0.06361459 0.020041686 0.14420587 0.039609823
000340 71 7e 1e bd 53 10 04 3d 61 6e 07 3e 39 42 c3 3d
       -0.038694803 0.03224213 0.132257 0.09534115
000350 5b b1 be 3d fe d7 ac bc ba 0b e4 bc c4 98 98 3d
       0.093111716 -0.021099087 -0.027837623 0.07451013
000360 43 55 64 3e 42 ff 15 3d c1 98 bc 3d 64 07 8d 3d
       0.2229815 0.036620386 0.09208823 0.06886175
000370 15 e7 33 3d 77 83 ef 3c 61 dc 5e 3e 2e c4 91 bd
       0.04392155 0.029237492 0.21763755 -0.071174964
000380 25 d2 69 3d 29 99 ec bb 52 2b 9a 3c 0f c1 83 bd
       0.057085175 -0.0072204066 0.018819485 -0.064333074
000390 93 df 96 bd 99 72 03 3d 8a 02 0e 3e 44 98 81 3d
       -0.07366862 0.03209171 0.13868156 0.063278705
0003a0 d2 32 58 bd ce 1b 3c 3d 54 c5 c3 3c 1f 3a 0d bc
       -0.05278284 0.045924954 0.023897804 -0.008619814
0003b0 d4 68 89 3d 07 c3 5c bd 8a 4f db 3d 51 ab 11 3e
       0.067094475 -0.05389693 0.1070853 0.14225508
0003c0 5d 70 4d 3e ab 73 84 3d 2c e5 0d 3e 5a 8f 39 bc
       0.20062394 0.064673744 0.13856953 -0.011325682
0003d0 a1 e8 a5 bd 36 b7 46 3d 50 48 87 bd b5 14 90 3d
       -0.08101011 0.048514567 -0.066055894 0.070351996
0003e0 45 41 9e bb ec 2b 36 3e 74 8c 1f 3e 4c 0a e8 3d
       -0.004829558 0.17790192 0.15580922 0.11330089
0003f0 d7 c8 57 bd 8d 90 21 3e 41 71 9e bd a7 57 6b 3b
       -0.05268177 0.15777798 -0.07736445 0.00359104

network.4.bias f4 [64]
000000 96 24 1a bd 53 e9 bc bd b8 87 fd 3c eb 91 50 3e
       -0.037632547 -0.092241906 0.030948505 0.20368163
000010 0b 55 b0 bc 90 a3 67 3d 83 eb 32 3d f1 d5 d5 3b
       -0.021524927 0.05655247 0.043681633 0.006525748
000020 78 72 d6 3d fc c1 db 3d 1d ba f3 3d 18 1f 92 bd
       0.10471052 0.10730359 0.11900733 -0.07134837
000030 4a ff 75 bb 4f 6a f8 3c dc fc 23 be e0 a7 33 3e
       -0.0037536197 0.03032413 -0.16014427 0.17544508
000040 77 ef 1a 3e a1 da 9b 3d c4 e3 8f 3d df f8 ae bd
       0.15130411 0.076100595 0.07025865 -0.08543562
000050 b8 ac 99 bd 56 51 3f 3d cf 9d c7 3e 2c e2 31 be
       -0.075036466 0.046708427 0.38987586 -0.17371434
000060 ab 29 5a be 3f f4 1f 3e 19 36 ba bc ce 3e 8e 3b
       -0.21304958 0.15620516 -0.022730874 0.004340983
000070 39 ee 96 3c 02 b3 6e bd 1b 23 b7 bc 67 66 85 3d
       0.01842414 -0.058276184 -0.022355607 0.06513672
000080 38 8f 4b bd ea 8c 1c be db 0f c2 3d 34 d3 6a 3d
       -0.04969713 -0.1528813 0.094756804 0.057330325
000090 ab 9d 6c 3e e1 89 9e 3d 2c 43 bb bd 6c 2b 41 3e
       0.2310702 0.07741142 -0.091436714 0.1886422
0000a0 4b e6 f2 3d bd e4 8c 3d d7 e0 0b be 68 30 2d bd
       0.11860331 0.06879566 -0.13659988 -0.042282492
0000b0 34 58 45 bd a1 15 00 3e a8 15 7a 3e ff f7 41 be
       -0.04817982 0.12508251 0.24422324 -0.18942259
0000c0 66 96 b9 bc 83 10 04 3d ae 17 3f 3e 82 42 de bd
       -0.022654723 0.03224231 0.18661377 -0.10852529
0000d0 57 3f 04 be 14 75 06 3d 3e 3a 36 bd e1 f4 00 3f
       -0.12914787 0.0328265 -0.044489138 0.50373656
0000e0 b6 1b ef bd 7c 08 f0 bc c2 c7 5c bd 70 e5 bf bd
       -0.11675207 -0.02930092 -0.05390144 -0.093699336
0000f0 93 f5 1f 3c c9 ee 80 3e b6 d5 c3 3c 9a 9d 05 3e
       0.009763139 0.2518218 0.023905616 0.13048401

network.6.weight f4 [64, 64]
000000 9d ce be 3d f8 a1 8b 3d c4 04 e1 bd 17 71 b1 bd
       0.09316752 0.068180025 -0.10987237 -0.08664148
000010 3a d7 90 bd e8 5b 9e bd af ef 8b 3d 2e 21 14 3d
       -0.07072301 -0.077323735 0.068328254 0.036164455
000020 9d b6 d6 3c c9 1f 5e 3d 5e cf 94 3d 65 c5 c1 3d
       0.026210124 0.05422953 0.07266115 0.09461478
000030 7d d1 b3 3d 84 49 73 bd ff 6d 13 bb 9a 05 e6 bd
       0.08780191 -0.05939628 -0.0022495983 -0.11231537
000040 22 cb 0c be 3d d8 97 3d 21 db f7 bc b2 e4 7b 3d
       -0.13749364 0.07414291 -0.030255856 0.061497398
000050 ae 25 90 3d 3b 93 09 be 17 03 2d 3c ca 28 99 3d
       0.07038437 -0.1343507 0.010559819 0.07478483
000060 7e a1 97 3d d8 cf bc bd 23 a3 e6 bd 58 3c dd bd
       0.07403849 -0.092193305 -0.112615846 -0.10802525
000070 c0 a4 e1 bd 5d 6f d0 3d 7c 60 a6 3d 2f 9d 95 3d
       -0.11017752 0.10177491 0.08123872 0.07305371
000080 ae 66 21 bd 46 11 ae 3d f3 29 15 bd d6 b7 75 bd
       -0.039404564 0.084993884 -0.03641696 -0.059989773
000090 84 05 ab 3d 2c 38 41 bd d0 13 b1 3c 72 c1 0a be
       0.083506614 -0.04717271 0.021615893 -0.13550356
0000a0 04 ce 0c 3d a6 0f c1 bd 9e 62 b6 bd 22 d4 8b bc
       0.03437616 -0.09426813 -0.089055285 -0.017068926
0000b0 10 38 d0 3c 28 79 89 bd ae 83 0b be 0b c1 e9 3c
       0.025417358 -0.06712562 -0.1362445 0.028534433
0000c0 bb ac 60 3d 20 87 98 3d 22 c0 89 bd 16 79 ab bd
       0.05485223 0.07447648 -0.067260996 -0.08372705
0000d0 e0 0c 90 bc 6d 70 8e bc a7 79 79 3d ea d6 67 3c
       -0.017584264 -0.017387593 0.060907032 0.014150361
0000e0 a1 03 c1 bd 83 1f 80 bd 6f 4f 0b 3c b1 b5 f9 bc
       -0.0942452 -0.062560104 0.008502825 -0.030482145
0000f0 1f 73 d1 bd c1 95 03 3c b2 93 fe bc c5 2d 10 3d
       -0.10227036 0.00803131 -0.031076286 0.0351999
000100 1a 71 d3 bd 06 50 ec bd b9 a1 54 3d a0 04 0e 3e
       -0.10324307 -0.11538701 0.051912043 0.13868952
000110 25 f5 0b bd e2 40 0a bc e1 5a 58 3d 2e 98 1a bd
       -0.034169335 -0.008438321 0.052821044 -0.037742786
000120 74 26 5c 3d 7c 40 a1 3d 0a 26 ba 3d 54 79 f7 3d
       0.05374761 0.078736275 0.090892866 0.120836884
000130 fe a0 33 3d a9 b9 81 3c da 49 2b 3d f0 83 65 3c
       0.043854706 0.0158356 0.041818477 0.014008507
000140 b7 c2 ef 3d 1b 73 09 3e b9 d6 ff 3d 98 87 60 bd
       0.11707061 0.13422816 0.12492127 -0.054816812
000150 9d 41 e6 ba 40 7d f5 3d 27 48 66 be 63 03 13 3e
       -0.0017567162 0.1198678 -0.22488461 0.1435676
000160 68 4f 1b 3e 2b 4e 29 3e 2b 60 49 3d 24 4e 37 bc
       0.1516701 0.16533725 0.04916398 -0.011188064
000170 8f 74 00 3c 07 65 60 bd 91 21 26 3d 9f 05 9a 3d
       0.00784029 -0.054783847 0.040559355 0.075206034
000180 4d d7 b6 bc af 15 76 3d 75 e2 55 3d df 1b f8 3d
       -0.02231946 0.060079273 0.05221792 0.12114691
000190 47 c9 9f bd 62 61 b5 3d f0 4d ca bc 76 89 0d 3e
       -0.078020625 0.08856465 -0.024695367 0.13821968
0001a0 0a 56 55 3c e2 c8 33 3d 47 12 1b 3e 07 ed 14 3c
       0.013021002 0.04389275 0.15143691 0.009089715
0001b0 48 ac b3 bd d0 40 36 3d 3d df 45 bd 21 2e ef 3d
       -0.087730944 0.044495404 -0.0483086 0.1167872
0001c0 f8 4b 3c 3c 1e 7c 0f 3e 1f 21 15 3e 9e 1c b1 bd
       0.011492722 0.1401219 0.14563416 -0.086480364
0001d0 8f 8d 83 3d aa 85 9d bc 0d bc 55 3d 8d 00 75 be
       0.064234845 -0.019228775 0.052181292 -0.23925991
0001e0 76 58 20 3e e9 56 5a 3d b6 f3 d2 3d 2f 57 70 3c
       0.15658745 0.05330554 0.103003904 0.014669224
0001f0 82 59 d2 3d 3b d3 43 3d 27 0d 4d bd ee b4 05 bd
       0.102709785 0.047808867 -0.05006137 -0.03264325
000200 cf b6 93 3d 8d 60 ce 3d 33 37 e6 3d a6 a2 9b 3d
       0.07212602 0.10077009 0.11240997 0.07599382
000210 92 9f b1 3c 7f 29 90 bc 9e c4 e1 3d 35 f0 84 bc
       0.021682534 -0.017597912 0.1102383 -0.01622782
000220 af af 50 bd 2d 66 79 bd 0f 94 f3 3c a1 06 48 bd
       -0.050948795 -0.060888458 0.029733686 -0.048834447
000230 da aa 8a 3d e6 39 6a bd 2c 51 c0 3d 15 7c b0 3d
       0.067708686 -0.057184123 0.09390482 0.08617417
000240 3f e8 20 3e e6 bf 01 3b d4 5f df bc e3 3c fa 3d
       0.15713595 0.0019798218 -0.027267374 0.122186445
000250 65 12 80 bd 2e 0e 1c 3e b1 29 0b bd 48 d4 1e 3e
       -0.062535085 0.15239784 -0.033975307 0.15510666
000260 fc 3b 90 bd 10 43 18 3e 03 39 1a 3d 4e 8c 85 3d
       -0.07042691 0.14869332 0.037652027 0.065209016
000270 0a d8 05 3e a7 1d 85 3d 57 7c 9d bd 29 23 6f 3d
       0.13070694 0.06499796 -0.076897316 0.05838314
000280 ff e9 3a 3c e6 3d 66 3d 7c 09 ac 3d d9 20 17 3e
       0.011408328 0.056211375 0.084002465 0.14758624
000290 86 15 3f 3d 19 6e 7b 3c 1e 7b 90 3d 27 fb d8 3d
       0.046651386 0.015346074 0.07054733 0.105947785
0002a0 fd 5d db bc 96 ae 8a bd 4c ac b1 3d 70 64 fa bb
       -0.026778216 -0.06771581 0.08675441 -0.0076413676
0002b0 c0 40 b4 bd 38 a0 c6 3c 33 98 9d bd 1c f7 ed 3c
       -0.088014126 0.02424632 -0.07695045 0.029048495
0002c0 48 77 91 3d d3 c2 6b bd c0 e9 2d 3d b4 55 c2 bc
       0.07102829 -0.057558846 0.04245925 -0.023722507
0002d0 4f 3a 14 3d af 1d 19 3e af e0 c7 ba bc b7 5e be
       0.03618842 0.1495273 -0.0015249456 -0.21749777
0002e0 4e 59 86 bd 51 4f 99 bc 19 bb 2f 3c 31 9b 0e 3e
       -0.06560002 -0.018714579 0.01072576 0.13926388
0002f0 52 e0 12 3d 43 3f 9e bd 9d b6 31 bd 8b aa be 3d
       0.03585846 -0.0772691 -0.043387044 0.09309872
000300 82 f3 8d 3c 3e c1 99 bd bc d6 8f 3d 1d 9b 78 3d
       0.017328028 -0.07507561 0.07023379 0.060694803
000310 9b 44 d5 bd cb 0d 86 3d 49 a7 28 3d 32 fc 99 3c
       -0.10413476 0.065455996 0.04117516 0.018797014
000320 f5 63 d8 3d ed a2 1d 3e 10 25 0c 3d 34 62 06 3e
       0.1056594 0.15394183 0.034215033 0.13123399
000330 f9 5b 0e 3d cc c1 e0 3c ee 14 4a bd fd da a9 bc
       0.03475568 0.02743616 -0.049336366 -0.020734305
000340 bc ba fe 3c a7 03 27 3e 6d 4e c4 3d 0d c1 27 3e
       0.031094901 0.16309987 0.09585271 0.16382237
000350 77 67 02 bc f4 74 35 3c 91 48 15 be 84 d0 96 3d
       -0.007959238 0.011075247 -0.14578463 0.0736399
000360 94 4c c2 bb 50 63 5b bd e7 65 ab bd 49 71 c7 3d
       -0.005929539 -0.05356151 -0.08369046 0.09738404
000370 4f b5 ea 3d 71 ea ab bd 21 ec 05 3e 97 57 2a 3d
       0.11460363 -0.083943255 0.13078357 0.04158744
000380 ad 03 5a 3c 6e e0 60 3d aa f0 f5 3c e8 53 a1 bc
       0.01330654 0.054901533 0.030021984 -0.01969333
000390 1b 6c 24 3e ee 97 84 3a c8 2d 5c bd e9 7e ff 3c
       0.16056864 0.0010116079 -0.053754598 0.031188445
0003a0 74 2a 3f bd 58 14 13 3e e2 f0 fa 3d 77 ca 74 bd
       -0.046671346 0.1436323 0.12252976 -0.059763398
0003b0 32 61 ca bd f8 fd d8 3d 5e f6 29 3d dd b5 b3 3d
       -0.0988182 0.10595316 0.04149472 0.08774922
0003c0 83 34 e5 3d 68 90 b5 3d ef 01 4f 3d 3e 42 00 bd
       0.111916564 0.08865434 0.050538953 -0.031313173
0003d0 bc c6 da 3d 6e 6e c3 3d 5b 5f 6c bd 4c bb a2 be
       0.10682437 0.09542547 -0.057708126 -0.3178352
0003e0 97 7a d0 3d 72 a9 67 bd 82 d5 9a bd 44 14 05 3b
       0.10179632 -0.05655808 -0.07560255 0.0020306269
0003f0 18 7d 1e 3e e9 ec be 3c 61 48 57 3c e5 81 22 bd
       0.15477407 0.023306327 0.013139815 -0.03967466

network.6.bias f4 [64]
000000 87 56 b4 3d 02 ee a4 bd 09 09 59 bd 2e fe 25 bd
       0.08805566 -0.08053209 -0.052987132 -0.040525608
000010 29 dd 7a 3e 80 78 83 3e 13 30 20 3c b6 d6 c6 bd
       0.24498428 0.25677872 0.009777087 -0.097089216
000020 dc cd 16 bd 9d c9 a9 bd cc 20 17 be 1e 80 4e be
       -0.036817417 -0.08290408 -0.14758605 -0.2016606
000030 c8 4b 6d bd ac 3d 93 3d bc 5a 9e bd f6 32 9b bd
       -0.0579336 0.07189497 -0.0773215 -0.075780794
000040 df cf b0 bd ce 38 c0 bd 30 48 7a bd 90 e2 08 bd
       -0.08633398 -0.09385835 -0.061104 -0.03341919
000050 49 b3 e9 bd 40 9f a3 bd 29 88 ad 3d d3 bb f4 3d
       -0.11411149 -0.07989359 0.08473236 0.11949887
000060 fd 4f dd 3c e5 56 89 3e a2 31 45 bb 2b 4d 9d bd
       0.02701568 0.26824108 -0.0030089398 -0.07680734
000070 6e df dc bd c5 1b 04 be f2 d1 f3 bd be b4 64 3d
       -0.10784803 -0.12901218 -0.11905278 0.05583643
000080 8d 44 1a be eb 0d a0 be 63 5f ab 3c c3 2e 48 bc
       -0.15065213 -0.3126062 0.020919507 -0.01221818
000090 f6 2b e8 bd 7c cf 62 3c ea d8 ef 3c 5b f4 bb bb
       -0.1133651 0.013843413 0.029278237 -0.0057359166
0000a0 0d 02 c7 bd ed bc 5c bb ce 32 21 bc db 4b 82 3c
       -0.09717188 -0.0033681944 -0.009838773 0.015905311
0000b0 2c 25 c9 bd f3 1d 5b 3a c8 df 12 3f 39 e7 4d 3d
       -0.09821543 0.000835865 0.57372713 0.05026934
0000c0 23 a5 a1 bd 6b 2e 21 bd a0 eb 82 bd c4 25 17 3d
       -0.078928255 -0.03935091 -0.06392598 0.03690125
0000d0 51 04 03 bd d8 f8 34 bd 19 5f 93 3c 85 09 bf 3d
       -0.03198654 -0.04418263 0.017989682 0.093279876
0000e0 87 37 6c 3e 82 26 b0 bd 5c 76 90 3e 5d 62 1a 3c
       0.23068057 -0.08601095 0.282153 0.009422866
0000f0 45 2d 28 bd 18 c0 75 bd 28 2b b5 3e 3a 07 1a be
       -0.041058797 -0.059997648 0.35384488 -0.15041819

network.8.weight f4 [1, 64]
000000 a1 1f 82 3c 2c ed d9 bd 77 10 fa bd 56 8b 5d bd
       0.015884222 -0.1064094 -0.12210172 -0.05408796
000010 1a 24 04 3f 6a 34 9d 3e b5 bc 9c 3d 18 96 c6 3c
       0.51617587 0.3070405 0.076531805 0.024241492
000020 e0 fc ec 3d 3d 07 ca bd 36 9e 90 bd 4d b5 08 bd
       0.115716696 -0.09864662 -0.07061426 -0.033376027
000030 f0 58 24 be 98 2d ca 3d db 3f 97 3d 66 07 88 bd
       -0.16049552 0.098719776 0.07385226 -0.06642036
000040 4c 4f b6 bd 1f cb 6c bd cc 2d 53 bd e1 c0 db bd
       -0.089018434 -0.0578109 -0.051557347 -0.10730148
000050 aa 73 dd bd a0 51 62 3d f0 8d 2f bc c8 d3 6c 3e
       -0.10813077 0.055253625 -0.010714993 0.23127663
000060 86 c2 bc bd c4 69 d4 3e 45 c3 05 3d 9c 3f 04 be
       -0.0921679 0.41486943 0.032656927 -0.1291489
000070 a1 5c 96 3d 1b 0e 8a bd 41 5e e3 bc e6 a9 8e 3c
       0.07341886 -0.06740972 -0.027754905 0.017414998
000080 ed 02 0a be 2e eb bf be 35 ac 29 3e 88 a3 2c bd
       -0.13477679 -0.37484115 0.16569598 -0.042148143
000090 8d da df bd 56 00 29 be 92 94 7c bd f7 9d 48 3d
       -0.10930357 -0.16504034 -0.061665125 0.048978772
0000a0 9e 39 2b 3e 0a 14 d1 3d 97 29 c1 3d dd d4 07 be
       0.16721198 0.102089 0.09431761 -0.13264795
0000b0 ea ba e1 bd 60 f3 a3 3d 6d d8 03 3f eb a4 3e 3d
       -0.11021979 0.080054045 0.51502115 0.046543997
0000c0 08 6d dc bc e0 de 23 be 40 a3 a3 bd 98 bf 75 3d
       -0.026907459 -0.16002989 -0.07990122 0.05999717
0000d0 57 63 31 be ec d4 38 3d d3 63 e6 3d b8 df 6e 3d
       -0.17323051 0.045124933 0.11249509 0.058318824
0000e0 6b ef c7 3e 18 3d e8 bd 84 cc f0 3e 2d 26 c1 bd
       0.3904985 -0.11339778 0.47031033 -0.094311096
0000f0 55 89 17 be ca 46 f1 3c 84 8d ef 3e 7b e5 05 be
       -0.14798482 0.0294527 0.46787655 -0.13075821
